astronet/tinho/models/plasticc/clustered_stripped_fink_model.tflite (tflite, 93756 bytes, 21 tensors)

Const f4 [1, 100, 32]
000000 00 00 00 00 00 00 80 3f 00 00 00 00 00 00 80 3f
       0.0 1.0 0.0 1.0
000010 00 00 00 00 00 00 80 3f 00 00 00 00 00 00 80 3f
       0.0 1.0 0.0 1.0
000020 00 00 00 00 00 00 80 3f 00 00 00 00 00 00 80 3f
       0.0 1.0 0.0 1.0
000030 00 00 00 00 00 00 80 3f 00 00 00 00 00 00 80 3f
       0.0 1.0 0.0 1.0
000040 00 00 00 00 00 00 80 3f 00 00 00 00 00 00 80 3f
       0.0 1.0 0.0 1.0
000050 00 00 00 00 00 00 80 3f 00 00 00 00 00 00 80 3f
       0.0 1.0 0.0 1.0
000060 00 00 00 00 00 00 80 3f 00 00 00 00 00 00 80 3f
       0.0 1.0 0.0 1.0
000070 00 00 00 00 00 00 80 3f 00 00 00 00 00 00 80 3f
       0.0 1.0 0.0 1.0
000080 a4 6a 57 3f 40 51 0a 3f ba 7d 08 3f 0e 94 58 3f
       0.84147096 0.5403023 0.53316844 0.84600914
000090 3e 39 9f 3e 6a 4e 73 3f 3a 23 35 3e 83 f6 7b 3f
       0.3109836 0.95041525 0.17689219 0.9842302
0000a0 76 75 cc 3d 98 b8 7e 3f b0 36 66 3d 68 98 7f 3f
       0.099833414 0.9950042 0.056204498 0.9984193
0000b0 5c 81 01 3d 3c df 7f 3f 42 ab 91 3c a3 f5 7f 3f
       0.031617507 0.99950004 0.017781857 0.99984187
0000c0 57 d6 23 3c b9 fc 7f 3f 5c 44 b8 3b f7 fe 7f 3f
       0.009999833 0.99995 0.0056233834 0.9999842
0000d0 20 3e 4f 3b ac ff 7f 3f 20 15 e9 3a e5 ff 7f 3f
       0.0031622723 0.999995 0.0017782785 0.9999984
0000e0 6d 12 83 3a f8 ff 7f 3f 16 6a 13 3a fd ff 7f 3f
       0.0009999998 0.9999995 0.0005623413 0.9999998
0000f0 5f cb a5 39 ff ff 7f 3f 53 77 3a 39 00 00 80 3f
       0.00031622776 0.99999994 0.00017782794 1.0
000100 b7 c7 68 3f 33 11 d5 be 0a f2 66 3f b2 e8 dc 3e
       0.9092974 -0.41614684 0.9021307 0.43146282
000110 1b 54 17 3f ec 7b 4e 3f f6 47 b2 3e a5 fa 6f 3f
       0.5911271 0.8065784 0.34820527 0.9374183
000120 f9 6f 4b 3e a5 e5 7a 3f 88 d9 e5 3d f3 61 7e 3f
       0.19866933 0.9800666 0.112231314 0.9936821
000130 c8 70 81 3d f9 7c 7f 3f 5c a5 11 3d 8e d6 7f 3f
       0.063203394 0.9980007 0.03555809 0.9993676
000140 3e d4 a3 3c e5 f2 7f 3f 9d 43 38 3c db fb 7f 3f
       0.019998666 0.9998 0.011246589 0.99993676
000150 dd 3d cf 3b b0 fe 7f 3f 08 15 69 3b 96 ff 7f 3f
       0.0063245133 0.99998 0.0035565514 0.9999937
000160 69 12 03 3b de ff 7f 3f 14 6a 93 3a f5 ff 7f 3f
       0.0019999987 0.999998 0.0011246824 0.99999934
000170 5f cb 25 3a fd ff 7f 3f 53 77 ba 39 ff ff 7f 3f
       0.0006324555 0.9999998 0.00035565588 0.99999994
000180 c3 81 10 3e 26 70 7d bf d7 45 7e 3f a8 7f ed bd
       0.14112 -0.9899925 0.9932532 -0.11596614
000190 c2 09 50 3f 57 2f 15 3f 6d 2f 02 3f 29 6d 5c 3f
       0.8126489 0.5827536 0.50853616 0.86104065
0001a0 6d 4e 97 3e ef 90 74 3f d8 ee 2b 3e 9e 5d 7c 3f
       0.29552022 0.9553365 0.1679033 0.9858035
0001b0 c1 ff c1 3d 4f d9 7e 3f 4d 69 5a 3d c3 a2 7f 3f
       0.09472609 0.99550337 0.05332308 0.9985773
0001c0 20 b9 f5 3c 83 e2 7f 3f c7 31 8a 3c ad f6 7f 3f
       0.029995501 0.99955004 0.016869439 0.9998577
0001d0 11 6e 1b 3c 0d fd 7f 3f a8 cf ae 3b 11 ff 7f 3f
       0.009486691 0.999955 0.005334813 0.99998575
0001e0 93 9b 44 3b b5 ff 7f 3f 1b 1f dd 3a e8 ff 7f 3f
       0.0029999956 0.9999955 0.0016870232 0.99999857
0001f0 0d b1 78 3a f8 ff 7f 3f 7e d9 0b 3a fe ff 7f 3f
       0.0009486832 0.9999995 0.0005334838 0.9999999
000200 cf bd 41 bf 30 55 27 bf ed 49 47 3f 9d af 20 bf
       -0.7568025 -0.6536436 0.77847177 -0.62767965
000210 de 1d 74 3f b1 2e 9a 3e bc 1f 27 3f ed eb 41 3f
       0.95358074 0.30113748 0.652828 0.7575062
000220 d7 61 c7 3e a7 ca 6b 3f c6 65 64 3e 09 8d 79 3f
       0.38941833 0.921061 0.22304448 0.9748083
000230 88 2e 01 3e 69 f4 7d 3f c8 8d 91 3d 47 5a 7f 3f
       0.12615407 0.99201065 0.07107121 0.9974713
000240 db cb 23 3d 94 cb 7f 3f a2 40 b8 3c 6c ef 7f 3f
       0.039989334 0.9992001 0.022491757 0.99974704
000250 cd 3c 4f 3c c2 fa 7f 3f a7 14 e9 3b 58 fe 7f 3f
       0.012648773 0.99992 0.0071130577 0.9999747
000260 58 12 83 3b 7a ff 7f 3f 0e 6a 13 3b d6 ff 7f 3f
       0.0039999895 0.999992 0.0022493633 0.9999975
000270 5c cb a5 3a f3 ff 7f 3f 52 77 3a 3a fc ff 7f 3f
       0.0012649107 0.9999992 0.0007113117 0.99999976
000280 10 7c 75 bf 2c 3c 91 3e d6 da a5 3e 40 32 72 bf
       -0.9589243 0.2836622 0.3239352 -0.94607925
000290 7f fc 7f 3f d4 72 29 bc ab ca 46 3f f1 4c 21 3f
       0.99994653 -0.010342319 0.77652997 0.6300803
0002a0 44 77 f5 3e 40 a9 60 3f ee 11 8e 3e 7c f2 75 3f
       0.47942555 0.87758255 0.27748054 0.96073127
0002b0 1e 3c 21 3e 81 ce 7c 3f 21 db b5 3d 1e fd 7e 3f
       0.15745589 0.987526 0.08879686 0.99604976
0002c0 f5 b6 4c 3d 19 ae 7f 3f fe 4d e6 3c 19 e6 7f 3f
       0.04997917 0.99875027 0.028113361 0.99960476
0002d0 81 85 81 3c cf f7 7f 3f bb ac 11 3c 69 fd 7f 3f
       0.01581073 0.999875 0.00889128 0.9999605
0002e0 de d6 a3 3b 2e ff 7f 3f 8c 44 38 3b be ff 7f 3f
       0.0049999794 0.9999875 0.002811703 0.99999607
0002f0 31 3e cf 3a eb ff 7f 3f 26 15 69 3a f9 ff 7f 3f
       0.0015811381 0.99999875 0.0008891396 0.9999996
000300 8c 0f 8f be b8 cd 75 3f 74 e5 6b be 53 1d 79 bf
       -0.2794155 0.96017027 -0.23036748 -0.9731037
000310 4d 78 72 3f 6f 3f a4 be 89 30 60 3f 34 2f f7 3e
       0.94714814 -0.32079646 0.8757406 0.482782
000320 69 8c 10 3f 32 49 53 3f fd 7d a9 3e e2 90 71 3f
       0.5646425 0.8253356 0.33103934 0.943617
000330 6f 20 41 3e e3 67 7b 3f c1 19 da 3d 51 8b 7e 3f
       0.18860029 0.98205394 0.106494434 0.9943133
000340 d1 9c 75 3d 12 8a 7f 3f bf 2c 0a 3d b3 da 7f 3f
       0.059964005 0.99820054 0.03373408 0.99943084
000350 46 6c 9b 3c 34 f4 7f 3f 04 cf 2e 3c 45 fc 7f 3f
       0.018972527 0.99982 0.010669474 0.9999431
000360 59 9b c4 3b d2 fe 7f 3f 06 1f 5d 3b a1 ff 7f 3f
       0.005999964 0.999982 0.0033740415 0.99999434
000370 05 b1 f8 3a e2 ff 7f 3f 7d d9 8b 3a f6 ff 7f 3f
       0.0018973654 0.9999982 0.0010669675 0.9999994
000380 46 30 28 3f bd ff 40 3f 6e b6 36 bf 60 4f 33 bf
       0.6569866 0.75390226 -0.71372116 -0.7004299
000390 6f e8 4c 3f bb 74 19 bf 44 84 72 3f b9 f8 a3 3e
       0.80042166 -0.5994374 0.9473307 0.32025698
0003a0 73 eb 24 3f b3 cc 43 3f df 60 c4 3e c5 6b 6c 3f
       0.64421767 0.7648422 0.38355157 0.92351943
0003b0 50 d3 60 3e ea c0 79 3f ba 46 fe 3d e9 04 7e 3f
       0.2195561 0.9755999 0.12415834 0.9922624
0003c0 32 3e 8f 3d 81 5f 7f 3f 60 31 21 3d 3b cd 7f 3f
       0.06994285 0.997551 0.03935373 0.9992253
0003d0 a6 52 b5 3c f2 ef 7f 3f 2a f1 4b 3c ec fa 7f 3f
       0.022134136 0.999755 0.012447635 0.9999225
0003e0 c7 5f e5 3b 65 fe 7f 3f be fc 80 3b 7e ff 7f 3f
       0.006999943 0.9999755 0.003936379 0.99999225
0003f0 ec 11 11 3b d7 ff 7f 3f 66 28 a3 3a f3 ff 7f 3f
       0.0022135926 0.99999756 0.0012447953 0.9999992

BiasAdd/ReadVariableOp f4 [14]
000000 77 36 56 bf 28 10 0e bf 37 ec 56 c0 65 68 d1 3f
       -0.83676857 -0.554934 -3.3581674 1.6359984
000010 9d 40 c7 3f 8d f2 b1 c0 24 dd fa 3f 99 e8 ab c0
       1.5566593 -5.5608582 1.9598737 -5.3721433
000020 f6 db 0f c0 fd 80 c8 3f 1f 76 95 bf e7 8e ec 3f
       -2.2478004 1.5664364 -1.1676673 1.848111
000030 26 94 95 c0 04 cc f6 3f
       -4.6743345 1.9281011

sequential/dense_5/BiasAdd/ReadVariableOp f4 [32]
000000 9d 10 7c c1 62 b5 2e 41 31 82 47 c1 38 c0 ea 3d
       -15.754056 10.919283 -12.469285 0.11462444
000010 96 15 99 c1 e2 6e b0 c1 0e 2c 6c 40 bb db 9a c1
       -19.13554 -22.054142 3.690189 -19.35729
000020 00 19 93 40 a3 f7 13 c1 e3 5a 01 41 1f fe ff c0
       4.5968018 -9.247958 8.084689 -7.9997706
000030 81 66 09 c2 eb 24 46 c1 d6 53 99 c1 9f 63 c5 c1
       -34.3501 -12.384013 -19.165936 -24.673643
000040 93 b3 ea 40 19 56 45 41 a1 bb 6c c1 46 a6 ff 41
       7.3344207 12.33352 -14.795808 31.956188
000050 38 54 d2 41 0e b7 3f c1 c7 78 99 c1 0c 4f 81 c1
       26.291122 -11.982191 -19.183973 -16.163597
000060 d7 e3 1a c2 b7 0e 4a c1 82 21 ab 41 dd 2e 03 40
       -38.7225 -12.6285925 21.391361 2.0497353
000070 77 88 45 c1 39 f1 4e c1 48 76 ec c0 fe ff 04 41
       -12.345817 -12.933892 -7.3894386 8.312498

sequential/dense_4/BiasAdd/ReadVariableOp f4 [128]
000000 de 35 94 40 65 90 9f c0 bb 16 c8 c0 e6 e1 1e c1
       4.6315756 -4.9863763 -6.2527747 -9.930151
000010 af 19 1b c1 96 39 ab 3e 39 c2 03 c1 9b 1b 01 c1
       -9.69377 0.33442372 -8.234918 -8.06924
000020 58 36 21 c1 99 c1 0c c0 8e 14 f9 c0 0e 64 5e bf
       -10.0757675 -2.1993163 -7.783759 -0.8687142
000030 1d 6f 51 3e d6 26 86 3f 0f 87 9e c0 fd e2 e1 c0
       0.20452543 1.0480602 -4.9539866 -7.0589585
000040 62 df 09 bf 6e db 4c c0 65 12 12 c1 8f b1 b5 3f
       -0.5385648 -3.200893 -9.129491 1.4194812
000050 75 14 1d 3f 70 78 46 c1 40 4a 8b c0 95 4d 35 c1
       0.6135934 -12.404404 -4.3528137 -11.331441
000060 4b 74 f8 c0 6d 55 df c0 9b 66 fa c0 a5 7b 10 c1
       -7.764196 -6.979178 -7.825025 -9.030187
000070 ec de 4b c1 38 b0 9d c0 1c 2f 0f c1 87 9e 65 c1
       -12.741924 -4.927761 -8.949001 -14.351203
000080 eb aa 1e c1 a4 22 35 c0 a0 5a 7b c1 78 cd dd c0
       -9.916728 -2.8302393 -15.709625 -6.9313316
000090 9e 33 97 bf 2a 59 c5 c0 5b b7 7a c1 c8 5b 93 bf
       -1.1812627 -6.1671343 -15.6697645 -1.1512384
0000a0 18 79 09 c1 1f 42 27 c1 0b b2 3f c1 08 4f eb c0
       -8.592064 -10.453643 -11.9809675 -7.3533974
0000b0 6a 47 89 bf 6f b0 1a c1 b9 1d 1f c1 79 b5 20 c1
       -1.0724919 -9.668075 -9.9447565 -10.044305
0000c0 60 3f 68 c1 84 0e 8f c0 ff 83 0c 3e 97 c4 29 3f
       -14.515472 -4.470522 0.13722228 0.663156
0000d0 24 82 01 c1 04 d5 fb c0 14 88 16 c1 c0 8b c6 3f
       -8.094273 -7.869753 -9.408222 1.5511398
0000e0 5e e8 76 bf 43 e1 7e c0 6d f5 65 c0 4f b3 6b c1
       -0.96448314 -3.982499 -3.5931046 -14.7312765
0000f0 d4 bf a2 c0 92 c7 d8 c0 36 80 9b c0 e9 e0 14 c0
       -5.0859165 -6.7743616 -4.8594007 -2.3262274
000100 84 90 38 c1 eb 32 76 bf 99 7d 21 c1 20 bc e4 c0
       -11.535282 -0.96171445 -10.0931635 -7.1479645
000110 71 f2 39 c1 0a 03 1d c0 01 97 b6 c0 5e 81 42 c1
       -11.62169 -2.4533105 -5.705933 -12.156584
000120 f5 30 a8 c0 55 93 89 c1 db 0c aa bd f4 0d 02 c0
       -5.255976 -17.19694 -0.08303233 -2.0321016
000130 c3 b7 8a c1 98 38 84 c0 1c f3 d5 c0 61 9d af c0
       -17.339727 -4.1319084 -6.6859264 -5.4879613
000140 70 fd 80 c1 6a 27 9b c0 10 ce 00 c1 d8 cc 2c c1
       -16.123749 -4.8485613 -8.050308 -10.800011
000150 85 dd 0b c1 21 e9 e2 c0 bb 96 51 c1 78 ae 45 c1
       -8.741582 -7.090958 -13.099299 -12.355095
000160 80 0c b0 bf 2a 41 a8 bf f1 09 3d c1 c7 c4 d6 c0
       -1.3753815 -1.3144886 -11.814927 -6.7115207
000170 af 54 15 c1 16 d3 54 c0 37 d0 12 c1 a6 87 df c0
       -9.333175 -3.3253837 -9.175834 -6.9853086
000180 ab d3 12 c1 08 6e 85 c0 3f 16 0c c0 80 d6 db c0
       -9.176677 -4.1696815 -2.1888578 -6.869934
000190 b7 37 19 c1 74 2e 3c c1 75 44 3e bf 4a 7d c7 c0
       -9.576102 -11.761341 -0.7432321 -6.234044
0001a0 7d 31 c4 c0 ed a6 fe c0 dc 6e 2d c1 88 11 55 c1
       -6.131041 -7.9578767 -10.839565 -13.31678
0001b0 38 9d ad c1 bd 2f bc c0 ba 2f fb c0 57 54 1c c0
       -21.701767 -5.8808274 -7.849576 -2.4426477
0001c0 5a 11 9d c0 dd fc 23 c1 21 ad 3a c1 80 27 a8 c0
       -4.908368 -10.249234 -11.667268 -5.254822
0001d0 20 10 1f c0 84 82 ec 3f e2 a9 0d c1 3e 40 2b c1
       -2.4853592 1.847733 -8.853975 -10.703184
0001e0 11 03 df c0 ec d7 35 c1 03 aa 2f c0 e0 54 22 c0
       -6.9691243 -11.365215 -2.7447517 -2.5364304
0001f0 15 c0 00 c1 8b 7d 2c c1 03 f9 bc c0 3c e2 9e c0
       -8.046895 -10.78065 -5.905397 -4.9651165

multi_head_self_attention/dense/BiasAdd/ReadVariableOp f4 [32]
000000 d3 94 36 3e 8f b6 09 41 eb 41 de bf e3 c6 9a 40
       0.1783021 8.60707 -1.7363867 4.836778
000010 20 5a 5b 40 21 68 b0 c0 38 6b e7 40 e5 8e 88 c0
       3.4273758 -5.512711 7.231838 -4.267443
000020 58 b1 35 41 0f 17 f1 3f 4a b6 2b 3f 86 62 e9 40
       11.355797 1.8835162 0.67075026 7.293277
000030 18 ff 9c c0 a5 9a 21 40 20 c2 f5 3f 94 05 19 c1
       -4.9061394 2.5250638 1.9199867 -9.563862
000040 43 40 eb 3e c5 15 5f c0 4c 82 2d bf 8d d0 44 c1
       0.45947465 -3.4857037 -0.6777694 -12.300916
000050 d7 2b ec c0 39 08 f5 c0 9e 6b 45 c0 07 f1 9b 40
       -7.3803515 -7.6572537 -3.0846934 4.8731723
000060 89 6b 21 41 dc b8 28 40 80 7f 65 40 37 37 a6 3f
       10.088754 2.636283 3.585907 1.29856
000070 ff 2d b9 c0 3c 91 eb c0 05 84 f1 40 39 0c 06 c1
       -5.7868648 -7.361479 7.5473657 -8.377984

multi_head_self_attention/dense_3/BiasAdd/ReadVariableOp f4 [32]
000000 c0 89 f5 40 0d 25 03 40 e4 22 f8 c0 1a 44 a6 c0
       7.673065 2.0491364 -7.754259 -5.195813
000010 41 e0 5e c0 e2 78 86 41 27 60 22 40 aa d4 38 40
       -3.4824374 16.809025 2.5371187 2.88798
000020 ad 81 12 41 a8 43 21 41 26 30 32 41 b5 07 7e c0
       9.156659 10.079018 11.136755 -3.9692204
000030 37 60 ed 40 91 0b a1 bf 72 40 81 41 e8 f7 80 bf
       7.417995 -1.2581655 16.156467 -1.0075655
000040 b3 a6 cc 41 f1 37 1e 41 69 57 3d 3e 3f 31 cb 40
       25.581396 9.888658 0.18490376 6.3497615
000050 32 df 20 c0 6c 52 a3 40 1e 9d a0 c2 2c 14 9d bf
       -2.5136228 5.1038113 -80.30687 -1.2271781
000060 0d 35 b2 c0 73 d3 f2 40 21 67 dc 40 b9 98 a9 41
       -5.568976 7.5883117 6.887589 21.199572
000070 8a f1 ec bf d8 90 a3 41 d8 59 c9 c1 eb e7 3b 41
       -1.8511212 20.445724 -25.168869 11.744121

multi_head_self_attention/dense_2/BiasAdd/ReadVariableOp f4 [32]
000000 e6 10 25 41 1f 75 04 c0 8b b7 d9 40 34 24 b6 c0
       10.316626 -2.0696485 6.803655 -5.6919193
000010 f4 7f 56 c0 b6 9c ec 40 fb 57 1f c2 d4 e4 53 c1
       -3.3515596 7.3941298 -39.83592 -13.243366
000020 85 b4 82 40 ef a9 2d c0 f2 e7 81 c0 9e 8a 9f c1
       4.084536 -2.713497 -4.0595636 -19.942684
000030 e5 35 39 bf ae d3 90 c0 74 ed f8 3f 8e 1a 5b 40
       -0.7234786 -4.52584 1.9447465 3.4234958
000040 0a 85 b2 3e f4 3b 4e 40 13 dd 06 c1 2a a5 ad 40
       0.34867126 3.2224092 -8.428973 5.4264116
000050 fe eb 60 bf 04 f9 f1 40 4d 51 8b 40 86 e9 94 c0
       -0.87860096 7.5616474 4.3536744 -4.6535063
000060 cb dd c5 3f 8b a9 bf c0 6b 8f 0c 41 2d bd 2c c1
       1.5458311 -5.989446 8.785014 -10.7961855
000070 07 ce 84 c0 57 28 72 40 12 18 09 c1 3f e3 f8 c0
       -4.15015 3.7837121 -8.568377 -7.77774

multi_head_self_attention/dense_1/BiasAdd/ReadVariableOp f4 [32]
000000 60 a7 1d 3e fa 69 c6 be fd bf 0b 3d 0e ba 82 bf
       0.1539588 -0.3875273 0.03411864 -1.0213029
000010 51 48 b3 3e a7 d0 72 bf c3 cb 83 be f4 19 36 3e
       0.3501611 -0.9484963 -0.25741395 0.17783338
000020 89 2d e2 3c b3 84 2a 3a 53 f6 2e bf b5 eb 21 3e
       0.027609603 0.0006504759 -0.6834461 0.15812571
000030 d5 86 35 3e 1a 67 0e be 62 b7 b9 bd 70 e3 74 3e
       0.17727216 -0.13906518 -0.090681806 0.23914886
000040 34 a3 6a 3e 30 43 28 3c 49 ff b8 be ca de 6c be
       0.2291382 0.010269925 -0.36132267 -0.23131862
000050 32 1c 8c be ad 2e 40 bf f9 cb d2 be b1 cf 90 be
       -0.2736526 -0.7507122 -0.41171244 -0.28283456
000060 af fb 87 be 29 dd 48 3d f1 cb 88 3e 47 78 52 bf
       -0.26559207 0.04903904 0.26718095 -0.8221478
000070 02 7d d8 3e 69 98 92 3e e1 9a 83 3e a3 0f b5 3d
       0.42282873 0.28631905 0.257041 0.08840873

layer_normalization/batchnorm/ReadVariableOp f4 [32]
000000 16 9f 8d 3f 25 6a 72 40 3a 1e 4a 40 ba 07 96 c0
       1.1064174 3.7877285 3.158095 -4.688443
000010 6d 55 64 c0 bb d6 2f c1 92 ce 5e 3f 50 22 37 40
       -3.567714 -10.989924 0.8703395 2.8614693
000020 f9 31 65 41 a2 9e 89 40 06 4c 3a c0 b6 b1 e7 40
       14.3247 4.3006144 -2.91089 7.240443
000030 f1 e0 03 c1 d9 d2 2c c0 e8 b4 19 40 8e f8 72 c0
       -8.242417 -2.7003691 2.4016666 -3.7964206
000040 fb 2f 0b 40 8f 1b 8f 3f fa 4d e7 c0 69 20 2a bf
       2.1748035 1.1180285 -7.2282686 -0.66455704
000050 2d 74 34 40 96 19 8f c0 9b 58 03 c1 a3 41 02 40
       2.8195908 -4.4718733 -8.209132 2.0352561
000060 8c b8 d6 c0 68 13 3a 40 44 89 b8 c0 da f9 68 3f
       -6.7100277 2.9074345 -5.766756 0.91006243
000070 86 44 18 41 04 62 8a be b6 9f 38 c1 9d 08 41 40
       9.516729 -0.27027905 -11.538992 3.0161507

layer_normalization/batchnorm/mul/ReadVariableOp f4 [32]
000000 0a a9 53 41 b7 db 37 41 a8 41 4f 41 32 f6 00 41
       13.228769 11.491141 12.953529 8.060106
000010 5e 29 5e 41 55 ed 45 41 6a 91 4a 41 33 a1 80 41
       13.885099 12.370442 12.6605015 16.07871
000020 00 83 f2 40 c5 32 90 41 8b 1d 09 41 41 bf 35 41
       7.578491 18.02479 8.569713 11.359193
000030 98 1e 2e 41 66 e3 4d 41 e8 76 55 41 45 02 3b 41
       10.882469 12.868017 13.34153 11.688054
000040 17 7b 2d 41 49 86 fb 40 0d 89 42 41 ee d1 16 41
       10.842551 7.860142 12.15846 9.426252
000050 ac 6d 2b 41 75 b2 62 41 c0 6b 8b 41 de 62 50 41
       10.714275 14.168569 17.427612 13.0241375
000060 7d 40 3c 41 3e c2 4d 41 0f 70 14 41 2c 15 b7 bf
       11.765744 12.859922 9.277358 -1.4303336
000070 73 0a 60 41 aa 28 1c c0 13 95 2b 41 6f 7c 09 41
       14.002551 -2.439982 10.723895 8.592879

layer_normalization_1/batchnorm/ReadVariableOp f4 [32]
000000 ac cf 97 be dd 02 b0 be 64 62 e2 bb 3a 96 88 3d
       -0.2965063 -0.34377185 -0.0069087017 0.066692784
000010 ca 85 8b 3a a6 5d a7 bd 7c 00 12 bf d0 c2 a5 bc
       0.0010644731 -0.08172159 -0.5703199 -0.020234495
000020 4e 83 e3 3e 7d cb 98 be 87 cb 96 3f 69 ff a9 bb
       0.44436115 -0.2984275 1.1780862 -0.005187918
000030 cb 2f fe bb f4 92 eb 3b a6 88 06 bb d0 cc a4 3a
       -0.007757162 0.007189149 -0.0020528226 0.0012573246
000040 99 c6 63 bf ac bc 1d bd f7 d0 c9 3a 93 96 94 3b
       -0.8897491 -0.03851001 0.0015397359 0.0045345514
000050 a4 4b e1 be a6 72 68 bb dc 37 91 be d1 f5 06 bb
       -0.44003022 -0.0035468726 -0.2836293 -0.0020593295
000060 5c e9 58 3a 82 0b 4d bd c2 c3 40 bf 7a df e9 3b
       0.00082745194 -0.050059803 -0.752987 0.007137236
000070 de 50 16 3b 16 0f 04 3c 82 a2 7e 3b c5 5f 7d be
       0.0022936384 0.008060237 0.0038854186 -0.24743564

layer_normalization_1/batchnorm/mul/ReadVariableOp f4 [32]
000000 aa dc 16 40 fa 6c 8f 40 a4 b4 38 3d 97 29 37 40
       2.3572183 4.482053 0.045094147 2.8619134
000010 e3 f3 f8 bc 3a 09 56 40 64 64 57 40 6b 38 1f bc
       -0.030389732 3.3443131 3.3655024 -0.009718041
000020 4c 58 7e 40 62 15 6d 40 26 29 6e 40 bc 37 41 bc
       3.9741392 3.70443 3.7212615 -0.011793073
000030 f0 d2 e8 bb c8 0f e8 3f 44 2a 29 be a4 ec 32 3c
       -0.007105224 1.8129816 -0.1652003 0.010920677
000040 c8 dd 9d 40 ac 55 e4 3f 92 c2 c6 bb 14 4f 9e 3b
       4.933323 1.7838645 -0.006065675 0.004831204
000050 c9 62 44 40 ca 5a 58 bd 0c 57 20 40 29 6f 8a 3c
       3.0685294 -0.05282096 2.505313 0.016898708
000060 a8 dc 06 3c 6a 48 98 3f 91 7a 76 40 a2 52 35 40
       0.0082313195 1.1897099 3.8512309 2.8331685
000070 0d 2b 01 bc 5b 8e 35 be af dd a2 3d b9 92 53 40
       -0.007883799 -0.17730086 0.07952439 3.3058302

conv1d/BiasAdd/ReadVariableOp f4 [32]
000000 a2 ec bf c1 14 7a 18 c2 08 8c c3 c1 1b 11 52 c1
       -23.990543 -38.119217 -24.443375 -13.129176
000010 6d 1a a0 c1 b6 c4 a5 c1 44 a2 25 c1 77 66 27 c1
       -20.012903 -20.72105 -10.352116 -10.462516
000020 58 25 70 c1 fc 31 71 c1 0d 2a 84 c1 5b 46 94 c1
       -15.009117 -15.074703 -16.520533 -18.534353
000030 3a ac 97 c0 a6 bf ce 3f cc 92 4b c1 d2 ad 26 40
       -4.7397738 1.6152236 -12.723339 2.6043591
000040 94 1d d9 c1 65 78 34 40 7d 0b ad c1 b7 b5 0d c1
       -27.139442 2.8198483 -21.63061 -8.856864
000050 ab 42 75 c0 e9 31 22 c0 f4 f4 cc be 35 64 d5 c1
       -3.832194 -2.5342963 -0.40030634 -26.67393
000060 78 8d 5c c1 ca 34 46 c1 fc 5f 8a bf 98 db c3 c1
       -13.784538 -12.387888 -1.0810542 -24.482224
000070 5e 2c 2c c1 50 6c 4b c1 5e b1 42 40 12 b5 89 c1
       -10.760832 -12.7139435 3.0420756 -17.213413

multi_head_self_attention/dense_1/Tensordot/MatMul f4 [32, 32]
000000 c9 58 a9 40 8c 66 82 3f 51 31 8e 3d c3 27 06 40
       5.292088 1.0187545 0.06943 2.0961769
000010 43 60 30 40 4b f4 99 c0 2f 55 31 c0 ae 98 9f c0
       2.7558753 -4.811071 -2.7708242 -4.9873877
000020 0c ef 2a 41 3d 75 0f c1 2d 5f 45 41 c5 0d 03 41
       10.683361 -8.966123 12.335736 8.190862
000030 bd 95 5f c0 1f 1f 8e 41 8a 24 26 c1 c1 5d 0d c1
       -3.4935143 17.765196 -10.383921 -8.835389
000040 73 68 16 c1 12 cd 60 40 e8 df 24 c1 85 ea da 3f
       -9.4005 3.5125165 -10.304665 1.710282
000050 6b 9c b1 40 5c d8 06 41 f0 2c 84 41 c1 c5 34 bf
       5.550344 8.427822 16.521942 -0.7061425
000060 3a 8c 1c bb 07 3b a4 40 d2 e4 02 c1 7c f7 8f c0
       -0.0023887292 5.1322055 -8.180864 -4.4989605
000070 d3 b0 ab c0 d3 30 30 c0 59 01 a3 40 f7 30 c6 c0
       -5.365335 -2.75298 5.0939145 -6.193477
000080 18 73 aa bf 85 ae 48 40 da 3c 0d bf 73 b1 bc c0
       -1.3316374 3.1356518 -0.5517098 -5.8966613
000090 ea 96 cd 3e 7e 06 19 40 66 a4 ac 40 5b 31 06 c0
       0.401542 2.3910213 5.395068 -2.0967624
0000a0 20 a6 c1 3f 40 e1 ef c0 e9 88 fd 3f 9b 8a 7f c1
       1.5128822 -7.4962463 1.9807407 -15.971339
0000b0 57 44 eb 3f df 69 b7 40 3c f2 fe 40 25 b6 e3 bf
       1.8380231 5.7316737 7.9670696 -1.7789961
0000c0 16 52 cb 3f a4 b7 64 c1 d8 6c a3 40 00 62 8c c0
       1.5884426 -14.294834 5.1070366 -4.386963
0000d0 f0 69 0e 3f 50 16 4e 3f 1f df 31 41 0e 3a a1 40
       0.556304 0.80502796 11.116973 5.0383368
0000e0 4e f7 35 c1 38 43 19 c0 33 2a e8 41 0e 4f d0 c0
       -11.372877 -2.3947277 29.020605 -6.50965
0000f0 a0 c3 8c 41 81 28 46 c1 83 18 a2 c0 33 f6 19 c1
       17.59552 -12.384889 -5.065492 -9.622607
000100 a2 a2 5f 40 22 11 13 41 83 f2 73 40 50 fa a9 c0
       3.4943013 9.191683 3.8116767 -5.3118057
000110 33 b2 b8 be bf 87 84 40 f6 e1 02 41 9f 88 df 40
       -0.36073455 4.1415706 8.180166 6.9854274
000120 d0 c9 d5 40 ee 1d 80 c0 a6 0f 8a 41 b3 01 98 c0
       6.6808853 -4.0036535 17.25764 -4.7502074
000130 90 cb 23 41 1b 7d 94 41 2d b9 3f 41 0c 66 ea c0
       10.237198 18.561087 11.982709 -7.324957
000140 97 6b 80 40 9b 7d f8 c0 fa 67 83 40 4d 85 e5 c0
       4.0131335 -7.7653327 4.1064425 -7.172522
000150 b1 7b 0f 41 bd c9 e4 40 33 a0 1c 41 ad cc e7 c0
       8.967698 7.1496263 9.789111 -7.243735
000160 64 6a 44 40 eb e9 32 40 33 7a 26 c1 9d 0b 6a 3f
       3.0689936 2.7955272 -10.404834 0.9142397
000170 0d d8 38 c1 ca 32 d6 be 50 9a 86 40 85 3b ed c0
       -11.552747 -0.41835624 4.206337 -7.4135156
000180 8f 7a 91 bf 78 8d 9e c0 29 c7 c3 bf 85 9c 97 3e
       -1.1365527 -4.954769 -1.5295154 0.29611602
000190 5d 5c 75 c0 eb 84 b3 40 94 7a 53 40 32 ba 30 40
       -3.8337624 5.6099753 3.3043566 2.7613645
0001a0 9f 3f 00 c1 1c be 12 c1 02 30 45 40 c7 b8 25 be
       -8.0155325 -9.171413 3.0810552 -0.16183768
0001b0 3b 81 63 40 c5 63 6c c0 3c dd 80 c1 81 98 57 3e
       3.5547626 -3.6935894 -16.108025 0.2105427
0001c0 32 25 0d c1 54 ed ae 41 30 4e c7 c0 3a f4 d6 40
       -8.821581 21.865883 -6.2282944 6.717313
0001d0 ba 82 05 41 d0 d6 78 41 98 e9 4e c0 62 60 1d 41
       8.344416 15.552444 -3.2330074 9.836031
0001e0 48 d8 80 41 79 12 90 40 a7 32 86 c1 73 89 dd c0
       16.105606 4.502255 -16.774733 -6.9230285
0001f0 48 27 3c c1 13 35 3a c0 fb 01 07 41 89 c8 e7 c0
       -11.75959 -2.9094894 8.4379835 -7.2432294
000200 53 2e a4 40 e9 35 19 41 7e 96 73 41 a8 ee 74 c0
       5.130655 9.575662 15.224241 -3.8270664
000210 72 9a 7f 3f 0a f7 07 c0 a8 88 9f 40 63 75 98 41
       0.9984504 -2.124453 4.9854317 19.057318
000220 44 3e 38 c1 9a 8b 2a c1 4c 2b d9 bf 08 e5 12 40
       -11.515202 -10.659082 -1.6966338 2.295229
000230 4f d2 50 40 60 fd 25 c1 92 e3 a6 bf fb c0 51 41
       3.2628362 -10.374359 -1.3038199 13.109614
000240 a0 98 6f c0 53 df c1 c0 fb b0 a0 40 d0 e8 9f c0
       -3.7436905 -6.0585113 5.021604 -4.9971695
000250 02 9f 1e c0 73 be 8a 3f b4 18 0a c1 81 31 97 3f
       -2.478455 1.083937 -8.631031 1.1811982
000260 4b 98 13 41 2f b3 cb bf eb 8e 46 3f 00 5d a2 40
       9.224681 -1.5914057 0.77561826 5.0738525
000270 a4 e8 5c bf 0f 15 40 41 6f e6 24 c1 55 00 fe 40
       -0.8629248 12.005141 -10.306258 7.9375405
000280 04 e6 5d 40 d9 b7 d9 40 96 46 aa 40 8c 4c 00 c0
       3.467164 6.8036923 5.3211164 -2.004672
000290 ce e5 82 bf db 91 31 40 05 15 cc 40 35 43 4a 40
       -1.0226381 2.7745273 6.377566 3.160352
0002a0 a5 89 9a 41 63 32 b8 41 6f d7 3a c2 c6 4c 08 42
       19.31721 23.024603 -46.710384 34.074974
0002b0 ec ad ed c0 30 b0 e6 bf a1 45 1d 41 4e dc 04 40
       -7.4274807 -1.8022518 9.829499 2.0759463
0002c0 c4 84 9d 41 78 02 cb 40 7f 13 c4 41 7c 5f a8 40
       19.689827 6.3440514 24.50952 5.261656
0002d0 f0 0c 99 3f e4 ea 14 c2 14 be 9c 3f 39 67 1b c1
       1.1957073 -37.229385 1.2245507 -9.712701
0002e0 a8 e7 9b 3f 5c 68 4b 40 93 b4 9c bf 17 24 06 bf
       1.2180071 3.1782446 -1.2242607 -0.5239882
0002f0 66 a6 7d 3e 43 b1 aa 40 c2 f1 13 40 e1 1e 89 40
       0.24770507 5.3341384 2.3116307 4.2850194
000300 86 d1 a7 c1 ca bd d4 40 d7 5b a6 3e 07 ed f0 3d
       -20.977306 6.6481676 0.32491943 0.117639594
000310 46 d6 cc c0 5b 85 ad 40 6d a9 0a 41 f5 dd 49 40
       -6.4011564 5.4225287 8.666364 3.1541722
000320 81 2a 80 40 bc 17 32 41 fc 94 15 c1 12 04 47 41
       4.0051885 11.130795 -9.348873 12.438494
000330 d4 58 32 c1 58 a3 9a 3f 7a 75 4e c1 7a 5b 8f bd
       -11.146687 1.2081099 -12.903681 -0.0699987
000340 3f 89 2f c1 80 d9 03 c0 70 04 34 c1 5a a2 b0 c0
       -10.971007 -2.0601501 -11.251083 -5.5198183
000350 9a b6 a2 c1 8b 82 e7 3e 4d f4 5f c1 11 ca 68 3f
       -20.33916 0.45216784 -13.997144 0.9093333
000360 b9 67 5f c1 c5 3f 1c c1 e3 53 08 c1 a6 bf 16 40
       -13.962823 -9.765569 -8.52048 2.3554473
000370 66 db dd c0 13 9a 1c 40 0f f3 de c0 f2 01 4c c1
       -6.933032 2.446904 -6.9671702 -12.750475
000380 9a 25 f4 c0 0f 59 92 be 3d 3d 8b 3f ce 18 08 3f
       -7.62959 -0.2858357 1.0878063 0.5316285
000390 fc 89 4a c1 9a b3 e4 40 6b 59 cb c0 07 11 88 c1
       -12.658688 7.146924 -6.3546653 -17.008314
0003a0 cd c4 1e c0 69 1c b9 c1 7a 8b 55 40 d5 8d af c1
       -2.4807618 -23.138872 3.336638 -21.944254
0003b0 4b ad 03 41 fd 87 c5 3e b5 f7 da 41 35 16 0f c1
       8.229808 0.38580313 27.37095 -8.942922
0003c0 94 49 9d 41 81 1a 3a c1 1b 99 a4 41 fb a4 0e c0
       19.660927 -11.631471 20.574759 -2.2288196
0003d0 d5 46 ba bf 23 a6 44 c1 70 38 1d 41 d1 50 04 c0
       -1.4552866 -12.290561 9.826279 -2.0674326
0003e0 c6 5d a0 40 3c 78 79 c0 c7 5f 8e 3f 36 f2 db c0
       5.011447 -3.8979635 1.1122979 -6.873317
0003f0 3b 07 da 3f 16 76 d7 bf 6b 18 4e 40 29 08 49 40
       1.7033457 -1.6832912 3.2202404 3.141123

multi_head_self_attention/dense_2/Tensordot/MatMul f4 [32, 32]
000000 4c cd e3 bd 79 07 19 41 af 7f 8c bf eb b6 12 c1
       -0.11123142 9.564324 -1.0976466 -9.169658
000010 f2 c9 11 3f 53 65 e5 40 f7 fb 9e 40 2b 4f 22 3f
       0.5694877 7.1686187 4.9682574 0.6340205
000020 0d b4 76 c1 6e ec 28 41 cb 3e 14 c1 c7 66 27 40
       -15.418958 10.557722 -9.26533 2.615648
000030 3d ed d4 40 e5 e0 0e c1 70 7e c9 bf 5e 59 d7 3f
       6.6539598 -8.929906 -1.5741711 1.6824148
000040 3f f3 05 c0 f2 9d 23 3f 11 6e da c0 d7 a1 e2 40
       -2.0929716 0.6391288 -6.825936 7.082256
000050 92 22 fb bf dc 79 2d 41 cb e1 5b c1 27 20 4d 40
       -1.9619925 10.842251 -13.742625 3.2050874
000060 dd 4b 6e c0 42 5b 5b 40 ad 88 6a c1 11 21 14 be
       -3.7233803 3.427445 -14.658368 -0.14465739
000070 2c 20 01 40 44 f7 cd 40 b4 89 eb 40 a2 4e 86 3f
       2.0175886 6.436434 7.3605595 1.0492747
000080 de aa 3f 3f 39 05 dc 40 19 d6 db 3f 57 fa 9c bf
       0.748701 6.8756375 1.7174712 -1.2263898
000090 db c6 2e bf 31 9b b6 bf fe 63 0c 40 4f fd f7 3f
       -0.6827218 -1.4266111 2.193603 1.9374179
0000a0 2f 85 1d 41 d1 9c cd bf 32 27 c1 40 b2 79 8f 41
       9.845016 -1.6063482 6.0360346 17.934422
0000b0 07 15 57 c1 3d c0 31 41 31 28 da c0 32 c3 a7 bf
       -13.442634 11.109433 -6.817406 -1.3106444
0000c0 8e 87 e5 bf ef 3b 15 c0 52 92 8b 40 97 0c 06 41
       -1.7931993 -2.331783 4.3616114 8.378074
0000d0 e2 d1 da 3f f1 b3 0e c0 3a 12 b5 40 56 bb 60 40
       1.7095301 -2.2297328 5.658475 3.511434
0000e0 54 5f 84 40 c8 73 b5 c0 1e df 8a c1 07 28 8f c0
       4.1366367 -5.6703835 -17.358944 -4.473636
0000f0 85 a8 af 40 bc e9 81 40 cd 77 37 40 6b aa b6 be
       5.489321 4.059782 2.866687 -0.35676894
000100 c9 10 a2 c0 48 d3 c6 41 80 a9 0c c1 37 d0 5b c0
       -5.064549 24.853165 -8.791382 -3.4345834
000110 25 42 2d c1 65 8c d2 41 67 f8 14 c1 c8 8c 9e 40
       -10.828649 26.318552 -9.310645 4.954685
000120 ec 28 1a c2 fb de 68 be eb 9e 35 c2 c6 fb 7a 41
       -38.539963 -0.2274131 -45.405193 15.686468
000130 c5 66 80 40 7d fc 1f c0 94 46 e8 c0 f4 35 a6 3f
       4.012545 -2.4997857 -7.2586155 1.2985215
000140 d4 6e bc bf 72 28 bf c0 88 f5 34 c1 b3 d9 c1 3f
       -1.4721322 -5.973687 -11.309944 1.5144562
000150 80 14 b3 bf 03 4a c0 40 95 c1 40 bf cc af 16 c0
       -1.3990631 6.0090346 -0.7529538 -2.3544798
000160 f3 b6 c1 3f 48 e5 3f c1 55 cf 06 41 0b 82 9f c0
       1.5133957 -11.993477 8.425618 -4.9846244
000170 ed e2 0e 41 0c 0f bf 3f 25 6f 18 bf bc e0 f7 c0
       8.930402 1.4926467 -0.59544593 -7.7461834
000180 dc df e8 bf 82 df d9 40 25 4e 19 40 9a a5 09 bf
       -1.8193316 6.8085337 2.3953946 -0.5376831
000190 92 c9 fd bf ce ca 18 c0 09 ec 8e c0 2f 10 8c c0
       -1.9827139 -2.3873782 -4.466313 -4.3769755
0001a0 c7 9f 70 40 47 36 34 40 70 42 bd c1 22 10 51 c0
       3.759752 2.8158128 -23.65744 -3.2666097
0001b0 f2 c2 4e c0 4d 48 62 c0 b1 65 31 c1 59 5c 0c 41
       -3.2306485 -3.535663 -11.087327 8.772546
0001c0 3d 57 5a c0 bd 40 b2 40 71 a5 48 bf 31 e5 cf c0
       -3.4115746 5.5704026 -0.78377444 -6.4967275
0001d0 dc 16 c4 c0 eb 91 bd c0 07 7c 69 40 b1 b1 59 bf
       -6.1277905 -5.9240623 3.648195 -0.8503676
0001e0 8c 71 05 c0 73 de b1 bf d6 29 8a c0 0e 31 71 c0
       -2.0850554 -1.3896011 -4.317607 -3.768619
0001f0 05 c4 6e 3d 7f c4 18 c0 34 97 15 40 b8 82 b0 bf
       0.058292408 -2.3869932 2.3373537 -1.3789892
000200 73 c1 dc c0 55 24 9b c1 e2 c0 af c1 df f8 5e 40
       -6.8986144 -19.39274 -21.969181 3.48394
000210 4d 06 40 c1 b6 d0 3f bf 6c 31 08 40 cd f8 ac c1
       -12.001538 -0.7492784 2.1280165 -21.621485
000220 75 a6 42 41 4a 0e fe 3d 06 ce 04 40 c7 76 ee be
       12.165639 0.12405069 2.0750747 -0.46574995
000230 07 91 c9 c0 34 80 06 41 b7 df 5b be ab ee 41 c1
       -6.2989535 8.4063 -0.21472059 -12.120769
000240 06 be 1c c1 34 1c 2c 41 c8 79 8c 40 6b aa aa be
       -9.796392 10.756886 4.389866 -0.33333144
000250 2a 34 16 c0 aa 6c 6d c0 9b 06 5f 41 5d 27 aa c0
       -2.3469338 -3.7097573 13.939113 -5.317305
000260 5e 7f 35 3f cf 35 aa bf dd 62 b6 40 ba 11 a8 c0
       0.7089747 -1.3297671 5.6995683 -5.252164
000270 27 72 f4 c0 eb 33 23 c1 e0 06 62 41 71 8b cb c0
       -7.6389346 -10.200175 14.126678 -6.3607717
000280 a1 ef 06 c0 49 7f cd c0 ad 30 d9 3f 06 dd 22 40
       -2.1083758 -6.4217877 1.696798 2.5447402
000290 ae e9 08 c1 1c dd 05 41 82 c2 23 c0 80 0d 6f 40
       -8.557051 8.366482 -2.5587468 3.735199
0002a0 f8 53 c7 40 3e aa 0b 42 4b 55 2e c2 f8 fc 54 42
       6.229 34.916252 -43.583294 53.24704
0002b0 82 61 78 c0 6d 5d 43 c0 d1 95 4f 40 db 43 8f 40
       -3.8809514 -3.0525773 3.243519 4.477033
0002c0 e7 81 34 41 51 8d ab 40 ae 93 17 41 9d a7 84 3f
       11.281714 5.3610005 9.473555 1.0363652
0002d0 26 50 bf bf de 16 cb 40 30 5d d3 3f 18 c8 49 40
       -1.4946334 6.3465414 1.6512814 3.1528378
0002e0 4c 49 55 40 ad 44 9a 40 72 91 5c bf 42 1f 90 40
       3.3325987 4.8208833 -0.8615943 4.5038157
0002f0 97 ea 4a bf b5 9d 89 40 40 e6 b0 bf 90 b9 86 40
       -0.79264206 4.3005013 -1.3820267 4.2101517
000300 6e a9 a5 41 63 19 3b c0 f7 fe 2c 3f 0f 60 0a 3f
       20.70773 -2.9234245 0.67576545 0.54052824
000310 02 61 e6 be 58 9d 5d c0 be 64 e3 bf 78 07 05 bf
       -0.44995886 -3.4627285 -1.7765119 -0.5196452
000320 c9 95 6c 3f e2 6e f8 bf 70 52 42 41 72 cd 38 c1
       0.92416054 -1.9408839 12.145126 -11.550158
000330 cf d8 a5 c0 f4 89 47 c1 0d db 22 c1 ee 4c df bf
       -5.182716 -12.47118 -10.178479 -1.7445352
000340 3b cb c0 c0 a2 2d 47 c0 ed 45 4b 41 2f 68 a0 3f
       -6.0248084 -3.1121602 12.704572 1.2531794
000350 9a 3e de 40 62 70 1e c2 9d da c4 40 bb 07 6b c1
       6.945142 -39.60975 6.151686 -14.689387
000360 76 e5 c4 3f 75 50 69 c1 d6 43 3b 40 22 f4 a9 c1
       1.5382526 -14.582143 2.9260154 -21.244205
000370 33 d1 de 40 44 d5 1f c1 09 b1 4e 40 0a df b4 c1
       6.963037 -9.989567 3.2295554 -22.608906
000380 d9 c8 0c 41 cb 53 c1 c0 73 0a e7 bf d8 db db 3f
       8.799035 -6.0414786 -1.8050064 1.7176466
000390 4e 82 c9 40 e0 20 0b c0 20 59 d6 40 fa 72 17 40
       6.2971563 -2.1738815 6.6983795 2.3663926
0003a0 a5 cb e4 40 36 ad d0 41 78 84 a6 40 2c e2 10 42
       7.149859 26.084576 5.2036705 36.22087
0003b0 50 db 10 c0 9b f6 01 c0 b3 d3 bc c1 f9 69 77 40
       -2.2633858 -2.0306766 -23.603369 3.865843
0003c0 c5 73 7b c1 6d 04 41 40 06 a4 83 c0 9d 24 cd bf
       -15.715764 3.0158951 -4.1137724 -1.6026798
0003d0 01 7c 41 c1 df df 4f c1 5b 85 8e c1 87 78 9b 40
       -12.092774 -12.992156 -17.815115 4.858463
0003e0 58 b9 8f bf cb f1 e7 bc e1 56 8d c0 35 ce 83 c0
       -1.1228437 -0.028313538 -4.4168553 -4.1189218
0003f0 f4 c8 32 41 f3 2d b0 bf ae 1e 43 c1 ec 17 c9 c0
       11.174061 -1.3764023 -12.19499 -6.28417

multi_head_self_attention/dense/Tensordot/MatMul f4 [32, 32]
000000 9c df a9 40 72 6d 7d c1 5c e8 21 c1 0d 4d e8 bf
       5.308546 -15.83922 -10.119228 -1.8148514
000010 30 bc d2 c1 c6 2c 0f c2 b2 79 5a 41 fb 10 bb c0
       -26.341888 -35.793724 13.654711 -5.845823
000020 91 04 a9 3f ec a5 3f c1 ca d5 1b c1 98 b5 b9 be
       1.3204519 -11.978008 -9.739695 -0.36271358
000030 0f ba 89 40 06 84 0a c1 4a 53 a7 40 d8 bf 74 3e
       4.303962 -8.657232 5.228917 0.23901308
000040 1f 16 bc 40 65 19 9a 40 bc e4 00 41 27 dc ac 3e
       5.8777003 4.8156 8.055843 0.33761713
000050 fb 4b 4f c0 09 53 a3 be 5c 66 ac c0 01 fa 8c bf
       -3.2390125 -0.31899288 -5.387495 -1.1013795
000060 e2 ee 0f 41 e0 7d a9 3f 9a e5 96 c0 ea 06 36 bf
       8.995821 1.3241539 -4.7155275 -0.711043
000070 c3 c0 5a c0 53 63 f2 be 60 45 da 3f a8 7a 87 bf
       -3.4180152 -0.47341403 1.7052422 -1.0584307
000080 b4 5a 37 c1 1b f2 66 41 1b 82 54 c0 a9 cc 44 c0
       -11.459644 14.434108 -3.320441 -3.0749915
000090 1a 1f 2f bf 86 0c 51 c0 04 51 ec 40 7a b9 1f 41
       -0.6840683 -3.2663894 7.3848896 9.982782
0000a0 6b 6a 6e 41 22 54 3b 40 ef 76 0f 40 c2 34 13 c0
       14.900981 2.92701 2.2416341 -2.300095
0000b0 c7 fb 46 41 75 6f eb 40 0e 82 fa 40 d4 16 9b 40
       12.436469 7.3573556 7.828376 4.8465366
0000c0 f0 3b d9 40 08 62 fe 40 17 0d b2 40 9f 3d aa 40
       6.7885666 7.9494667 5.564098 5.320022
0000d0 61 21 cb 40 00 b3 0c 41 b8 19 f7 40 c8 82 d5 40
       6.3478246 8.793701 7.7218895 6.6722145
0000e0 0f eb 0a 3f dc 3e 1a 41 ce 66 d4 40 ff 0e de 40
       0.5426492 9.640347 6.6375494 6.9393306
0000f0 84 16 9b 40 76 a6 36 41 29 c4 ec 40 b4 3c d7 40
       4.8464985 11.41564 7.3989453 6.72616
000100 a3 b8 e5 c0 30 ed 17 42 31 12 09 40 a0 33 56 3f
       -7.1787887 37.98163 2.1417353 0.83672523
000110 d0 71 fb 40 c0 71 1c 40 b3 7d 1c 41 f0 4c 79 41
       7.857643 2.4444427 9.780688 15.581284
000120 fe 10 b1 bf 39 9d 3c 41 00 88 19 c0 54 ae 4e bf
       -1.3833311 11.788384 -2.3989258 -0.80734754
000130 39 6d 18 3f 27 d9 5f 3f e2 ae d6 bf 97 4a cd 40
       0.5954166 0.87440723 -1.677212 6.415355
000140 48 62 7d bf 1e 58 1b 41 e8 4a a4 3f 6f 22 e1 bf
       -0.9897809 9.709013 1.283536 -1.7588633
000150 ab 2d 4e c1 72 a5 9d bf 72 c0 4b c0 31 de 04 c0
       -12.886149 -1.2316115 -3.183621 -2.0760615
000160 2e da 2d be c6 de 4c bf 62 58 09 c0 67 d6 c5 bf
       -0.1697776 -0.80027425 -2.1460195 -1.5456055
000170 3e 47 15 c0 92 46 c0 3e 42 f5 00 c1 3a 31 92 3f
       -2.3324733 0.3755384 -8.059877 1.1421273
000180 4f 5e c6 41 72 b2 33 c1 83 42 b9 c0 66 2f 31 bc
       24.79605 -11.231066 -5.789369 -0.010814523
000190 57 34 04 c0 92 3b 92 41 6e ec b5 bf 21 02 e8 bf
       -2.0656946 18.279087 -1.4212778 -1.812565
0001a0 f8 09 82 c1 01 c5 af c0 34 18 3f be f7 34 5a c0
       -16.254868 -5.4927983 -0.18661577 -3.4094827
0001b0 a4 b9 2e 40 e5 a8 a5 c0 4a e9 11 41 80 0b 85 3d
       2.7300806 -5.176867 9.119455 0.06496334
0001c0 51 58 19 41 a9 69 be bf ac 9d 3c 41 9e ec ce 3e
       9.584062 -1.4875995 11.788494 0.404149
0001d0 b5 3d 9a c0 e2 19 58 40 bc a5 cf 3f f3 06 fe 3f
       -4.8200326 3.3765798 1.6222453 1.9845871
0001e0 c1 5e d6 c0 94 77 e0 40 81 e9 56 41 1f c0 c1 40
       -6.6990666 7.014597 13.432008 6.0547023
0001f0 3b e4 6b 41 4e 57 24 40 ce ef cf 40 ac b6 f1 3f
       14.74322 2.5678287 6.498023 1.8883872
000200 06 cc 25 c0 f2 ea f1 c1 3c c0 6d c0 3d 72 12 c1
       -2.5905776 -30.23972 -3.714858 -9.15289
000210 0e ed 30 41 4d 51 b0 40 f4 b2 ed bf 49 25 db c1
       11.057875 5.5099244 -1.8570237 -27.393206
000220 4a cf 4d 40 42 b7 d3 c1 38 34 7f 40 08 67 50 41
       3.215777 -26.464481 3.9875622 13.025154
000230 25 ea dc c0 f9 37 ae 40 42 43 f1 bf 6f 43 e2 bf
       -6.903582 5.4443326 -1.884865 -1.7676829
000240 9d 64 fd be 4e 08 27 c1 4e 70 30 bf 00 72 83 40
       -0.49490824 -10.4395275 -0.68921363 4.107666
000250 4d 18 40 c0 ae 84 25 40 58 c8 26 40 57 7d e8 3f
       -3.0014832 2.5862231 2.605978 1.8163251
000260 9f 03 20 c1 02 59 46 3f fd bd 79 40 04 c9 dd 3e
       -10.000884 0.77479565 3.902221 0.43317425
000270 f9 4b 3c c0 21 1b 42 3f 1d f6 76 40 e0 0e bf 3f
       -2.942137 0.75822645 3.8587716 1.4926414
000280 34 ad ba c1 cb a7 5c 40 57 cf 28 40 63 a6 81 3c
       -23.334572 3.4477413 2.637655 0.01582641
000290 53 09 e6 c0 2a b6 80 c0 2e 72 bb c1 0d 20 3f c0
       -7.188638 -4.022237 -23.430752 -2.9863312
0002a0 e6 a7 b5 c0 80 b9 87 3f ec c7 ba c0 52 ac 49 c1
       -5.6767454 1.0603485 -5.8369045 -12.60457
0002b0 6f 70 24 40 37 f7 c9 c0 fb 36 9d 3f 40 22 17 c1
       2.5693624 -6.3114276 1.2282404 -9.445862
0002c0 96 c5 be 3f 9a 33 d0 c0 bc 03 e7 3f 97 7f f8 c0
       1.4904048 -6.506299 1.8048015 -7.765575
0002d0 03 02 c2 c0 34 63 d2 c0 66 e6 17 c1 3e 2a b4 c0
       -6.0627456 -6.5746098 -9.49375 -5.6301565
0002e0 2e d2 39 41 ae c3 e2 c0 3a 2c 52 c1 49 d8 a3 c0
       11.613813 -7.0863867 -13.1357975 -5.120152
0002f0 64 9b 23 c1 8b 73 12 c1 ed ad e2 c0 58 34 cd c0
       -10.225437 -9.153209 -7.083731 -6.4126396
000300 8f 1a c1 c0 03 ae 03 41 de 52 e5 40 4b 0b bc 40
       -6.034492 8.229983 7.1663656 5.8763785
000310 cd bf bc c0 d9 cf 52 40 8d 1b 1f 41 c9 d4 99 40
       -5.898413 3.293936 9.944226 4.8072248
000320 a1 7d 72 bf 18 09 f2 40 83 97 5e c0 f3 73 88 c1
       -0.94722944 7.56361 -3.4779975 -17.056616
000330 61 05 aa 40 00 3d 80 40 c8 f5 1b 41 b8 ab 4f 40
       5.3131566 4.0074463 9.747505 3.2448559
000340 ef d4 fb 40 ed f7 01 c0 d9 0c 18 41 20 41 c5 40
       7.869743 -2.0307572 9.503137 6.1642
000350 94 70 8e 41 5e d8 11 41 84 d2 18 41 da 33 d3 40
       17.80497 9.115324 9.551395 6.6000795
000360 5b a6 b6 bf 22 26 16 41 6c b9 f4 3f d4 92 05 41
       -1.4269518 9.38431 1.9119086 8.348347
000370 ba 1b 1a 41 1b 0a 99 40 cf 7e 1f 40 cb 05 d3 40
       9.631769 4.7824836 2.4921148 6.594457
000380 3c 1c a5 c1 7f 3b c0 40 97 28 42 c1 a9 cd 96 41
       -20.638786 6.0072627 -12.13491 18.85042
000390 ad a5 50 c1 67 7d 49 c1 4b a0 a7 c1 4e ee eb c0
       -13.040448 -12.593116 -20.953268 -7.37284
0003a0 21 31 23 c1 18 71 a9 3f f7 f6 e1 c1 41 cc 5c 40
       -10.199494 1.3237638 -28.245588 3.4499667
0003b0 dc d0 86 bf da 52 97 c1 14 98 c1 40 e8 43 b3 c0
       -1.0532489 -18.915455 6.049814 -5.6020393
0003c0 bc e5 fd 40 19 30 3c 41 1f 83 13 41 04 70 c0 c0
       7.9342937 11.761743 9.219512 -6.013674
0003d0 c4 0c b2 bf 50 77 3c c0 fd 46 33 3e 26 a5 52 c0
       -1.3910146 -2.9447823 0.17507549 -3.2913299
0003e0 bb 65 a3 40 c2 b9 3e c0 d0 b5 e4 c0 e5 5c 3f c0
       5.1061683 -2.9800878 -7.147194 -2.9900448
0003f0 f8 94 8b 40 31 93 ea c0 a0 ea df 40 21 cc 54 c0
       4.3619347 -7.3304677 6.9973907 -3.324959

multi_head_self_attention/dense_3/Tensordot/MatMul f4 [32, 32]
000000 e9 2b ad 40 37 36 b7 c0 a4 b7 5f c1 96 51 85 40
       5.41161 -5.725368 -13.982334 4.166209
000010 76 e1 48 c0 00 2c d4 40 b6 2c 15 c0 27 f5 2e c1
       -3.138761 6.630371 -2.330854 -10.934852
000020 e3 c9 98 c1 09 31 b5 3f 6a 38 08 be cc d0 14 41
       -19.098577 1.4155589 -0.1330277 9.300976
000030 c4 c2 9c 40 ba e6 09 41 00 7d dc 40 5c e1 4d 41
       4.898775 8.61883 6.890259 12.867519
000040 76 38 bd 40 35 db ab 40 55 7a 49 c1 7c 5b 92 c1
       5.913142 5.3705087 -12.592366 -18.29467
000050 c1 e0 2a 41 b7 8a c4 40 ae e2 d1 c0 ec 57 0a 40
       10.679872 6.141933 -6.558921 2.1616163
000060 6e 64 86 40 61 46 d5 c0 05 df 57 40 ad 3b 9b bf
       4.1997595 -6.664841 3.372987 -1.2127587
000070 8b e1 3a c0 24 72 f2 40 63 f6 c1 c1 00 40 09 c1
       -2.920016 7.576433 -24.245306 -8.578125
000080 9d a8 f9 bf 0b f4 90 40 be fd 41 c1 c9 77 b2 c0
       -1.9504582 4.5297904 -12.124449 -5.577122
000090 92 e2 e0 3f cb a5 51 c0 44 2e 42 41 23 d5 36 c1
       1.7569144 -3.2757442 12.136295 -11.427035
0000a0 fd 16 91 c0 24 f6 cd 3c 8b fb 39 c1 8e 8c 40 c0
       -4.534056 0.025141783 -11.623912 -3.0085788
0000b0 00 6e 03 bf e6 29 f0 3f 41 01 91 c1 53 06 5f bf
       -0.5133972 1.8762786 -18.125612 -0.87119025
0000c0 c5 4e 90 c1 c5 0d 30 41 c8 de 11 40 89 f7 8b 41
       -18.038462 11.003362 2.2792225 17.495867
0000d0 f4 0a 39 40 e1 1f 88 40 b0 22 05 c0 09 f6 4d c1
       2.8912935 4.2538915 -2.0802422 -12.872567
0000e0 96 23 49 41 44 84 65 c1 06 7c 52 40 d3 25 c7 c0
       12.571188 -14.344791 3.2888198 -6.223367
0000f0 af 54 6a 3f 48 a8 0c c0 36 f3 ee 40 52 c5 17 41
       0.91535467 -2.197771 7.467189 9.485674
000100 eb 08 20 bf dc 4c 91 bf b9 1a 3b c1 86 33 63 c0
       -0.6251361 -1.1351581 -11.694024 -3.5500197
000110 b1 6e 8e c0 37 0c 77 c1 02 d0 bd 40 01 63 b6 3f
       -4.451012 -15.440482 5.9316416 1.4248964
000120 45 b6 b5 40 7c 18 cd 3e 14 63 45 41 4b 28 13 c0
       5.6784997 0.40057743 12.336689 -2.2993343
000130 33 30 83 41 2b b3 48 41 d0 c2 19 c1 a4 7d 09 40
       16.398535 12.543742 -9.610062 2.1482935
000140 a7 9e 88 c1 06 bf ea 40 cb fc b6 40 13 e8 a8 c0
       -17.077467 7.3358183 5.7183585 -5.2783294
000150 50 1a cd 40 82 43 f6 c0 6e 49 84 41 80 43 95 41
       6.409462 -7.6957407 16.535854 18.657959
000160 bb f0 41 41 c5 1b 33 c0 d8 15 27 3f 01 db a2 c1
       12.121272 -2.79857 0.65267706 -20.356936
000170 21 8a 03 c0 fd d0 c7 c0 94 a6 49 41 79 da be 40
       -2.0553057 -6.2442613 12.6031685 5.964169
000180 65 f5 2b c1 86 36 d7 c0 29 d2 34 41 c4 d2 f8 c0
       -10.747411 -6.7254057 11.301309 -7.775728
000190 91 3e f9 41 bc 7d 0a 41 43 92 2a 3f 7c cc 8c c0
       31.15555 8.655697 0.6662943 -4.3999615
0001a0 d1 77 8c c1 a1 c6 bb c1 7e 56 cc 40 73 d0 9f c1
       -17.558504 -23.471987 6.385558 -19.976782
0001b0 74 df 77 c1 a3 ac b3 be 9e 5b da c0 a9 c5 ea c0
       -15.492054 -0.3509265 -6.8236837 -7.3366284
0001c0 98 28 32 c1 ad 03 98 40 2a 57 97 3e b9 75 de 40
       -11.134911 4.7504487 0.29558688 6.9518704
0001d0 4e 23 05 41 0b 07 1d c1 09 27 b0 40 bc 2b 05 3f
       8.321119 -9.814219 5.504765 0.5201986
0001e0 e6 2f 51 c0 07 a6 b6 bf dc a5 0d bf 24 46 9f c0
       -3.2685485 -1.4269418 -0.55331206 -4.977312
0001f0 a0 f0 3e 40 93 55 08 c0 f5 23 86 c1 5c f5 55 40
       2.9834366 -2.130223 -16.767557 3.3431005
000200 6a 28 18 c1 0a 2b cf c0 70 73 c4 c0 cd 4c b8 3f
       -9.509867 -6.474004 -6.1390915 1.4398438
000210 cd 60 44 c0 c0 94 ca c1 22 61 06 bf c0 85 69 41
       -3.0684083 -25.322632 -0.5249196 14.595154
000220 69 2d 72 bf 90 29 9d 40 cc 72 83 40 5b b9 0b c1
       -0.9460054 4.9113235 4.1077633 -8.732753
000230 46 be eb 40 16 8a 7f bf e7 25 2a c1 45 fc 23 41
       7.3669767 -0.9982008 -10.6342535 10.249089
000240 89 9d cc 40 76 f7 02 c1 87 4f 8f bf e4 e3 a9 41
       6.3942304 -8.185415 -1.1196145 21.236275
000250 1d 86 2f c0 01 05 f5 40 7f db 9d c1 4b 44 12 41
       -2.7425606 7.656861 -19.732176 9.141673
000260 90 35 41 c1 c6 58 27 c0 7f 1f 0f 41 03 38 0f 40
       -12.075577 -2.6147933 8.945189 2.2377937
000270 f1 bf 9b c0 00 26 73 be 92 b1 19 40 2f 33 bf 41
       -4.8671803 -0.23744965 2.401463 23.899992
000280 32 57 9d 41 9f 2a 17 40 6b 60 be bf ac 4c b2 c0
       19.667576 2.3619764 -1.4873174 -5.5718594
000290 90 7f fd bf c3 79 c0 c1 65 71 d7 c0 7e 75 a2 3f
       -1.9804554 -24.059454 -6.732592 1.2692106
0002a0 87 16 5a 3f fa 0c 03 40 a2 df 17 41 01 f0 73 40
       0.85190624 2.047667 9.492098 3.8115237
0002b0 de 01 6c c1 34 fa 46 41 52 04 08 41 13 88 75 be
       -14.750456 12.436085 8.501055 -0.2397769
0002c0 84 cc b3 c0 2e e6 28 c0 85 80 5d c1 bb dd 6f 41
       -5.6187153 -2.639049 -13.843877 14.991633
0002d0 a1 6c 30 c1 b2 c1 2b 40 08 5c 9f bf c9 4e 8d c1
       -11.026521 2.6836972 -1.2449961 -17.66347
0002e0 3f d6 ae 40 b6 9c 97 41 e2 ba 1c c1 90 18 65 40
       5.463653 18.951519 -9.795626 3.5796242
0002f0 74 ee 96 40 c5 0c 49 c0 5c 5f b9 40 57 56 84 41
       4.716608 -3.1414044 5.7928905 16.542158
000300 a7 13 26 c0 fa be be c0 48 ac 6a 3f 45 6d f5 c0
       -2.5949495 -5.9608126 0.9166913 -7.6695886
000310 e7 ed c5 c0 26 d1 75 c1 33 30 b0 c0 82 14 d4 40
       -6.185291 -15.363562 -5.5058837 6.6275034
000320 6f 22 17 c1 4e c8 ab c0 41 76 0b 41 19 38 58 41
       -9.445907 -5.3682013 8.716371 13.513696
000330 66 5b e6 3e cf b8 19 c0 c5 82 23 c1 fb 59 5c c1
       0.44991606 -2.4019048 -10.219426 -13.771968
000340 dd 82 0f 41 2a 48 73 c1 a4 24 d8 3f cb 32 2b c1
       8.969449 -15.205118 1.6886182 -10.699901
000350 c2 01 3d c1 8e 69 6c 41 fa c6 83 40 7c 39 3a 41
       -11.812929 14.77577 4.118039 11.639034
000360 65 5d c0 c0 b7 1a 26 41 0c 75 32 bf ec df 8f 41
       -6.0114007 10.381522 -0.6970985 17.984337
000370 f0 18 34 41 1f b6 9e 3f 0c 42 b9 41 a4 8b 1f 3f
       11.256088 1.2399329 23.15725 0.6232245
000380 2b 9b 3c c0 64 0c ba 40 dc b0 32 41 14 39 22 41
       -2.9469707 5.8140125 11.168179 10.138935
000390 a4 9d 59 40 38 02 ef 41 6e c9 ec c0 71 1c c2 40
       3.4002466 29.876083 -7.3995886 6.065972
0003a0 09 dd d8 3f c2 68 4c 40 3f 86 ee 40 18 60 1d 41
       1.6942455 3.193894 7.4538875 9.83596
0003b0 c5 35 0a c1 90 a3 26 40 da 80 8b c0 8e c3 3b 40
       -8.638127 2.603733 -4.359479 2.9338107
0003c0 aa 4c ce 40 d6 c7 2b 40 46 4c 97 c1 16 b6 9a 40
       6.4468584 2.684072 -18.912243 4.8347273
0003d0 54 d9 36 be e4 55 14 c1 0e a3 28 c0 ae f3 3b c0
       -0.17856342 -9.270969 -2.634952 -2.936748
0003e0 7c 9e a5 40 81 c8 c7 c0 99 da 17 41 11 68 15 42
       5.175596 -6.2432256 9.490869 37.351627
0003f0 6e 5d 98 40 ee c1 37 c0 42 73 f6 bf 69 0b 38 c0
       4.761405 -2.8712115 -1.9253924 -2.8756964
