astronet/tinho/models/plasticc/clustered_stripped_fink_model_quantized.tflite (tflite, 58560 bytes, 21 tensors)

Const f4 [1, 100, 32]
00000000: 0000 0000 0000 803f 0000 0000 0000 803f
00000010: 0000 0000 0000 803f 0000 0000 0000 803f
00000020: 0000 0000 0000 803f 0000 0000 0000 803f
00000030: 0000 0000 0000 803f 0000 0000 0000 803f
00000040: 0000 0000 0000 803f 0000 0000 0000 803f
00000050: 0000 0000 0000 803f 0000 0000 0000 803f
00000060: 0000 0000 0000 803f 0000 0000 0000 803f
00000070: 0000 0000 0000 803f 0000 0000 0000 803f
00000080: a46a 573f 4051 0a3f ba7d 083f 0e94 583f
00000090: 3e39 9f3e 6a4e 733f 3a23 353e 83f6 7b3f
000000a0: 7675 cc3d 98b8 7e3f b036 663d 6898 7f3f
000000b0: 5c81 013d 3cdf 7f3f 42ab 913c a3f5 7f3f
000000c0: 57d6 233c b9fc 7f3f 5c44 b83b f7fe 7f3f
000000d0: 203e 4f3b acff 7f3f 2015 e93a e5ff 7f3f
000000e0: 6d12 833a f8ff 7f3f 166a 133a fdff 7f3f
000000f0: 5fcb a539 ffff 7f3f 5377 3a39 0000 803f
00000100: b7c7 683f 3311 d5be 0af2 663f b2e8 dc3e
00000110: 1b54 173f ec7b 4e3f f647 b23e a5fa 6f3f
00000120: f96f 4b3e a5e5 7a3f 88d9 e53d f361 7e3f
00000130: c870 813d f97c 7f3f 5ca5 113d 8ed6 7f3f
00000140: 3ed4 a33c e5f2 7f3f 9d43 383c dbfb 7f3f
00000150: dd3d cf3b b0fe 7f3f 0815 693b 96ff 7f3f
00000160: 6912 033b deff 7f3f 146a 933a f5ff 7f3f
00000170: 5fcb 253a fdff 7f3f 5377 ba39 ffff 7f3f
00000180: c381 103e 2670 7dbf d745 7e3f a87f edbd
00000190: c209 503f 572f 153f 6d2f 023f 296d 5c3f
000001a0: 6d4e 973e ef90 743f d8ee 2b3e 9e5d 7c3f
000001b0: c1ff c13d 4fd9 7e3f 4d69 5a3d c3a2 7f3f
000001c0: 20b9 f53c 83e2 7f3f c731 8a3c adf6 7f3f
000001d0: 116e 1b3c 0dfd 7f3f a8cf ae3b 11ff 7f3f
000001e0: 939b 443b b5ff 7f3f 1b1f dd3a e8ff 7f3f
000001f0: 0db1 783a f8ff 7f3f 7ed9 0b3a feff 7f3f
00000200: cfbd 41bf 3055 27bf ed49 473f 9daf 20bf
00000210: de1d 743f b12e 9a3e bc1f 273f edeb 413f
00000220: d761 c73e a7ca 6b3f c665 643e 098d 793f
00000230: 882e 013e 69f4 7d3f c88d 913d 475a 7f3f
00000240: dbcb 233d 94cb 7f3f a240 b83c 6cef 7f3f
00000250: cd3c 4f3c c2fa 7f3f a714 e93b 58fe 7f3f
00000260: 5812 833b 7aff 7f3f 0e6a 133b d6ff 7f3f
00000270: 5ccb a53a f3ff 7f3f 5277 3a3a fcff 7f3f
00000280: 107c 75bf 2c3c 913e d6da a53e 4032 72bf
00000290: 7ffc 7f3f d472 29bc abca 463f f14c 213f
000002a0: 4477 f53e 40a9 603f ee11 8e3e 7cf2 753f
000002b0: 1e3c 213e 81ce 7c3f 21db b53d 1efd 7e3f
000002c0: f5b6 4c3d 19ae 7f3f fe4d e63c 19e6 7f3f
000002d0: 8185 813c cff7 7f3f bbac 113c 69fd 7f3f
000002e0: ded6 a33b 2eff 7f3f 8c44 383b beff 7f3f
000002f0: 313e cf3a ebff 7f3f 2615 693a f9ff 7f3f
00000300: 8c0f 8fbe b8cd 753f 74e5 6bbe 531d 79bf
00000310: 4d78 723f 6f3f a4be 8930 603f 342f f73e
00000320: 698c 103f 3249 533f fd7d a93e e290 713f
00000330: 6f20 413e e367 7b3f c119 da3d 518b 7e3f
00000340: d19c 753d 128a 7f3f bf2c 0a3d b3da 7f3f
00000350: 466c 9b3c 34f4 7f3f 04cf 2e3c 45fc 7f3f
00000360: 599b c43b d2fe 7f3f 061f 5d3b a1ff 7f3f
00000370: 05b1 f83a e2ff 7f3f 7dd9 8b3a f6ff 7f3f
00000380: 4630 283f bdff 403f 6eb6 36bf 604f 33bf
00000390: 6fe8 4c3f bb74 19bf 4484 723f b9f8 a33e
000003a0: 73eb 243f b3cc 433f df60 c43e c56b 6c3f
000003b0: 50d3 603e eac0 793f ba46 fe3d e904 7e3f
000003c0: 323e 8f3d 815f 7f3f 6031 213d 3bcd 7f3f
000003d0: a652 b53c f2ef 7f3f 2af1 4b3c ecfa 7f3f
000003e0: c75f e53b 65fe 7f3f befc 803b 7eff 7f3f
000003f0: ec11 113b d7ff 7f3f 6628 a33a f3ff 7f3f
0.0 1.0 0.0 1.0 0.0 1.0 0.0 1.0
0.0 1.0 0.0 1.0 0.0 1.0 0.0 1.0
0.0 1.0 0.0 1.0 0.0 1.0 0.0 1.0
0.0 1.0 0.0 1.0 0.0 1.0 0.0 1.0
0.84147096 0.5403023 0.53316844 0.84600914 0.3109836 0.95041525 0.17689219 0.9842302
0.099833414 0.9950042 0.056204498 0.9984193 0.031617507 0.99950004 0.017781857 0.99984187
0.009999833 0.99995 0.0056233834 0.9999842 0.0031622723 0.999995 0.0017782785 0.9999984
0.0009999998 0.9999995 0.0005623413 0.9999998 0.00031622776 0.99999994 0.00017782794 1.0
0.9092974 -0.41614684 0.9021307 0.43146282 0.5911271 0.8065784 0.34820527 0.9374183
0.19866933 0.9800666 0.112231314 0.9936821 0.063203394 0.9980007 0.03555809 0.9993676
0.019998666 0.9998 0.011246589 0.99993676 0.0063245133 0.99998 0.0035565514 0.9999937
0.0019999987 0.999998 0.0011246824 0.99999934 0.0006324555 0.9999998 0.00035565588 0.99999994
0.14112 -0.9899925 0.9932532 -0.11596614 0.8126489 0.5827536 0.50853616 0.86104065
0.29552022 0.9553365 0.1679033 0.9858035 0.09472609 0.99550337 0.05332308 0.9985773
0.029995501 0.99955004 0.016869439 0.9998577 0.009486691 0.999955 0.005334813 0.99998575
0.0029999956 0.9999955 0.0016870232 0.99999857 0.0009486832 0.9999995 0.0005334838 0.9999999
-0.7568025 -0.6536436 0.77847177 -0.62767965 0.95358074 0.30113748 0.652828 0.7575062
0.38941833 0.921061 0.22304448 0.9748083 0.12615407 0.99201065 0.07107121 0.9974713
0.039989334 0.9992001 0.022491757 0.99974704 0.012648773 0.99992 0.0071130577 0.9999747
0.0039999895 0.999992 0.0022493633 0.9999975 0.0012649107 0.9999992 0.0007113117 0.99999976
-0.9589243 0.2836622 0.3239352 -0.94607925 0.99994653 -0.010342319 0.77652997 0.6300803
0.47942555 0.87758255 0.27748054 0.96073127 0.15745589 0.987526 0.08879686 0.99604976
0.04997917 0.99875027 0.028113361 0.99960476 0.01581073 0.999875 0.00889128 0.9999605
0.0049999794 0.9999875 0.002811703 0.99999607 0.0015811381 0.99999875 0.0008891396 0.9999996
-0.2794155 0.96017027 -0.23036748 -0.9731037 0.94714814 -0.32079646 0.8757406 0.482782
0.5646425 0.8253356 0.33103934 0.943617 0.18860029 0.98205394 0.106494434 0.9943133
0.059964005 0.99820054 0.03373408 0.99943084 0.018972527 0.99982 0.010669474 0.9999431
0.005999964 0.999982 0.0033740415 0.99999434 0.0018973654 0.9999982 0.0010669675 0.9999994
0.6569866 0.75390226 -0.71372116 -0.7004299 0.80042166 -0.5994374 0.9473307 0.32025698
0.64421767 0.7648422 0.38355157 0.92351943 0.2195561 0.9755999 0.12415834 0.9922624
0.06994285 0.997551 0.03935373 0.9992253 0.022134136 0.999755 0.012447635 0.9999225
0.006999943 0.9999755 0.003936379 0.99999225 0.0022135926 0.99999756 0.0012447953 0.9999992

BiasAdd/ReadVariableOp f4 [14]
00000000: 7736 56bf 2810 0ebf 37ec 56c0 6568 d13f
00000010: 9d40 c73f 8df2 b1c0 24dd fa3f 99e8 abc0
00000020: f6db 0fc0 fd80 c83f 1f76 95bf e78e ec3f
00000030: 2694 95c0 04cc f63f
-0.83676857 -0.554934 -3.3581674 1.6359984 1.5566593 -5.5608582 1.9598737 -5.3721433
-2.2478004 1.5664364 -1.1676673 1.848111 -4.6743345 1.9281011

sequential/dense_5/BiasAdd/ReadVariableOp f4 [32]
00000000: 9d10 7cc1 62b5 2e41 3182 47c1 38c0 ea3d
00000010: 9615 99c1 e26e b0c1 0e2c 6c40 bbdb 9ac1
00000020: 0019 9340 a3f7 13c1 e35a 0141 1ffe ffc0
00000030: 8166 09c2 eb24 46c1 d653 99c1 9f63 c5c1
00000040: 93b3 ea40 1956 4541 a1bb 6cc1 46a6 ff41
00000050: 3854 d241 0eb7 3fc1 c778 99c1 0c4f 81c1
00000060: d7e3 1ac2 b70e 4ac1 8221 ab41 dd2e 0340
00000070: 7788 45c1 39f1 4ec1 4876 ecc0 feff 0441
-15.754056 10.919283 -12.469285 0.11462444 -19.13554 -22.054142 3.690189 -19.35729
4.5968018 -9.247958 8.084689 -7.9997706 -34.3501 -12.384013 -19.165936 -24.673643
7.3344207 12.33352 -14.795808 31.956188 26.291122 -11.982191 -19.183973 -16.163597
-38.7225 -12.6285925 21.391361 2.0497353 -12.345817 -12.933892 -7.3894386 8.312498

sequential/dense_4/BiasAdd/ReadVariableOp f4 [128]
00000000: de35 9440 6590 9fc0 bb16 c8c0 e6e1 1ec1
00000010: af19 1bc1 9639 ab3e 39c2 03c1 9b1b 01c1
00000020: 5836 21c1 99c1 0cc0 8e14 f9c0 0e64 5ebf
00000030: 1d6f 513e d626 863f 0f87 9ec0 fde2 e1c0
00000040: 62df 09bf 6edb 4cc0 6512 12c1 8fb1 b53f
00000050: 7514 1d3f 7078 46c1 404a 8bc0 954d 35c1
00000060: 4b74 f8c0 6d55 dfc0 9b66 fac0 a57b 10c1
00000070: ecde 4bc1 38b0 9dc0 1c2f 0fc1 879e 65c1
00000080: ebaa 1ec1 a422 35c0 a05a 7bc1 78cd ddc0
00000090: 9e33 97bf 2a59 c5c0 5bb7 7ac1 c85b 93bf
000000a0: 1879 09c1 1f42 27c1 0bb2 3fc1 084f ebc0
000000b0: 6a47 89bf 6fb0 1ac1 b91d 1fc1 79b5 20c1
000000c0: 603f 68c1 840e 8fc0 ff83 0c3e 97c4 293f
000000d0: 2482 01c1 04d5 fbc0 1488 16c1 c08b c63f
000000e0: 5ee8 76bf 43e1 7ec0 6df5 65c0 4fb3 6bc1
000000f0: d4bf a2c0 92c7 d8c0 3680 9bc0 e9e0 14c0
00000100: 8490 38c1 eb32 76bf 997d 21c1 20bc e4c0
00000110: 71f2 39c1 0a03 1dc0 0197 b6c0 5e81 42c1
00000120: f530 a8c0 5593 89c1 db0c aabd f40d 02c0
00000130: c3b7 8ac1 9838 84c0 1cf3 d5c0 619d afc0
00000140: 70fd 80c1 6a27 9bc0 10ce 00c1 d8cc 2cc1
00000150: 85dd 0bc1 21e9 e2c0 bb96 51c1 78ae 45c1
00000160: 800c b0bf 2a41 a8bf f109 3dc1 c7c4 d6c0
00000170: af54 15c1 16d3 54c0 37d0 12c1 a687 dfc0
00000180: abd3 12c1 086e 85c0 3f16 0cc0 80d6 dbc0
00000190: b737 19c1 742e 3cc1 7544 3ebf 4a7d c7c0
000001a0: 7d31 c4c0 eda6 fec0 dc6e 2dc1 8811 55c1
000001b0: 389d adc1 bd2f bcc0 ba2f fbc0 5754 1cc0
000001c0: 5a11 9dc0 ddfc 23c1 21ad 3ac1 8027 a8c0
000001d0: 2010 1fc0 8482 ec3f e2a9 0dc1 3e40 2bc1
000001e0: 1103 dfc0 ecd7 35c1 03aa 2fc0 e054 22c0
000001f0: 15c0 00c1 8b7d 2cc1 03f9 bcc0 3ce2 9ec0
4.6315756 -4.9863763 -6.2527747 -9.930151 -9.69377 0.33442372 -8.234918 -8.06924
-10.0757675 -2.1993163 -7.783759 -0.8687142 0.20452543 1.0480602 -4.9539866 -7.0589585
-0.5385648 -3.200893 -9.129491 1.4194812 0.6135934 -12.404404 -4.3528137 -11.331441
-7.764196 -6.979178 -7.825025 -9.030187 -12.741924 -4.927761 -8.949001 -14.351203
-9.916728 -2.8302393 -15.709625 -6.9313316 -1.1812627 -6.1671343 -15.6697645 -1.1512384
-8.592064 -10.453643 -11.9809675 -7.3533974 -1.0724919 -9.668075 -9.9447565 -10.044305
-14.515472 -4.470522 0.13722228 0.663156 -8.094273 -7.869753 -9.408222 1.5511398
-0.96448314 -3.982499 -3.5931046 -14.7312765 -5.0859165 -6.7743616 -4.8594007 -2.3262274
-11.535282 -0.96171445 -10.0931635 -7.1479645 -11.62169 -2.4533105 -5.705933 -12.156584
-5.255976 -17.19694 -0.08303233 -2.0321016 -17.339727 -4.1319084 -6.6859264 -5.4879613
-16.123749 -4.8485613 -8.050308 -10.800011 -8.741582 -7.090958 -13.099299 -12.355095
-1.3753815 -1.3144886 -11.814927 -6.7115207 -9.333175 -3.3253837 -9.175834 -6.9853086
-9.176677 -4.1696815 -2.1888578 -6.869934 -9.576102 -11.761341 -0.7432321 -6.234044
-6.131041 -7.9578767 -10.839565 -13.31678 -21.701767 -5.8808274 -7.849576 -2.4426477
-4.908368 -10.249234 -11.667268 -5.254822 -2.4853592 1.847733 -8.853975 -10.703184
-6.9691243 -11.365215 -2.7447517 -2.5364304 -8.046895 -10.78065 -5.905397 -4.9651165

multi_head_self_attention/dense/BiasAdd/ReadVariableOp f4 [32]
00000000: d394 363e 8fb6 0941 eb41 debf e3c6 9a40
00000010: 205a 5b40 2168 b0c0 386b e740 e58e 88c0
00000020: 58b1 3541 0f17 f13f 4ab6 2b3f 8662 e940
00000030: 18ff 9cc0 a59a 2140 20c2 f53f 9405 19c1
00000040: 4340 eb3e c515 5fc0 4c82 2dbf 8dd0 44c1
00000050: d72b ecc0 3908 f5c0 9e6b 45c0 07f1 9b40
00000060: 896b 2141 dcb8 2840 807f 6540 3737 a63f
00000070: ff2d b9c0 3c91 ebc0 0584 f140 390c 06c1
0.1783021 8.60707 -1.7363867 4.836778 3.4273758 -5.512711 7.231838 -4.267443
11.355797 1.8835162 0.67075026 7.293277 -4.9061394 2.5250638 1.9199867 -9.563862
0.45947465 -3.4857037 -0.6777694 -12.300916 -7.3803515 -7.6572537 -3.0846934 4.8731723
10.088754 2.636283 3.585907 1.29856 -5.7868648 -7.361479 7.5473657 -8.377984

multi_head_self_attention/dense_3/BiasAdd/ReadVariableOp f4 [32]
00000000: c089 f540 0d25 0340 e422 f8c0 1a44 a6c0
00000010: 41e0 5ec0 e278 8641 2760 2240 aad4 3840
00000020: ad81 1241 a843 2141 2630 3241 b507 7ec0
00000030: 3760 ed40 910b a1bf 7240 8141 e8f7 80bf
00000040: b3a6 cc41 f137 1e41 6957 3d3e 3f31 cb40
00000050: 32df 20c0 6c52 a340 1e9d a0c2 2c14 9dbf
00000060: 0d35 b2c0 73d3 f240 2167 dc40 b998 a941
00000070: 8af1 ecbf d890 a341 d859 c9c1 ebe7 3b41
7.673065 2.0491364 -7.754259 -5.195813 -3.4824374 16.809025 2.5371187 2.88798
9.156659 10.079018 11.136755 -3.9692204 7.417995 -1.2581655 16.156467 -1.0075655
25.581396 9.888658 0.18490376 6.3497615 -2.5136228 5.1038113 -80.30687 -1.2271781
-5.568976 7.5883117 6.887589 21.199572 -1.8511212 20.445724 -25.168869 11.744121

multi_head_self_attention/dense_2/BiasAdd/ReadVariableOp f4 [32]
00000000: e610 2541 1f75 04c0 8bb7 d940 3424 b6c0
00000010: f47f 56c0 b69c ec40 fb57 1fc2 d4e4 53c1
00000020: 85b4 8240 efa9 2dc0 f2e7 81c0 9e8a 9fc1
00000030: e535 39bf aed3 90c0 74ed f83f 8e1a 5b40
00000040: 0a85 b23e f43b 4e40 13dd 06c1 2aa5 ad40
00000050: feeb 60bf 04f9 f140 4d51 8b40 86e9 94c0
00000060: cbdd c53f 8ba9 bfc0 6b8f 0c41 2dbd 2cc1
00000070: 07ce 84c0 5728 7240 1218 09c1 3fe3 f8c0
10.316626 -2.0696485 6.803655 -5.6919193 -3.3515596 7.3941298 -39.83592 -13.243366
4.084536 -2.713497 -4.0595636 -19.942684 -0.7234786 -4.52584 1.9447465 3.4234958
0.34867126 3.2224092 -8.428973 5.4264116 -0.87860096 7.5616474 4.3536744 -4.6535063
1.5458311 -5.989446 8.785014 -10.7961855 -4.15015 3.7837121 -8.568377 -7.77774

multi_head_self_attention/dense_1/BiasAdd/ReadVariableOp f4 [32]
00000000: 60a7 1d3e fa69 c6be fdbf 0b3d 0eba 82bf
00000010: 5148 b33e a7d0 72bf c3cb 83be f419 363e
00000020: 892d e23c b384 2a3a 53f6 2ebf b5eb 213e
00000030: d586 353e 1a67 0ebe 62b7 b9bd 70e3 743e
00000040: 34a3 6a3e 3043 283c 49ff b8be cade 6cbe
00000050: 321c 8cbe ad2e 40bf f9cb d2be b1cf 90be
00000060: affb 87be 29dd 483d f1cb 883e 4778 52bf
00000070: 027d d83e 6998 923e e19a 833e a30f b53d
0.1539588 -0.3875273 0.03411864 -1.0213029 0.3501611 -0.9484963 -0.25741395 0.17783338
0.027609603 0.0006504759 -0.6834461 0.15812571 0.17727216 -0.13906518 -0.090681806 0.23914886
0.2291382 0.010269925 -0.36132267 -0.23131862 -0.2736526 -0.7507122 -0.41171244 -0.28283456
-0.26559207 0.04903904 0.26718095 -0.8221478 0.42282873 0.28631905 0.257041 0.08840873

layer_normalization/batchnorm/ReadVariableOp f4 [32]
00000000: 169f 8d3f 256a 7240 3a1e 4a40 ba07 96c0
00000010: 6d55 64c0 bbd6 2fc1 92ce 5e3f 5022 3740
00000020: f931 6541 a29e 8940 064c 3ac0 b6b1 e740
00000030: f1e0 03c1 d9d2 2cc0 e8b4 1940 8ef8 72c0
00000040: fb2f 0b40 8f1b 8f3f fa4d e7c0 6920 2abf
00000050: 2d74 3440 9619 8fc0 9b58 03c1 a341 0240
00000060: 8cb8 d6c0 6813 3a40 4489 b8c0 daf9 683f
00000070: 8644 1841 0462 8abe b69f 38c1 9d08 4140
1.1064174 3.7877285 3.158095 -4.688443 -3.567714 -10.989924 0.8703395 2.8614693
14.3247 4.3006144 -2.91089 7.240443 -8.242417 -2.7003691 2.4016666 -3.7964206
2.1748035 1.1180285 -7.2282686 -0.66455704 2.8195908 -4.4718733 -8.209132 2.0352561
-6.7100277 2.9074345 -5.766756 0.91006243 9.516729 -0.27027905 -11.538992 3.0161507

layer_normalization/batchnorm/mul/ReadVariableOp f4 [32]
00000000: 0aa9 5341 b7db 3741 a841 4f41 32f6 0041
00000010: 5e29 5e41 55ed 4541 6a91 4a41 33a1 8041
00000020: 0083 f240 c532 9041 8b1d 0941 41bf 3541
00000030: 981e 2e41 66e3 4d41 e876 5541 4502 3b41
00000040: 177b 2d41 4986 fb40 0d89 4241 eed1 1641
00000050: ac6d 2b41 75b2 6241 c06b 8b41 de62 5041
00000060: 7d40 3c41 3ec2 4d41 0f70 1441 2c15 b7bf
00000070: 730a 6041 aa28 1cc0 1395 2b41 6f7c 0941
13.228769 11.491141 12.953529 8.060106 13.885099 12.370442 12.6605015 16.07871
7.578491 18.02479 8.569713 11.359193 10.882469 12.868017 13.34153 11.688054
10.842551 7.860142 12.15846 9.426252 10.714275 14.168569 17.427612 13.0241375
11.765744 12.859922 9.277358 -1.4303336 14.002551 -2.439982 10.723895 8.592879

layer_normalization_1/batchnorm/ReadVariableOp f4 [32]
00000000: accf 97be dd02 b0be 6462 e2bb 3a96 883d
00000010: ca85 8b3a a65d a7bd 7c00 12bf d0c2 a5bc
00000020: 4e83 e33e 7dcb 98be 87cb 963f 69ff a9bb
00000030: cb2f febb f492 eb3b a688 06bb d0cc a43a
00000040: 99c6 63bf acbc 1dbd f7d0 c93a 9396 943b
00000050: a44b e1be a672 68bb dc37 91be d1f5 06bb
00000060: 5ce9 583a 820b 4dbd c2c3 40bf 7adf e93b
00000070: de50 163b 160f 043c 82a2 7e3b c55f 7dbe
-0.2965063 -0.34377185 -0.0069087017 0.066692784 0.0010644731 -0.08172159 -0.5703199 -0.020234495
0.44436115 -0.2984275 1.1780862 -0.005187918 -0.007757162 0.007189149 -0.0020528226 0.0012573246
-0.8897491 -0.03851001 0.0015397359 0.0045345514 -0.44003022 -0.0035468726 -0.2836293 -0.0020593295
0.00082745194 -0.050059803 -0.752987 0.007137236 0.0022936384 0.008060237 0.0038854186 -0.24743564

layer_normalization_1/batchnorm/mul/ReadVariableOp f4 [32]
00000000: aadc 1640 fa6c 8f40 a4b4 383d 9729 3740
00000010: e3f3 f8bc 3a09 5640 6464 5740 6b38 1fbc
00000020: 4c58 7e40 6215 6d40 2629 6e40 bc37 41bc
00000030: f0d2 e8bb c80f e83f 442a 29be a4ec 323c
00000040: c8dd 9d40 ac55 e43f 92c2 c6bb 144f 9e3b
00000050: c962 4440 ca5a 58bd 0c57 2040 296f 8a3c
00000060: a8dc 063c 6a48 983f 917a 7640 a252 3540
00000070: 0d2b 01bc 5b8e 35be afdd a23d b992 5340
2.3572183 4.482053 0.045094147 2.8619134 -0.030389732 3.3443131 3.3655024 -0.009718041
3.9741392 3.70443 3.7212615 -0.011793073 -0.007105224 1.8129816 -0.1652003 0.010920677
4.933323 1.7838645 -0.006065675 0.004831204 3.0685294 -0.05282096 2.505313 0.016898708
0.0082313195 1.1897099 3.8512309 2.8331685 -0.007883799 -0.17730086 0.07952439 3.3058302

conv1d/BiasAdd/ReadVariableOp f4 [32]
00000000: a2ec bfc1 147a 18c2 088c c3c1 1b11 52c1
00000010: 6d1a a0c1 b6c4 a5c1 44a2 25c1 7766 27c1
00000020: 5825 70c1 fc31 71c1 0d2a 84c1 5b46 94c1
00000030: 3aac 97c0 a6bf ce3f cc92 4bc1 d2ad 2640
00000040: 941d d9c1 6578 3440 7d0b adc1 b7b5 0dc1
00000050: ab42 75c0 e931 22c0 f4f4 ccbe 3564 d5c1
00000060: 788d 5cc1 ca34 46c1 fc5f 8abf 98db c3c1
00000070: 5e2c 2cc1 506c 4bc1 5eb1 4240 12b5 89c1
-23.990543 -38.119217 -24.443375 -13.129176 -20.012903 -20.72105 -10.352116 -10.462516
-15.009117 -15.074703 -16.520533 -18.534353 -4.7397738 1.6152236 -12.723339 2.6043591
-27.139442 2.8198483 -21.63061 -8.856864 -3.832194 -2.5342963 -0.40030634 -26.67393
-13.784538 -12.387888 -1.0810542 -24.482224 -10.760832 -12.7139435 3.0420756 -17.213413

multi_head_self_attention/dense_1/Tensordot/MatMul i1 [32, 32] scale=0.5172644 zero_point=0
00000000: 0a02 0004 05f7 fbf6 15ef 1810 f922 ecef
00000010: ee07 ec03 0b10 20ff 000a f0f7 f6fb 0af4
00000020: fd06 fff5 0105 0afc 03f2 04e1 040b 0ffd
00000030: 03e4 0af8 0102 150a eafb 38f3 22e8 f6ed
00000040: 0712 07f6 ff08 100e 0df8 21f7 1424 17f2
00000050: 08f1 08f2 110e 13f2 0605 ec02 eaff 08f2
00000060: fef6 fd01 f90b 0605 f1ee 0600 07f9 e100
00000070: ef2a f40d 101e fa13 1f09 e0f3 e9fa 10f2
00000080: 0a13 1df9 02fc 0a25 eaeb fd04 06ec fd19
00000090: f9f4 0af6 fb02 ef02 12fd 010a fe17 ec0f
000000a0: 070d 0afc fe05 0c06 252d a642 f2fd 1304
000000b0: 260c 2f0a 02b8 02ed 0206 feff 000a 0408
000000c0: d70d 0100 f40a 1106 0816 ee18 ea02 e700
000000d0: ebfc eaf5 d901 e502 e5ed f005 f305 f3e7
000000e0: f1ff 0201 e80e f4df fbd3 06d6 1001 35ef
000000f0: 26ea 28fc fde8 13fc 0af8 02f3 03fd 0606
5.172644 1.0345289 0.0 2.0690577 2.586322 -4.65538 -2.586322 -5.172644
10.862553 -8.793495 12.414347 8.276231 -3.620851 17.58699 -10.345288 -8.793495
-9.31076 3.620851 -10.345288 1.5517933 5.6899085 8.276231 16.552462 -0.5172644
0.0 5.172644 -8.276231 -4.65538 -5.172644 -2.586322 5.172644 -6.2071733
-1.5517933 3.1035867 -0.5172644 -5.6899085 0.5172644 2.586322 5.172644 -2.0690577
1.5517933 -7.241702 2.0690577 -16.035196 2.0690577 5.6899085 7.7589664 -1.5517933
1.5517933 -14.483404 5.172644 -4.1381154 0.5172644 1.0345289 10.862553 5.172644
-11.379817 -2.586322 28.966808 -6.7244377 17.58699 -12.414347 -5.172644 -9.828024
3.620851 9.31076 3.620851 -5.172644 -0.5172644 4.1381154 8.276231 7.241702
6.7244377 -4.1381154 17.069727 -4.65538 10.345288 18.62152 11.897081 -7.241702
4.1381154 -7.7589664 4.1381154 -7.241702 8.793495 7.241702 9.828024 -7.241702
3.1035867 2.586322 -10.345288 1.0345289 -11.379817 -0.5172644 4.1381154 -7.241702
-1.0345289 -5.172644 -1.5517933 0.5172644 -3.620851 5.6899085 3.1035867 2.586322
-7.7589664 -9.31076 3.1035867 0.0 3.620851 -3.620851 -16.035196 0.0
-8.793495 21.725105 -6.2071733 6.7244377 8.276231 15.517933 -3.1035867 9.828024
16.035196 4.65538 -16.552462 -6.7244377 -11.897081 -3.1035867 8.276231 -7.241702
5.172644 9.828024 15.000669 -3.620851 1.0345289 -2.0690577 5.172644 19.138784
-11.379817 -10.862553 -1.5517933 2.0690577 3.1035867 -10.345288 -1.5517933 12.931611
-3.620851 -6.2071733 5.172644 -5.172644 -2.586322 1.0345289 -8.793495 1.0345289
9.31076 -1.5517933 0.5172644 5.172644 -1.0345289 11.897081 -10.345288 7.7589664
3.620851 6.7244377 5.172644 -2.0690577 -1.0345289 2.586322 6.2071733 3.1035867
19.138784 23.2769 -46.5538 34.139454 -7.241702 -1.5517933 9.828024 2.0690577
19.656048 6.2071733 24.311428 5.172644 1.0345289 -37.24304 1.0345289 -9.828024
1.0345289 3.1035867 -1.0345289 -0.5172644 0.0 5.172644 2.0690577 4.1381154
-21.207842 6.7244377 0.5172644 0.0 -6.2071733 5.172644 8.793495 3.1035867
4.1381154 11.379817 -9.31076 12.414347 -11.379817 1.0345289 -12.931611 0.0
-10.862553 -2.0690577 -11.379817 -5.6899085 -20.173313 0.5172644 -13.96614 1.0345289
-13.96614 -9.828024 -8.276231 2.586322 -6.7244377 2.586322 -6.7244377 -12.931611
-7.7589664 -0.5172644 1.0345289 0.5172644 -12.414347 7.241702 -6.2071733 -17.069727
-2.586322 -23.2769 3.1035867 -21.725105 8.276231 0.5172644 27.415014 -8.793495
19.656048 -11.379817 20.690577 -2.0690577 -1.5517933 -12.414347 9.828024 -2.0690577
5.172644 -4.1381154 1.0345289 -6.7244377 1.5517933 -1.5517933 3.1035867 3.1035867

multi_head_self_attention/dense_2/Tensordot/MatMul i1 [32, 32] scale=0.80817753 zero_point=0
00000000: 000c fff5 0109 0601 ed0d f503 08f5 fe02
00000010: fd01 f809 fe0d ef04 fb04 ee00 0208 0901
00000020: 0109 02fe fffe 0302 0cfe 0716 ef0e f8fe
00000030: fefd 050a 02fd 0704 05f9 ebfa 0705 0400
00000040: fa1f f5fc f321 f406 d000 c813 05fd f702
00000050: fef9 f202 fe07 fffd 02f1 0afa 0b02 fff6
00000060: fe08 03ff fefd fafb 0503 e3fc fcfc f20b
00000070: fc07 fff8 f8f9 05ff fdfe fbfb 00fd 03fe
00000080: f7e8 e504 f1ff 03e5 0f00 03ff f80a 00f1
00000090: f40d 0500 fdfb 11f9 01fe 07fa f7f3 11f8
000000a0: fdf8 0203 f50a fd05 082b ca42 fbfc 0406
000000b0: 0e07 0c01 fe08 0204 0406 ff06 ff05 fe05
000000c0: 1afc 0101 fffc feff 01fe 0ff2 faf1 f3fe
000000d0: f9fc 1002 09cf 08ee 02ee 04e6 09f4 04e4
000000e0: 0bf9 fe02 08fd 0803 0920 062d fdfd e305
000000f0: ed04 fbfe f1f0 ea06 ff00 fbfb 0efe f1f8
0.0 9.698131 -0.80817753 -8.889953 0.80817753 7.2735977 4.8490653 0.80817753
-15.355373 10.506308 -8.889953 2.4245327 6.4654202 -8.889953 -1.6163551 1.6163551
-2.4245327 0.80817753 -6.4654202 7.2735977 -1.6163551 10.506308 -13.739018 3.2327101
-4.040888 3.2327101 -14.547195 0.0 1.6163551 6.4654202 7.2735977 0.80817753
0.80817753 7.2735977 1.6163551 -1.6163551 -0.80817753 -1.6163551 2.4245327 1.6163551
9.698131 -1.6163551 5.657243 17.779905 -13.739018 11.314486 -6.4654202 -1.6163551
-1.6163551 -2.4245327 4.040888 8.081776 1.6163551 -2.4245327 5.657243 3.2327101
4.040888 -5.657243 -16.971727 -4.8490653 5.657243 4.040888 3.2327101 0.0
-4.8490653 25.053503 -8.889953 -3.2327101 -10.506308 26.669859 -9.698131 4.8490653
-38.792522 0.0 -45.257942 15.355373 4.040888 -2.4245327 -7.2735977 1.6163551
-1.6163551 -5.657243 -11.314486 1.6163551 -1.6163551 5.657243 -0.80817753 -2.4245327
1.6163551 -12.122663 8.081776 -4.8490653 8.889953 1.6163551 -0.80817753 -8.081776
-1.6163551 6.4654202 2.4245327 -0.80817753 -1.6163551 -2.4245327 -4.8490653 -4.040888
4.040888 2.4245327 -23.43715 -3.2327101 -3.2327101 -3.2327101 -11.314486 8.889953
-3.2327101 5.657243 -0.80817753 -6.4654202 -6.4654202 -5.657243 4.040888 -0.80817753
-2.4245327 -1.6163551 -4.040888 -4.040888 0.0 -2.4245327 2.4245327 -1.6163551
-7.2735977 -19.396261 -21.820793 3.2327101 -12.122663 -0.80817753 2.4245327 -21.820793
12.122663 0.0 2.4245327 -0.80817753 -6.4654202 8.081776 0.0 -12.122663
-9.698131 10.506308 4.040888 0.0 -2.4245327 -4.040888 13.739018 -5.657243
0.80817753 -1.6163551 5.657243 -4.8490653 -7.2735977 -10.506308 13.739018 -6.4654202
-2.4245327 -6.4654202 1.6163551 2.4245327 -8.889953 8.081776 -2.4245327 4.040888
6.4654202 34.751633 -43.641586 53.339718 -4.040888 -3.2327101 3.2327101 4.8490653
11.314486 5.657243 9.698131 0.80817753 -1.6163551 6.4654202 1.6163551 3.2327101
3.2327101 4.8490653 -0.80817753 4.8490653 -0.80817753 4.040888 -1.6163551 4.040888
21.012615 -3.2327101 0.80817753 0.80817753 -0.80817753 -3.2327101 -1.6163551 -0.80817753
0.80817753 -1.6163551 12.122663 -11.314486 -4.8490653 -12.122663 -10.506308 -1.6163551
-5.657243 -3.2327101 12.9308405 1.6163551 7.2735977 -39.6007 6.4654202 -14.547195
1.6163551 -14.547195 3.2327101 -21.012615 7.2735977 -9.698131 3.2327101 -22.628971
8.889953 -5.657243 -1.6163551 1.6163551 6.4654202 -2.4245327 6.4654202 2.4245327
7.2735977 25.861681 4.8490653 36.36799 -2.4245327 -2.4245327 -23.43715 4.040888
-15.355373 3.2327101 -4.040888 -1.6163551 -12.122663 -12.9308405 -17.779905 4.8490653
-0.80817753 0.0 -4.040888 -4.040888 11.314486 -1.6163551 -12.122663 -6.4654202

multi_head_self_attention/dense/Tensordot/MatMul i1 [32, 32] scale=0.36218178 zero_point=0
00000000: 0fd4 e4fb b79d 26f0 04df e5ff 0ce8 0e01
00000010: 100d 1601 f7ff f1fd 1904 f3fe f7ff 05fd
00000020: e028 f7f8 fef7 141c 2908 06fa 2214 160d
00000030: 1316 0f0f 1218 1512 011b 1213 0d20 1413
00000040: ec69 0602 1607 1b2b fc21 f9fe 0202 fb12
00000050: fd1b 04fb dcfd f7fa 00fe fafc fa01 ea03
00000060: 44e1 f000 fa32 fcfb d3f1 fff7 08f2 1900
00000070: 1afc 2101 f309 0405 ee13 2511 2907 1205
00000080: f9ad f6e7 1f0f fbb4 09b7 0b24 ed0f fbfb
00000090: ffe3 fe0b f807 0705 e402 0b01 f802 0b04
000000a0: c00a 0700 ecf5 bff8 f003 f0dd 07ef 03e6
000000b0: 04ee 05eb efee e6f0 20ec dcf2 e4e7 ecee
000000c0: ef17 1410 f009 1b0d fd15 f6d1 0f0b 1b09
000000d0: 16fa 1a11 3119 1a12 fc1a 0517 1b0d 0712
000000e0: c711 de34 dcdd c6ec e404 b20a fdcc 11f1
000000f0: 1620 19ef fcf8 00f7 0ef8 ecf8 0cec 13f7
5.432727 -15.935999 -10.14109 -1.8109089 -26.43927 -35.855995 13.762908 -5.7949085
1.4487271 -11.951999 -9.778908 -0.36218178 4.3461814 -8.692363 5.070545 0.36218178
5.7949085 4.708363 7.9679995 0.36218178 -3.259636 -0.36218178 -5.432727 -1.0865453
9.054544 1.4487271 -4.708363 -0.72436357 -3.259636 -0.36218178 1.8109089 -1.0865453
-11.589817 14.487271 -3.259636 -2.8974543 -0.72436357 -3.259636 7.2436357 10.14109
14.849453 2.8974543 2.1730907 -2.1730907 12.31418 7.2436357 7.9679995 4.708363
6.881454 7.9679995 5.432727 5.432727 6.519272 8.692363 7.6058173 6.519272
0.36218178 9.778908 6.519272 6.881454 4.708363 11.589817 7.2436357 6.881454
-7.2436357 38.029087 2.1730907 0.72436357 7.9679995 2.5352726 9.778908 15.573816
-1.4487271 11.951999 -2.5352726 -0.72436357 0.72436357 0.72436357 -1.8109089 6.519272
-1.0865453 9.778908 1.4487271 -1.8109089 -13.038544 -1.0865453 -3.259636 -2.1730907
0.0 -0.72436357 -2.1730907 -1.4487271 -2.1730907 0.36218178 -7.9679995 1.0865453
24.62836 -11.227635 -5.7949085 0.0 -2.1730907 18.109089 -1.4487271 -1.8109089
-16.29818 -5.432727 -0.36218178 -3.259636 2.8974543 -5.070545 9.054544 0.0
9.416726 -1.4487271 11.951999 0.36218178 -4.708363 3.259636 1.4487271 1.8109089
-6.519272 6.881454 13.400726 6.15709 14.849453 2.5352726 6.519272 1.8109089
-2.5352726 -30.061089 -3.6218178 -9.054544 11.227635 5.432727 -1.8109089 -27.525816
3.259636 -26.43927 3.9839997 13.038544 -6.881454 5.432727 -1.8109089 -1.8109089
-0.36218178 -10.503272 -0.72436357 3.9839997 -2.8974543 2.5352726 2.5352726 1.8109089
-10.14109 0.72436357 3.9839997 0.36218178 -2.8974543 0.72436357 3.9839997 1.4487271
-23.179634 3.6218178 2.5352726 0.0 -7.2436357 -3.9839997 -23.541817 -2.8974543
-5.7949085 1.0865453 -5.7949085 -12.676362 2.5352726 -6.15709 1.0865453 -9.416726
1.4487271 -6.519272 1.8109089 -7.6058173 -6.15709 -6.519272 -9.416726 -5.7949085
11.589817 -7.2436357 -13.038544 -5.070545 -10.14109 -9.054544 -7.2436357 -6.519272
-6.15709 8.330181 7.2436357 5.7949085 -5.7949085 3.259636 9.778908 4.708363
-1.0865453 7.6058173 -3.6218178 -17.022543 5.432727 3.9839997 9.778908 3.259636
7.9679995 -2.1730907 9.416726 6.15709 17.746908 9.054544 9.416726 6.519272
-1.4487271 9.416726 1.8109089 8.330181 9.778908 4.708363 2.5352726 6.519272
-20.644361 6.15709 -12.31418 18.833452 -13.038544 -12.676362 -21.006544 -7.2436357
-10.14109 1.4487271 -28.25018 3.6218178 -1.0865453 -18.833452 6.15709 -5.432727
7.9679995 11.589817 9.054544 -6.15709 -1.4487271 -2.8974543 0.0 -3.259636
5.070545 -2.8974543 -7.2436357 -2.8974543 4.3461814 -7.2436357 6.881454 -3.259636

multi_head_self_attention/dense_3/Tensordot/MatMul i1 [32, 32] scale=0.34170207 zero_point=0
00000000: 10ef d70c f713 f9e0 c804 001b 0e19 1426
00000010: 1110 dbca 1f12 ed06 0cec 0afc f716 b9e7
00000020: fa0d ddf0 05f6 24df f300 def7 fe05 cbfd
00000030: cb20 0733 080c fada 25d6 0aee 03fa 161c
00000040: fefd def6 f3d3 1104 1101 24f9 3025 e406
00000050: ce15 11f1 13e9 3037 23f8 02c4 faee 2511
00000060: e1ec 21e9 5b19 02f3 cdbb 13c6 d3ff eceb
00000070: df0e 0114 18e3 1002 f6fc fef1 09fa cf0a
00000080: e4ed ee04 f7b6 fe2b fd0e 0ce6 16fd e11e
00000090: 13e8 fd3e f816 c61b ddf8 1a07 f2ff 0746
000000a0: 3a07 fcf0 faba ec04 0206 1c0b d524 19ff
000000b0: f0f8 d72c e008 fccc 1037 e30a 0ef7 1130
000000c0: f8ef 03ea eed3 f013 e4f0 1a28 01f9 e2d8
000000d0: 1ad4 05e1 dd2b 0c22 ee1e fe35 2104 4402
000000e0: f711 211e 0a57 ea12 0509 161d e708 f309
000000f0: 1308 c90e ffe5 f8f7 0fee 1c6d 0ef8 faf8
5.467233 -5.808935 -14.009785 4.100425 -3.0753186 6.4923396 -2.3919146 -10.934466
-19.135317 1.3668083 0.0 9.225956 4.783829 8.542552 6.8340416 12.984679
5.808935 5.467233 -12.642977 -18.451912 10.592764 6.150637 -6.4923396 2.0502124
4.100425 -6.8340416 3.4170208 -1.3668083 -3.0753186 7.5174456 -24.260847 -8.542552
-2.0502124 4.4421268 -11.959573 -5.467233 1.7085104 -3.4170208 12.301274 -11.276169
-4.4421268 0.0 -11.61787 -3.0753186 -0.68340415 1.7085104 -18.11021 -1.0251062
-18.11021 10.934466 2.3919146 17.426805 2.7336166 4.100425 -2.0502124 -12.984679
12.642977 -14.351487 3.4170208 -6.150637 1.0251062 -2.0502124 7.5174456 9.567658
-0.68340415 -1.0251062 -11.61787 -3.4170208 -4.4421268 -15.376594 5.808935 1.3668083
5.808935 0.34170207 12.301274 -2.3919146 16.4017 12.642977 -9.567658 2.0502124
-17.085104 7.1757436 5.808935 -5.125531 6.4923396 -7.8591475 16.4017 18.793613
11.959573 -2.7336166 0.68340415 -20.502125 -2.0502124 -6.150637 12.642977 5.808935
-10.592764 -6.8340416 11.276169 -7.8591475 31.094889 8.542552 0.68340415 -4.4421268
-17.426805 -23.577442 6.4923396 -19.81872 -15.376594 -0.34170207 -6.8340416 -7.1757436
-11.276169 4.783829 0.34170207 6.8340416 8.20085 -9.90936 5.467233 0.68340415
-3.4170208 -1.3668083 -0.68340415 -5.125531 3.0753186 -2.0502124 -16.743402 3.4170208
-9.567658 -6.4923396 -6.150637 1.3668083 -3.0753186 -25.285954 -0.68340415 14.69319
-1.0251062 4.783829 4.100425 -8.8842535 7.5174456 -1.0251062 -10.592764 10.251062
6.4923396 -8.20085 -1.0251062 21.185528 -2.7336166 7.5174456 -19.81872 9.225956
-11.959573 -2.7336166 8.8842535 2.3919146 -4.783829 -0.34170207 2.3919146 23.919146
19.81872 2.3919146 -1.3668083 -5.467233 -2.0502124 -23.919146 -6.8340416 1.3668083
0.68340415 2.0502124 9.567658 3.7587228 -14.69319 12.301274 8.542552 -0.34170207
-5.467233 -2.7336166 -14.009785 15.034891 -10.934466 2.7336166 -1.3668083 -17.768507
5.467233 18.793613 -9.90936 3.4170208 4.783829 -3.0753186 5.808935 16.4017
-2.7336166 -5.808935 1.0251062 -7.5174456 -6.150637 -15.376594 -5.467233 6.4923396
-9.567658 -5.467233 8.8842535 13.668083 0.34170207 -2.3919146 -10.251062 -13.668083
8.8842535 -15.034891 1.7085104 -10.592764 -11.959573 14.69319 4.100425 11.61787
-6.150637 10.251062 -0.68340415 18.11021 11.276169 1.3668083 23.23574 0.68340415
-3.0753186 5.808935 11.276169 10.251062 3.4170208 29.72808 -7.5174456 6.150637
1.7085104 3.0753186 7.5174456 9.90936 -8.542552 2.7336166 -4.4421268 3.0753186
6.4923396 2.7336166 -18.793613 4.783829 -0.34170207 -9.225956 -2.7336166 -3.0753186
5.125531 -6.150637 9.567658 37.245525 4.783829 -2.7336166 -2.0502124 -2.7336166

sequential/dense_4/Tensordot/MatMul i1 [128, 32] scale=0.4772908 zero_point=0
00000000: ea01 05e9 f8e9 10f2 edfd faef 1cf9 0207
00000010: 0b1a fefa 0a0d ef1a f81c f7fa 07ff 14de
00000020: f8d8 ffec f109 0af4 0dfc f411 030b ec29
00000030: f1d5 1225 f0f4 0df7 0000 e700 d102 160d
00000040: eb08 130b 02e2 07db e805 fb08 06fb fe20
00000050: 0b11 17f3 10fd 0c1e f527 ef03 0803 15c7
00000060: f0fc 0bf5 1e10 02fc e5db 01e5 000e 1c09
00000070: f9fb 1621 f8d3 29f6 13fa 13f8 1b06 e307
00000080: f812 fedf 28f8 fef9 f5d1 e211 172a 130c
00000090: e0fb 0523 ecf0 09ed 04e5 0708 16fa fb0a
000000a0: 02f5 f21b 07eb 0d0f c7df eb14 e800 1a00
000000b0: 0604 fef9 040a fc35 041c 1800 ec08 0dd1
000000c0: 05f4 f11f 142e 0117 ecc3 f608 0bfd 0820
000000d0: 000f fe26 d60a ff18 03da fffd d204 05ee
000000e0: e5da f7f1 2cff f9f5 11f4 22f6 f01c e501
000000f0: ed0d fe29 bc07 28dd f7f1 240a edf5 2204
-10.500398 0.4772908 2.386454 -10.977689 -3.8183265 -10.977689 7.636653 -6.682071
-9.068525 -1.4318724 -2.8637447 -8.113944 13.364142 -3.3410356 0.9545816 3.3410356
5.250199 12.409561 -0.9545816 -2.8637447 4.772908 6.2047806 -8.113944 12.409561
-3.8183265 13.364142 -4.295617 -2.8637447 3.3410356 -0.4772908 9.545816 -16.227888
-3.8183265 -19.091633 -0.4772908 -9.545816 -7.1593623 4.295617 4.772908 -5.7274895
6.2047806 -1.9091632 -5.7274895 8.113944 1.4318724 5.250199 -9.545816 19.568924
-7.1593623 -20.523504 8.591234 17.65976 -7.636653 -5.7274895 6.2047806 -4.295617
0.0 0.0 -11.93227 0.0 -22.432669 0.9545816 10.500398 6.2047806
-10.023107 3.8183265 9.068525 5.250199 0.9545816 -14.318725 3.3410356 -17.65976
-11.454979 2.386454 -2.386454 3.8183265 2.8637447 -2.386454 -0.9545816 15.273306
5.250199 8.113944 10.977689 -6.2047806 7.636653 -1.4318724 5.7274895 14.318725
-5.250199 18.614342 -8.113944 1.4318724 3.8183265 1.4318724 10.023107 -27.205576
-7.636653 -1.9091632 5.250199 -5.250199 14.318725 7.636653 0.9545816 -1.9091632
-12.886852 -17.65976 0.4772908 -12.886852 0.0 6.682071 13.364142 4.295617
-3.3410356 -2.386454 10.500398 15.750597 -3.8183265 -21.478086 19.568924 -4.772908
9.068525 -2.8637447 9.068525 -3.8183265 12.886852 2.8637447 -13.841434 3.3410356
-3.8183265 8.591234 -0.9545816 -15.750597 19.091633 -3.8183265 -0.9545816 -3.3410356
-5.250199 -22.432669 -14.318725 8.113944 10.977689 20.046213 9.068525 5.7274895
-15.273306 -2.386454 2.386454 16.70518 -9.545816 -7.636653 4.295617 -9.068525
1.9091632 -12.886852 3.3410356 3.8183265 10.500398 -2.8637447 -2.386454 4.772908
0.9545816 -5.250199 -6.682071 12.886852 3.3410356 -10.023107 6.2047806 7.1593623
-27.205576 -15.750597 -10.023107 9.545816 -11.454979 0.0 12.409561 0.0
2.8637447 1.9091632 -0.9545816 -3.3410356 1.9091632 4.772908 -1.9091632 25.296413
1.9091632 13.364142 11.454979 0.0 -9.545816 3.8183265 6.2047806 -22.432669
2.386454 -5.7274895 -7.1593623 14.796015 9.545816 21.955378 0.4772908 10.977689
-9.545816 -29.114738 -4.772908 3.8183265 5.250199 -1.4318724 3.8183265 15.273306
0.0 7.1593623 -0.9545816 18.13705 -20.046213 4.772908 -0.4772908 11.454979
1.4318724 -18.13705 -0.4772908 -1.4318724 -21.955378 1.9091632 2.386454 -8.591234
-12.886852 -18.13705 -4.295617 -7.1593623 21.000795 -0.4772908 -3.3410356 -5.250199
8.113944 -5.7274895 16.227888 -4.772908 -7.636653 13.364142 -12.886852 0.4772908
-9.068525 6.2047806 -0.9545816 19.568924 -32.455776 3.3410356 19.091633 -16.70518
-4.295617 -7.1593623 17.182468 4.772908 -9.068525 -5.250199 16.227888 1.9091632

sequential/dense_5/Tensordot/MatMul i1 [32, 128] scale=0.45192677 zero_point=0
00000000: ed0a 0e15 0105 f405 13f7 b6fd befd ddfc
00000010: 110b e81b f3de fa1f e00a f80e 15ff 09ff
00000020: 0d04 d212 f6c8 fcf7 07fd c506 0551 ec1e
00000030: e0f0 d40a 0107 f9fa f6f4 f0e9 0618 fbfd
00000040: 0a13 f3fd 0622 430e 0dcb f0e2 e6e7 1514
00000050: e80e 0dea 2007 190a fff6 f7ff f2e1 ed04
00000060: f800 03fc 0ff5 26f6 fe16 f100 13f5 2108
00000070: 1111 04e9 030f ee04 101a fbf2 08f5 fe0d
00000080: 07e5 07de 06e7 0a02 20fb 1f0a ea10 2af5
00000090: dafc 1af0 f93d 0116 13f5 14e3 04d0 ec00
000000a0: ecec f005 f505 17f5 1b38 fe1b f2d5 1be4
000000b0: eb08 1805 23f1 120f 100d 2a0f 1115 05f3
000000c0: e10d 26ef e3fb ee03 f602 f4eb e2f5 00f4
000000d0: 0bf4 e8eb d813 e8cf ccf3 ffec 1ced 0823
000000e0: e412 1302 1a2c 2810 30de 10f1 0bf1 000a
000000f0: f604 0afd f2f9 1fcb f5e2 f61a 0a0c 1c11
-8.586609 4.5192676 6.326975 9.490462 0.45192677 2.2596338 -5.4231215 2.2596338
8.586609 -4.067341 -33.44258 -1.3557804 -29.827168 -1.3557804 -15.817437 -1.8077071
7.682755 4.9711943 -10.846243 12.202023 -5.875048 -15.36551 -2.7115607 14.009729
-14.461657 4.5192676 -3.6154141 6.326975 9.490462 -0.45192677 4.067341 -0.45192677
5.875048 1.8077071 -20.788631 8.134682 -4.5192676 -25.3079 -1.8077071 -4.067341
3.1634874 -1.3557804 -26.66368 2.7115607 2.2596338 36.606068 -9.038535 13.557803
-14.461657 -7.2308283 -19.884777 4.5192676 0.45192677 3.1634874 -3.1634874 -2.7115607
-4.5192676 -5.4231215 -7.2308283 -10.394316 2.7115607 10.846243 -2.2596338 -1.3557804
4.5192676 8.586609 -5.875048 -1.3557804 2.7115607 15.36551 30.279093 6.326975
5.875048 -23.952118 -7.2308283 -13.557803 -11.750096 -11.298169 9.490462 9.038535
-10.846243 6.326975 5.875048 -9.942389 14.461657 3.1634874 11.298169 4.5192676
-0.45192677 -4.5192676 -4.067341 -0.45192677 -6.326975 -14.009729 -8.586609 1.8077071
-3.6154141 0.0 1.3557804 -1.8077071 6.7789016 -4.9711943 17.173218 -4.5192676
-0.90385354 9.942389 -6.7789016 0.0 8.586609 -4.9711943 14.913584 3.6154141
7.682755 7.682755 1.8077071 -10.394316 1.3557804 6.7789016 -8.134682 1.8077071
7.2308283 11.750096 -2.2596338 -6.326975 3.6154141 -4.9711943 -0.90385354 5.875048
3.1634874 -12.202023 3.1634874 -15.36551 2.7115607 -11.298169 4.5192676 0.90385354
14.461657 -2.2596338 14.009729 4.5192676 -9.942389 7.2308283 18.980925 -4.9711943
-17.173218 -1.8077071 11.750096 -7.2308283 -3.1634874 27.567533 0.45192677 9.942389
8.586609 -4.9711943 9.038535 -13.105876 1.8077071 -21.692486 -9.038535 0.0
-9.038535 -9.038535 -7.2308283 2.2596338 -4.9711943 2.2596338 10.394316 -4.9711943
12.202023 25.3079 -0.90385354 12.202023 -6.326975 -19.432852 12.202023 -12.65395
-9.490462 3.6154141 10.846243 2.2596338 15.817437 -6.7789016 8.134682 6.7789016
7.2308283 5.875048 18.980925 6.7789016 7.682755 9.490462 2.2596338 -5.875048
-14.009729 5.875048 17.173218 -7.682755 -13.105876 -2.2596338 -8.134682 1.3557804
-4.5192676 0.90385354 -5.4231215 -9.490462 -13.557803 -4.9711943 0.0 -5.4231215
4.9711943 -5.4231215 -10.846243 -9.490462 -18.07707 8.586609 -10.846243 -22.144411
-23.500193 -5.875048 -0.45192677 -9.038535 12.65395 -8.586609 3.6154141 15.817437
-12.65395 8.134682 8.586609 0.90385354 11.750096 19.884777 18.07707 7.2308283
21.692486 -15.36551 7.2308283 -6.7789016 4.9711943 -6.7789016 0.0 4.5192676
-4.5192676 1.8077071 4.5192676 -1.3557804 -6.326975 -3.1634874 14.009729 -23.952118
-4.9711943 -13.557803 -4.5192676 11.750096 4.5192676 5.4231215 12.65395 7.682755

MatMul f4 [14, 32]
00000000: 1784 dabe 1784 dabe b28d 343d fc80 4f3f
00000010: adca 8bbe 1784 dabe e292 293f 053b 27be
00000020: 1784 dabe 359f 743f 359f 743f d6b7 85bc
00000030: 81ad 883e 1784 dabe b28d 343d 053b 27be
00000040: 5668 593f 359f 743f 053b 27be b28d 343d
00000050: 359f 743f b28d 343d 359f 743f 0299 173e
00000060: adca 8bbe 1784 dabe e292 293f 1784 dabe
00000070: 1784 dabe 81ad 883e adca 8bbe 1784 dabe
00000080: 0299 173e 1784 dabe d6b7 85bc 1784 dabe
00000090: 053b 27be 1784 dabe 1784 dabe 053b 27be
000000a0: 1784 dabe 1784 dabe 1784 dabe d6b7 85bc
000000b0: 81ad 883e 2eb7 e73e 053b 27be d6b7 85bc
000000c0: 359f 743f adca 8bbe d6b7 85bc 0299 173e
000000d0: 1784 dabe 0299 173e fc80 4f3f 81ad 883e
000000e0: 1784 dabe 81ad 883e 359f 743f 359f 743f
000000f0: 1784 dabe 0299 173e 053b 27be 359f 743f
00000100: 359f 743f b28d 343d b28d 343d 359f 743f
00000110: adca 8bbe 1784 dabe 359f 743f adca 8bbe
00000120: 359f 743f 1784 dabe 359f 743f b28d 343d
00000130: 81ad 883e 5668 593f 053b 27be b28d 343d
00000140: 1784 dabe 053b 27be 053b 27be b28d 343d
00000150: 1784 dabe 0299 173e 359f 743f 81ad 883e
00000160: adca 8bbe e292 293f 1784 dabe 1784 dabe
00000170: adca 8bbe 31f6 bb3e adca 8bbe 359f 743f
00000180: 1784 dabe 7c02 093f d6b7 85bc 5668 593f
00000190: d6b7 85bc 359f 743f 1784 dabe 053b 27be
000001a0: d6b7 85bc d6b7 85bc 1784 dabe d6b7 85bc
000001b0: 81ad 883e 31f6 bb3e d6b7 85bc d6b7 85bc
000001c0: 359f 743f 1784 dabe 053b 27be 81ad 883e
000001d0: e292 293f b28d 343d 1784 dabe 0299 173e
000001e0: adca 8bbe adca 8bbe fc80 4f3f 1784 dabe
000001f0: 1784 dabe 0c0d 9c3e 053b 27be 359f 743f
00000200: b28d 343d 359f 743f d6b7 85bc 1784 dabe
00000210: 053b 27be 359f 743f 359f 743f d6b7 85bc
00000220: 1784 dabe 1784 dabe 31f6 bb3e d6b7 85bc
00000230: 81ad 883e 053b 27be b28d 343d d6b7 85bc
00000240: 359f 743f 359f 743f 053b 27be 0299 173e
00000250: 2eb7 e73e 0299 173e 1784 dabe b28d 343d
00000260: 1784 dabe b28d 343d 5668 593f fc80 4f3f
00000270: 1784 dabe b28d 343d 053b 27be 31f6 bb3e
00000280: 359f 743f 1784 dabe 0299 173e 359f 743f
00000290: 053b 27be 053b 27be 1784 dabe 053b 27be
000002a0: 1784 dabe 359f 743f 359f 743f d6b7 85bc
000002b0: 31f6 bb3e 6024 693f b28d 343d b28d 343d
000002c0: 1784 dabe 359f 743f 053b 27be b28d 343d
000002d0: 1784 dabe 0299 173e 1784 dabe 81ad 883e
000002e0: 1784 dabe 359f 743f 359f 743f 053b 27be
000002f0: 1784 dabe d6b7 85bc adca 8bbe 1784 dabe
00000300: 7c02 093f 359f 743f d6b7 85bc 6024 693f
00000310: 053b 27be 359f 743f d6b7 85bc 053b 27be
00000320: 1784 dabe e292 293f 053b 27be d6b7 85bc
00000330: 81ad 883e 053b 27be d6b7 85bc d6b7 85bc
00000340: 359f 743f 31f6 bb3e 053b 27be 0299 173e
00000350: d6b7 85bc 81ad 883e 5668 593f 0299 173e
00000360: 1784 dabe b28d 343d 7c02 093f 359f 743f
00000370: adca 8bbe 81ad 883e 053b 27be 053b 27be
00000380: 0299 173e 359f 743f b28d 343d 359f 743f
00000390: 053b 27be 1784 dabe 1784 dabe 0299 173e
000003a0: 359f 743f adca 8bbe 359f 743f d6b7 85bc
000003b0: 81ad 883e 359f 743f 0299 173e b28d 343d
000003c0: 359f 743f 1784 dabe 053b 27be 0299 173e
000003d0: 359f 743f 0299 173e 0299 173e b28d 343d
000003e0: adca 8bbe b28d 343d 359f 743f 359f 743f
000003f0: adca 8bbe 81ad 883e adca 8bbe 1784 dabe
-0.42678902 -0.42678902 0.044080444 0.8105619 -0.27303067 -0.42678902 0.6623975 -0.16331108
-0.42678902 0.9555543 0.9555543 -0.016323011 0.26694873 -0.42678902 0.044080444 -0.16331108
0.8492483 0.9555543 -0.16331108 0.044080444 0.9555543 0.044080444 0.9555543 0.14804462
-0.27303067 -0.42678902 0.6623975 -0.42678902 -0.42678902 0.26694873 -0.27303067 -0.42678902
0.14804462 -0.42678902 -0.016323011 -0.42678902 -0.16331108 -0.42678902 -0.42678902 -0.16331108
-0.42678902 -0.42678902 -0.42678902 -0.016323011 0.26694873 0.45256943 -0.16331108 -0.016323011
0.9555543 -0.27303067 -0.016323011 0.14804462 -0.42678902 0.14804462 0.8105619 0.26694873
-0.42678902 0.26694873 0.9555543 0.9555543 -0.42678902 0.14804462 -0.16331108 0.9555543
0.9555543 0.044080444 0.044080444 0.9555543 -0.27303067 -0.42678902 0.9555543 -0.27303067
0.9555543 -0.42678902 0.9555543 0.044080444 0.26694873 0.8492483 -0.16331108 0.044080444
-0.42678902 -0.16331108 -0.16331108 0.044080444 -0.42678902 0.14804462 0.9555543 0.26694873
-0.27303067 0.6623975 -0.42678902 -0.42678902 -0.27303067 0.36711267 -0.27303067 0.9555543
-0.42678902 0.53519416 -0.016323011 0.8492483 -0.016323011 0.9555543 -0.42678902 -0.16331108
-0.016323011 -0.016323011 -0.42678902 -0.016323011 0.26694873 0.36711267 -0.016323011 -0.016323011
0.9555543 -0.42678902 -0.16331108 0.26694873 0.6623975 0.044080444 -0.42678902 0.14804462
-0.27303067 -0.27303067 0.8105619 -0.42678902 -0.42678902 0.30478704 -0.16331108 0.9555543
0.044080444 0.9555543 -0.016323011 -0.42678902 -0.16331108 0.9555543 0.9555543 -0.016323011
-0.42678902 -0.42678902 0.36711267 -0.016323011 0.26694873 -0.16331108 0.044080444 -0.016323011
0.9555543 0.9555543 -0.16331108 0.14804462 0.45256943 0.14804462 -0.42678902 0.044080444
-0.42678902 0.044080444 0.8492483 0.8105619 -0.42678902 0.044080444 -0.16331108 0.36711267
0.9555543 -0.42678902 0.14804462 0.9555543 -0.16331108 -0.16331108 -0.42678902 -0.16331108
-0.42678902 0.9555543 0.9555543 -0.016323011 0.36711267 0.9107113 0.044080444 0.044080444
-0.42678902 0.9555543 -0.16331108 0.044080444 -0.42678902 0.14804462 -0.42678902 0.26694873
-0.42678902 0.9555543 0.9555543 -0.16331108 -0.42678902 -0.016323011 -0.27303067 -0.42678902
0.53519416 0.9555543 -0.016323011 0.9107113 -0.16331108 0.9555543 -0.016323011 -0.16331108
-0.42678902 0.6623975 -0.16331108 -0.016323011 0.26694873 -0.16331108 -0.016323011 -0.016323011
0.9555543 0.36711267 -0.16331108 0.14804462 -0.016323011 0.26694873 0.8492483 0.14804462
-0.42678902 0.044080444 0.53519416 0.9555543 -0.27303067 0.26694873 -0.16331108 -0.16331108
0.14804462 0.9555543 0.044080444 0.9555543 -0.16331108 -0.42678902 -0.42678902 0.14804462
0.9555543 -0.27303067 0.9555543 -0.016323011 0.26694873 0.9555543 0.14804462 0.044080444
0.9555543 -0.42678902 -0.16331108 0.14804462 0.9555543 0.14804462 0.14804462 0.044080444
-0.27303067 0.044080444 0.9555543 0.9555543 -0.27303067 0.26694873 -0.27303067 -0.42678902

conv1d/Conv1D f4 [32, 1, 1, 2]
00000000: f413 8cc0 37a9 c33f 5913 65c0 7d62 16c0
00000010: 363f 7b3c 33bc 96c0 e5d2 23c0 ecf9 953f
00000020: 209b c2be 2590 6c3f c588 1bbc 23de 19c0
00000030: 0a02 3b3f 3518 e1c0 32a4 44c0 4c0e 29c0
00000040: 39d8 d2bd ac75 f4bf af48 24c0 49dc d6be
00000050: 7f0c d8be 0a3b f7bf 2970 62bf c4e9 d5bd
00000060: 7a18 93c0 560a c540 ce8f c33f 4557 86c0
00000070: 0333 8dbf 34aa 01c0 5ae7 1040 ae66 6840
00000080: b08a 5c3d 402a 46c0 0fad 15c1 554e 5441
00000090: 9dd6 11c0 38c5 73c0 1fb8 bc40 0676 8cc0
000000a0: 6664 11c1 7c48 37c1 47a1 3bb9 3a33 f339
000000b0: b320 9640 d04f 24c1 1044 5240 2399 ebbf
000000c0: 8f69 e6bf ad00 b440 357d bdc0 b045 0f40
000000d0: 2993 2541 3456 4ac1 3a55 13c0 7db4 a9bf
000000e0: 0c95 6f40 723c b5c0 71fe e13f 20a3 69c0
000000f0: 251d d9c0 fb6f 1a40 39fc 4fbf ffc5 863d
-4.3774357 1.5286015 -3.579306 -2.3497612 0.015334895 -4.7104735 -2.559747 1.1716895
-0.38008976 0.9240745 -0.009493058 -2.4041831 0.73049986 -7.034205 -3.0725217 -2.6414976
-0.102951474 -1.9098411 -2.5669363 -0.4196494 -0.42197034 -1.9314892 -0.8845239 -0.10444978
-4.596738 6.1575117 1.5278261 -4.198153 -1.1031193 -2.0260134 2.2641206 3.631267
0.0538432 -3.0963287 -9.354751 13.269124 -2.278724 -3.8089123 5.8974757 -4.389407
-9.087011 -11.455196 -0.0001789379 0.00046386739 4.6914916 -10.269485 3.2854042 -1.8406109
-1.8000964 5.6250825 -5.921534 2.2386284 10.348428 -12.646046 -2.3020768 -1.3258206
3.743472 -5.6636286 1.7655774 -3.6505814 -6.7848077 2.4130847 -0.81244236 0.065807335
