astronet/tinho/models/plasticc/model-GR-noZ-28341-1654269564-0.5.1.dev73+g70f85f8-LL0.836.tflite (tflite, 97072 bytes, 21 tensors)

Const f4 [1, 100, 32]
000000 00 00 00 00 00 00 80 3f 00 00 00 00 00 00 80 3f
       0.0 1.0 0.0 1.0
000010 00 00 00 00 00 00 80 3f 00 00 00 00 00 00 80 3f
       0.0 1.0 0.0 1.0
000020 00 00 00 00 00 00 80 3f 00 00 00 00 00 00 80 3f
       0.0 1.0 0.0 1.0
000030 00 00 00 00 00 00 80 3f 00 00 00 00 00 00 80 3f
       0.0 1.0 0.0 1.0
000040 00 00 00 00 00 00 80 3f 00 00 00 00 00 00 80 3f
       0.0 1.0 0.0 1.0
000050 00 00 00 00 00 00 80 3f 00 00 00 00 00 00 80 3f
       0.0 1.0 0.0 1.0
000060 00 00 00 00 00 00 80 3f 00 00 00 00 00 00 80 3f
       0.0 1.0 0.0 1.0
000070 00 00 00 00 00 00 80 3f 00 00 00 00 00 00 80 3f
       0.0 1.0 0.0 1.0
000080 a4 6a 57 3f 40 51 0a 3f ba 7d 08 3f 0e 94 58 3f
       0.84147096 0.5403023 0.53316844 0.84600914
000090 3e 39 9f 3e 6a 4e 73 3f 3a 23 35 3e 83 f6 7b 3f
       0.3109836 0.95041525 0.17689219 0.9842302
0000a0 76 75 cc 3d 98 b8 7e 3f b0 36 66 3d 68 98 7f 3f
       0.099833414 0.9950042 0.056204498 0.9984193
0000b0 5c 81 01 3d 3c df 7f 3f 42 ab 91 3c a3 f5 7f 3f
       0.031617507 0.99950004 0.017781857 0.99984187
0000c0 57 d6 23 3c b9 fc 7f 3f 5c 44 b8 3b f7 fe 7f 3f
       0.009999833 0.99995 0.0056233834 0.9999842
0000d0 20 3e 4f 3b ac ff 7f 3f 20 15 e9 3a e5 ff 7f 3f
       0.0031622723 0.999995 0.0017782785 0.9999984
0000e0 6d 12 83 3a f8 ff 7f 3f 16 6a 13 3a fd ff 7f 3f
       0.0009999998 0.9999995 0.0005623413 0.9999998
0000f0 5f cb a5 39 ff ff 7f 3f 53 77 3a 39 00 00 80 3f
       0.00031622776 0.99999994 0.00017782794 1.0
000100 b7 c7 68 3f 33 11 d5 be 0a f2 66 3f b2 e8 dc 3e
       0.9092974 -0.41614684 0.9021307 0.43146282
000110 1b 54 17 3f ec 7b 4e 3f f6 47 b2 3e a5 fa 6f 3f
       0.5911271 0.8065784 0.34820527 0.9374183
000120 f9 6f 4b 3e a5 e5 7a 3f 88 d9 e5 3d f3 61 7e 3f
       0.19866933 0.9800666 0.112231314 0.9936821
000130 c8 70 81 3d f9 7c 7f 3f 5c a5 11 3d 8e d6 7f 3f
       0.063203394 0.9980007 0.03555809 0.9993676
000140 3e d4 a3 3c e5 f2 7f 3f 9d 43 38 3c db fb 7f 3f
       0.019998666 0.9998 0.011246589 0.99993676
000150 dd 3d cf 3b b0 fe 7f 3f 08 15 69 3b 96 ff 7f 3f
       0.0063245133 0.99998 0.0035565514 0.9999937
000160 69 12 03 3b de ff 7f 3f 14 6a 93 3a f5 ff 7f 3f
       0.0019999987 0.999998 0.0011246824 0.99999934
000170 5f cb 25 3a fd ff 7f 3f 53 77 ba 39 ff ff 7f 3f
       0.0006324555 0.9999998 0.00035565588 0.99999994
000180 c3 81 10 3e 26 70 7d bf d7 45 7e 3f a8 7f ed bd
       0.14112 -0.9899925 0.9932532 -0.11596614
000190 c2 09 50 3f 57 2f 15 3f 6d 2f 02 3f 29 6d 5c 3f
       0.8126489 0.5827536 0.50853616 0.86104065
0001a0 6d 4e 97 3e ef 90 74 3f d8 ee 2b 3e 9e 5d 7c 3f
       0.29552022 0.9553365 0.1679033 0.9858035
0001b0 c1 ff c1 3d 4f d9 7e 3f 4d 69 5a 3d c3 a2 7f 3f
       0.09472609 0.99550337 0.05332308 0.9985773
0001c0 20 b9 f5 3c 83 e2 7f 3f c7 31 8a 3c ad f6 7f 3f
       0.029995501 0.99955004 0.016869439 0.9998577
0001d0 11 6e 1b 3c 0d fd 7f 3f a8 cf ae 3b 11 ff 7f 3f
       0.009486691 0.999955 0.005334813 0.99998575
0001e0 93 9b 44 3b b5 ff 7f 3f 1b 1f dd 3a e8 ff 7f 3f
       0.0029999956 0.9999955 0.0016870232 0.99999857
0001f0 0d b1 78 3a f8 ff 7f 3f 7e d9 0b 3a fe ff 7f 3f
       0.0009486832 0.9999995 0.0005334838 0.9999999
000200 cf bd 41 bf 30 55 27 bf ed 49 47 3f 9d af 20 bf
       -0.7568025 -0.6536436 0.77847177 -0.62767965
000210 de 1d 74 3f b1 2e 9a 3e bc 1f 27 3f ed eb 41 3f
       0.95358074 0.30113748 0.652828 0.7575062
000220 d7 61 c7 3e a7 ca 6b 3f c6 65 64 3e 09 8d 79 3f
       0.38941833 0.921061 0.22304448 0.9748083
000230 88 2e 01 3e 69 f4 7d 3f c8 8d 91 3d 47 5a 7f 3f
       0.12615407 0.99201065 0.07107121 0.9974713
000240 db cb 23 3d 94 cb 7f 3f a2 40 b8 3c 6c ef 7f 3f
       0.039989334 0.9992001 0.022491757 0.99974704
000250 cd 3c 4f 3c c2 fa 7f 3f a7 14 e9 3b 58 fe 7f 3f
       0.012648773 0.99992 0.0071130577 0.9999747
000260 58 12 83 3b 7a ff 7f 3f 0e 6a 13 3b d6 ff 7f 3f
       0.0039999895 0.999992 0.0022493633 0.9999975
000270 5c cb a5 3a f3 ff 7f 3f 52 77 3a 3a fc ff 7f 3f
       0.0012649107 0.9999992 0.0007113117 0.99999976
000280 10 7c 75 bf 2c 3c 91 3e d6 da a5 3e 40 32 72 bf
       -0.9589243 0.2836622 0.3239352 -0.94607925
000290 7f fc 7f 3f d4 72 29 bc ab ca 46 3f f1 4c 21 3f
       0.99994653 -0.010342319 0.77652997 0.6300803
0002a0 44 77 f5 3e 40 a9 60 3f ee 11 8e 3e 7c f2 75 3f
       0.47942555 0.87758255 0.27748054 0.96073127
0002b0 1e 3c 21 3e 81 ce 7c 3f 21 db b5 3d 1e fd 7e 3f
       0.15745589 0.987526 0.08879686 0.99604976
0002c0 f5 b6 4c 3d 19 ae 7f 3f fe 4d e6 3c 19 e6 7f 3f
       0.04997917 0.99875027 0.028113361 0.99960476
0002d0 81 85 81 3c cf f7 7f 3f bb ac 11 3c 69 fd 7f 3f
       0.01581073 0.999875 0.00889128 0.9999605
0002e0 de d6 a3 3b 2e ff 7f 3f 8c 44 38 3b be ff 7f 3f
       0.0049999794 0.9999875 0.002811703 0.99999607
0002f0 31 3e cf 3a eb ff 7f 3f 26 15 69 3a f9 ff 7f 3f
       0.0015811381 0.99999875 0.0008891396 0.9999996
000300 8c 0f 8f be b8 cd 75 3f 74 e5 6b be 53 1d 79 bf
       -0.2794155 0.96017027 -0.23036748 -0.9731037
000310 4d 78 72 3f 6f 3f a4 be 89 30 60 3f 34 2f f7 3e
       0.94714814 -0.32079646 0.8757406 0.482782
000320 69 8c 10 3f 32 49 53 3f fd 7d a9 3e e2 90 71 3f
       0.5646425 0.8253356 0.33103934 0.943617
000330 6f 20 41 3e e3 67 7b 3f c1 19 da 3d 51 8b 7e 3f
       0.18860029 0.98205394 0.106494434 0.9943133
000340 d1 9c 75 3d 12 8a 7f 3f bf 2c 0a 3d b3 da 7f 3f
       0.059964005 0.99820054 0.03373408 0.99943084
000350 46 6c 9b 3c 34 f4 7f 3f 04 cf 2e 3c 45 fc 7f 3f
       0.018972527 0.99982 0.010669474 0.9999431
000360 59 9b c4 3b d2 fe 7f 3f 06 1f 5d 3b a1 ff 7f 3f
       0.005999964 0.999982 0.0033740415 0.99999434
000370 05 b1 f8 3a e2 ff 7f 3f 7d d9 8b 3a f6 ff 7f 3f
       0.0018973654 0.9999982 0.0010669675 0.9999994
000380 46 30 28 3f bd ff 40 3f 6e b6 36 bf 60 4f 33 bf
       0.6569866 0.75390226 -0.71372116 -0.7004299
000390 6f e8 4c 3f bb 74 19 bf 44 84 72 3f b9 f8 a3 3e
       0.80042166 -0.5994374 0.9473307 0.32025698
0003a0 73 eb 24 3f b3 cc 43 3f df 60 c4 3e c5 6b 6c 3f
       0.64421767 0.7648422 0.38355157 0.92351943
0003b0 50 d3 60 3e ea c0 79 3f ba 46 fe 3d e9 04 7e 3f
       0.2195561 0.9755999 0.12415834 0.9922624
0003c0 32 3e 8f 3d 81 5f 7f 3f 60 31 21 3d 3b cd 7f 3f
       0.06994285 0.997551 0.03935373 0.9992253
0003d0 a6 52 b5 3c f2 ef 7f 3f 2a f1 4b 3c ec fa 7f 3f
       0.022134136 0.999755 0.012447635 0.9999225
0003e0 c7 5f e5 3b 65 fe 7f 3f be fc 80 3b 7e ff 7f 3f
       0.006999943 0.9999755 0.003936379 0.99999225
0003f0 ec 11 11 3b d7 ff 7f 3f 66 28 a3 3a f3 ff 7f 3f
       0.0022135926 0.99999756 0.0012447953 0.9999992

model/transformer_block/sequential/dense_5/BiasAdd/ReadVariableOp f4 [32]
000000 18 ae c6 be 56 f0 da 40 51 1a e8 c0 aa bd 3f bf
       -0.38804698 6.841838 -7.2532125 -0.7489878
000010 96 5e 6c c0 c0 16 7f c0 1f 4d 63 3f 68 6c c0 3f
       -3.693273 -3.9857635 0.8878955 1.5033083
000020 e7 87 74 bf 07 98 28 40 b1 84 16 40 09 73 d4 3e
       -0.9551987 2.634279 2.3518488 0.41494015
000030 a9 41 8e 3f 48 61 53 c0 ac 17 36 c0 c0 d9 76 3f
       1.1113788 -3.3028126 -2.8451948 0.9642601
000040 5e cd 61 3f aa ce 56 40 6d 1f 84 3f df 02 10 41
       0.8820399 3.3563638 1.032209 9.000701
000050 f1 89 d3 3f 0e 53 0f 40 97 bc cf bf 89 26 70 be
       1.6526471 2.2394443 -1.6229428 -0.234522
000060 f6 f4 57 c0 da c1 3a 40 32 41 b5 40 49 49 8e 40
       -3.3743262 2.9180818 5.6642084 4.446446
000070 11 15 f3 bf 1e b0 f7 40 85 5a a8 c0 9c 0c 08 3f
       -1.8990804 7.7402487 -5.2610497 0.5314424

model/transformer_block/sequential/dense_4/BiasAdd/ReadVariableOp f4 [128]
000000 9b c1 87 c0 f5 b2 1e c0 c2 b8 29 c0 7a c8 cf bf
       -4.2423835 -2.4796727 -2.6519017 -1.6233056
000010 5e d0 f3 bf 2e 01 37 c0 c9 3a 22 c0 5b 20 26 bf
       -1.9047964 -2.859447 -2.534838 -0.6489312
000020 ad 7e 05 c0 86 3f 24 c0 59 76 51 c0 18 41 57 c0
       -2.0858567 -2.5663772 -3.2728484 -3.363348
000030 9d db 2c c0 6f 12 98 c0 b5 18 e5 bf 12 3e 9b c0
       -2.7009041 -4.75225 -1.7898165 -4.851327
000040 22 4c 00 c0 89 04 32 c0 1a 39 1c c0 e9 5b c1 bf
       -2.0046468 -2.7815268 -2.4409852 -1.5106174
000050 ea c5 a5 bf aa 8e 6f c0 d9 bf 37 c0 e9 c8 19 c0
       -1.2951024 -3.7430825 -2.8710845 -2.4028876
000060 7e 34 fa bf d7 6d 10 c0 5a 17 93 bf 3a f8 17 c0
       -1.9547269 -2.256704 -1.1491501 -2.3745255
000070 6d c3 7d bf dc 2f fe bf c9 ff 04 c0 9d 4d 44 c0
       -0.9912632 -1.9858356 -2.078112 -3.0672371
000080 67 7a 4b c0 f7 4f bc bf 98 b8 4e c0 ae 81 75 bf
       -3.1793458 -1.4711903 -3.2300167 -0.95901
000090 99 28 01 c0 32 b6 2d c0 f8 49 e3 be 02 02 57 c0
       -2.018103 -2.7142453 -0.4439237 -3.3594975
0000a0 27 b7 af bf 4d 97 54 c0 a1 07 69 c0 14 68 65 c0
       -1.3727769 -3.3217347 -3.6410906 -3.5844774
0000b0 25 ce 06 c0 4a 88 5b c0 b0 cc e7 bf aa 73 4d c0
       -2.106332 -3.4301934 -1.8109341 -3.2101846
0000c0 1f e1 69 c0 eb 0b 34 c0 fa 25 f6 bf 35 c8 e4 bf
       -3.6543653 -2.8132274 -1.923034 -1.7873598
0000d0 82 b1 92 c0 63 05 f5 bf 4f 79 4e c0 c7 1a d4 bf
       -4.5841684 -1.9142269 -3.226154 -1.6570672
0000e0 ea 31 ca bf 29 72 b9 bf 68 c1 d8 bf 38 34 47 c0
       -1.5796483 -1.4487964 -1.6934023 -3.1125622
0000f0 57 c8 2e c0 20 a1 af bf 0c f8 2d c0 1b d4 d8 bf
       -2.7309778 -1.3721046 -2.7182646 -1.693973
000100 e9 ff 40 c0 df eb 22 c0 56 59 11 c0 39 0c 14 c0
       -3.0156195 -2.5456464 -2.2710776 -2.313246
000110 af 63 0d c0 04 7a a9 bf 7f 21 62 bf e2 6e cf bf
       -2.2092092 -1.3240361 -0.8833236 -1.6205714
000120 51 21 88 c0 41 4d 39 c0 4b f6 37 c0 3e 06 ab 3e
       -4.254067 -2.8953402 -2.8744075 0.334032
000130 c1 2c 62 c0 3c 45 27 c0 70 55 19 c0 8f a6 97 bf
       -3.5339816 -2.6136007 -2.3958397 -1.1847705
000140 3f e4 de bf 72 79 3e c0 ab f3 1a c0 42 aa 8c bf
       -1.7413405 -2.9761624 -2.4211223 -1.0989459
000150 06 ec 2c c0 c7 54 46 c0 06 d8 4a c0 e1 ec c6 bf
       -2.7019057 -3.0989244 -3.169435 -1.554104
000160 87 01 26 c0 b6 e2 4b c0 9a b5 14 c0 fa 4a 75 c0
       -2.5938432 -3.1857123 -2.323584 -3.8327012
000170 ca 2c 19 c0 cc 5e d6 bf 56 80 39 c0 d1 a1 bc bf
       -2.3933587 -1.674768 -2.898458 -1.4736882
000180 d3 a6 32 c0 c5 53 ce bf c7 1d 42 c0 96 7a 4c bf
       -2.7914321 -1.6119314 -3.0330675 -0.7987455
000190 b8 5c 22 c0 c3 7a 86 c0 f3 22 f3 bf 92 43 24 c0
       -2.536909 -4.2024856 -1.8995041 -2.5666242
0001a0 36 2c 83 c0 8d 8f 2f bf 65 af e9 bf 79 c6 51 c0
       -4.099147 -0.68578416 -1.8256651 -3.2777388
0001b0 ee 8e cf bf b8 82 a6 bf eb 8a 06 c0 fe 64 1a c0
       -1.6215494 -1.3008642 -2.1022289 -2.412414
0001c0 fc ba 9d bf 42 76 3b c0 12 39 0a c0 74 96 32 c0
       -1.2322688 -2.929093 -2.1597333 -2.790433
0001d0 d3 df e7 bf cb ff ff bf 0b ca 1f c0 6d ae 14 c0
       -1.8115181 -1.9999937 -2.4967067 -2.323146
0001e0 16 36 08 c0 91 0d 91 bf 3d 93 5e c0 49 cf 94 bf
       -2.1283011 -1.1332265 -3.4777367 -1.1625758
0001f0 e6 fa 83 be 29 21 ec bf 47 87 0a c0 a2 ac 27 c0
       -0.25777358 -1.844762 -2.1645067 -2.6199117

model/transformer_block/multi_head_self_attention/dense/BiasAdd/ReadVariableOp f4 [32]
000000 1f d1 1e 3f f2 f2 b6 40 83 88 b8 bf d5 7d f6 bf
       0.62037843 5.7171564 -1.441666 -1.9257151
000010 8d 27 ac bf 26 6d 40 3f 74 ab 82 40 c2 89 98 bf
       -1.344957 0.7516655 4.0834293 -1.191704
000020 8e 6a 00 3f f9 4e 67 3f 41 d2 cd 3f 9b 95 49 40
       0.5016259 0.9035488 1.6079789 3.1497562
000030 d8 2c 65 c0 92 2a 55 bf 5b 21 0d 3f 2e 48 a2 be
       -3.580862 -0.8326808 0.5512902 -0.31695694
000040 db 58 28 3f 0f 1a 91 bf 24 6d 7e bf 62 77 5d c0
       0.6576058 -1.1336077 -0.99385285 -3.4604115
000050 89 11 48 3c 2e 26 65 c0 a1 0a 36 3f 4c e3 f9 3f
       0.012211212 -3.5804553 0.7110997 1.952249
000060 da e9 e1 be 7a 8f fc bf 4b 1a 37 40 7c 0c 9a be
       -0.44123727 -1.9731286 2.8609798 -0.3008765
000070 28 83 cd bf 0f fd 3a c0 31 a7 48 3e a1 91 b0 bf
       -1.6055651 -2.9216955 0.19595028 -1.3794442

model/transformer_block/multi_head_self_attention/dense_3/BiasAdd/ReadVariableOp f4 [32]
000000 3c f1 a3 bc c3 28 09 bf 42 3d 0b c0 17 f8 9a c0
       -0.02001249 -0.5357782 -2.1756139 -4.8427844
000010 ab dd ca c0 5b ce 42 3e e8 98 df 3f f0 cd e5 bf
       -6.339559 0.19024031 1.7468538 -1.7953472
000020 74 cd d9 bf 53 42 02 40 df b8 87 bf f2 79 5b c0
       -1.7015824 2.035298 -1.0603293 -3.429318
000030 29 70 c6 bf e4 d7 48 c1 fe 36 8b 3f 5c 49 a5 3f
       -1.5502979 -12.552708 1.0876157 1.2913013
000040 15 fa d6 40 68 fe 8a 40 3f c6 6d 40 ff 77 a8 40
       6.7180276 4.3435555 3.715225 5.264648
000050 91 ff f5 3f b1 30 35 3f c2 12 fb c0 a8 89 9f bf
       1.9218618 0.7077742 -7.84604 -1.2463884
000060 a3 8a e2 3f 73 47 06 40 53 5d 8b 3f 61 e8 27 41
       1.7698559 2.098111 1.0887855 10.494233
000070 a0 84 3b c0 b4 e6 ea 40 a7 89 66 40 6e 94 ae 3f
       -2.9299698 7.340662 3.6021516 1.3639047

model/transformer_block/multi_head_self_attention/dense_2/BiasAdd/ReadVariableOp f4 [32]
000000 a3 5c 3d 3f ec f4 be bf d4 8a 34 c0 23 d0 c4 3e
       0.7396948 -1.4918494 -2.8209734 0.38440046
000010 e2 ad 43 3f 8a e1 56 3f e3 67 f9 3e 90 1f 2e 3f
       0.764372 0.83937895 0.48712072 0.6801691
000020 19 b1 76 3f 36 11 53 be 71 74 c7 3f 17 0e 96 c0
       0.9636398 -0.20612034 1.558241 -4.68922
000030 c2 02 63 be e5 12 2f 40 61 af a4 c0 4a 33 22 40
       -0.22169021 2.7355282 -5.1464086 2.5343804
000040 9f 4d 37 bf 7c 1e 19 3f 1e 0f c0 be 8e 3e de 3f
       -0.71602815 0.5981214 -0.37511533 1.736284
000050 b5 0a 30 3e 71 65 8b 3e c1 43 00 40 11 e0 4d 3f
       0.17191584 0.2722583 2.0041354 0.80420023
000060 4e 1c 06 c0 d0 02 d3 bf db 4b 0f c0 53 ec 02 3f
       -2.0954776 -1.6485233 -2.2390049 0.5114185
000070 76 d0 a5 40 17 ca ef 3f ee 8f 83 c0 2b fd e6 bf
       5.181697 1.8733548 -4.1113195 -1.8046011

model/transformer_block/multi_head_self_attention/dense_1/BiasAdd/ReadVariableOp f4 [32]
000000 29 b2 89 3e af d8 3d 3f 5e e9 73 bd b3 b4 a8 3d
       0.26893738 0.7415876 -0.05954873 0.08237591
000010 6d c1 4f 3e fa 2a 76 3e ac 76 10 3e 95 7b 4e 3d
       0.2028863 0.24039832 0.1410777 0.050410826
000020 b1 19 08 3e 01 e9 fa 3d 03 32 ad 3d f1 e6 04 3d
       0.1329105 0.12251473 0.084568046 0.032446805
000030 12 ea 1e be b1 16 50 bd 40 26 e0 bc 69 ef 30 bc
       -0.15518978 -0.05080289 -0.027361989 -0.010799267
000040 3d d8 da be 2a 10 81 3e 4c 08 e8 bd 6d f5 4a 3f
       -0.42743102 0.25207645 -0.113297075 0.7928074
000050 7a 20 d2 bd f5 a2 f4 be af f8 22 3e 7e b5 8c 39
       -0.10260101 -0.47780576 0.15915178 0.00026838103
000060 55 d5 a6 be ce ac b9 3e 33 7d 7a be e4 5c e2 3d
       -0.32584634 0.36264652 -0.24461822 0.11052874
000070 8a 2b 5d bb 29 4a 60 3e 86 b5 ad bb 85 92 df 3d
       -0.0033747875 0.2190329 -0.0053011803 0.10916618

model/transformer_block/layer_normalization/batchnorm/ReadVariableOp f4 [32]
000000 60 9a 3d 3f 7d 46 50 3f da b9 dc bf a0 0d 93 bf
       0.7406368 0.81357557 -1.7244217 -1.1488533
000010 38 83 04 bd b1 93 08 c0 01 d4 5c 3f 1c 2b 1e 3e
       -0.032351702 -2.1340144 0.8626099 0.15446132
000020 1c 3b 15 40 47 09 1d 40 89 3d 09 c0 cf 19 f7 bf
       2.3317327 2.4536912 -2.1443808 -1.9304751
000030 05 1a a3 bf 24 05 fd bf a9 6d aa be 16 90 68 bf
       -1.2742316 -1.9767194 -0.3328679 -0.9084486
000040 e4 f1 31 bd 1f a1 54 40 0a 3e e7 be 46 e7 f2 3f
       -0.043443576 3.322334 -0.4516452 1.8976829
000050 c1 59 37 3f eb 4f a6 bf be 65 43 be 3a 8d 20 bf
       0.7162133 -1.2993139 -0.1908178 -0.62715495
000060 62 ca f9 bf 2d ac 4a 3f 0e ce d5 bf 0b 31 03 40
       -1.9514887 0.7916897 -1.6703508 2.0498683
000070 3c 3e bd 3f 83 68 59 40 96 7d 26 c0 89 bb 24 40
       1.4784617 3.397004 -2.6014152 2.5739462

model/transformer_block/layer_normalization/batchnorm/mul/ReadVariableOp f4 [32]
000000 60 77 56 40 ea 1e 67 40 7a 9f 68 40 2a 66 55 40
       3.351036 3.6112618 3.6347337 3.3343606
000010 69 f4 5d 40 e7 1e 4b 40 8a 30 7f 40 68 6f 38 40
       3.4680426 3.1737611 3.9873376 2.8817997
000020 d1 4d 48 40 19 7d 7f 40 70 73 72 40 10 e4 33 40
       3.1297495 3.9920104 3.7882957 2.8107948
000030 c7 76 3a 40 8d d3 8a 40 4b 76 7d 40 3f df b7 40
       2.9134996 4.338324 3.960345 5.7460017
000040 9d 2d 99 40 95 bd 72 40 6c ab 82 40 05 71 3f 40
       4.786818 3.7928212 4.0834255 2.9912732
000050 90 19 8c 40 7c d3 34 40 06 2f 8d 40 55 54 89 40
       4.3781204 2.825408 4.41199 4.2915444
000060 8e 8c 84 40 14 9d 53 40 bf e9 6f 40 34 21 02 40
       4.1421576 3.3064623 3.7486417 2.0332766
000070 d3 ec 36 40 42 20 84 40 a7 68 7b 40 a2 00 28 40
       2.8582046 4.1289377 3.9282625 2.6250386

model/transformer_block/layer_normalization_1/batchnorm/ReadVariableOp f4 [32]
000000 07 a2 08 3c 50 b1 0e ba 50 fc 75 3e 7b f6 a8 be
       0.008339412 -0.0005443292 0.24022031 -0.3300055
000010 44 ae 5d 3f 0f 2f 48 3e 82 11 de bc 5b d8 49 3c
       0.86594033 0.19549201 -0.027107958 0.01231965
000020 45 01 0f 3f 11 8b 6b bc 21 be 76 3f ae 26 92 3d
       0.5586131 -0.014376418 0.96383864 0.07136284
000030 4c 17 b3 bd 7b 14 8c 3f 93 27 42 3d 4b 5d 4e 3d
       -0.08744678 1.094375 0.047401022 0.05038194
000040 f1 50 c8 be d5 7c fe be 58 cf c8 ba e6 a9 36 bc
       -0.39124253 -0.49704614 -0.0015320582 -0.011148905
000050 69 b8 6e 3c 06 53 0a 3c 3c d2 c2 3b 42 6a c8 3e
       0.014570334 0.008442646 0.005945472 0.39143568
000060 8c e9 bd 3d d8 4f ba 3b 93 3e c9 be bb 9a 4b 3d
       0.09273061 0.0056857876 -0.39305553 0.04970811
000070 93 cb 0f 3d ff e6 3b bc 05 7c 7e 3c a7 a4 8b 3d
       0.035106253 -0.011468648 0.015532498 0.06818514

model/transformer_block/layer_normalization_1/batchnorm/mul/ReadVariableOp f4 [32]
000000 b5 c2 08 3d f9 5d 8c 3c 91 1e c3 3f ed 0a 07 40
       0.033388812 0.017134653 1.5243703 2.1100419
000010 7c 56 2a 40 7b 3c 44 40 61 4f 0c 40 60 82 72 bc
       2.6615286 3.0661914 2.192345 -0.014801592
000020 26 38 28 40 1c 5d 08 40 4e c6 4d 40 f2 fc f7 3f
       2.628427 2.130683 3.2152286 1.9374068
000030 25 8a 3f 3f d5 a9 34 40 e1 20 8f 3f 86 a0 d0 3f
       0.74820167 2.8228657 1.1181909 1.6298988
000040 82 f2 c5 3f c1 49 17 40 b6 05 5c 3d 41 7a 3b 3c
       1.5464633 2.3638766 0.053716384 0.011442722
000050 ea 98 a9 3e ce b1 a5 3d f9 05 2c bc 9f d2 00 40
       0.33124477 0.08090554 -0.010499471 2.0128553
000060 15 35 a3 3f 3d 87 35 bc ee d0 00 40 6a ef 9e 3f
       1.2750574 -0.011079607 2.012752 1.2416813
000070 74 f4 c1 3d 15 bc bb 3c 6c dd de 3a dc 5e 08 40
       0.09470454 0.022916833 0.0017003245 2.1307898

model/conv_embedding/conv1d/BiasAdd/ReadVariableOp f4 [32]
000000 69 9c e5 c0 0e 3c 08 c1 8e 64 14 c1 dc bc ba bf
       -7.175343 -8.514662 -9.2745495 -1.4588885
000010 ef 48 97 c0 ea 8b 28 c0 5c 91 f6 c0 87 f8 e1 c0
       -4.727653 -2.6335397 -7.705244 -7.061588
000020 fe 77 a4 c0 56 46 ed c0 56 39 5d c0 ee 79 bc c0
       -5.1396475 -7.414836 -3.4566245 -5.889884
000030 fe 4a 27 3f 76 dd 06 be e3 4e 0d c1 85 da 5a 3f
       0.65348804 -0.13170418 -8.831759 0.85489684
000040 3d c4 90 3f 06 a6 bc 3f 42 d0 83 c1 f8 a4 45 40
       1.1309887 1.4738166 -16.476688 3.088194
000050 3a 08 1c c0 4d 41 7a be 78 3f ea bf 42 40 87 c0
       -2.438002 -0.24438973 -1.8300619 -4.226594
000060 ee 03 1a c0 98 50 dc c0 12 dc 89 bd d8 05 e0 c0
       -2.4064898 -6.884838 -0.06731428 -7.0007133
000070 ee e4 44 3f 18 05 e3 c0 cc 8e 12 3f 2c 83 a4 c0
       0.7691182 -7.094372 0.5724914 -5.141012

model/cluster_dense_6/BiasAdd/ReadVariableOp f4 [14]
000000 52 03 ca 3e 19 7a 65 bf ac 6c 2c c0 18 0d db 3f
       0.39455658 -0.8963943 -2.6941328 1.7113371
000010 59 b3 e1 3f e5 ef 32 c0 07 d4 07 40 9a c0 df bf
       1.7632858 -2.795892 2.1223161 -1.7480652
000020 3e d4 de be d2 95 03 40 09 5b b1 bf ee 96 cf 3f
       -0.43521303 2.0560193 -1.3855907 1.6217935
000030 e2 d7 93 c0 6f 50 3f 3f
       -4.620103 0.74732107

model/cluster_dense_6/MatMul f4 [14, 32]
000000 63 c9 93 3a 51 6c 52 bd df ec 45 bf 55 0b 11 bf
       0.0011275228 -0.05137283 -0.7731456 -0.56657916
000010 df ec 45 bf 7d a7 b1 bf d1 24 98 bf 63 c9 93 3a
       -0.7731456 -1.3879238 -1.1886235 0.0011275228
000020 7f a9 85 bf f7 f3 1e be 18 6c 74 bf ba 26 dd be
       -1.0442351 -0.15522753 -0.9547744 -0.4319361
000030 f4 72 8f be b7 d9 45 3e f4 72 8f be f4 72 8f be
       -0.2801739 0.19321333 -0.2801739 -0.2801739
000040 b7 d9 45 3e 63 c9 93 3a f7 f3 1e be 61 37 e5 3d
       0.19321333 0.0011275228 -0.15522753 0.11192203
000050 f4 72 8f be 61 37 e5 3d f7 f3 1e be f7 f3 1e be
       -0.2801739 0.11192203 -0.15522753 -0.15522753
000060 61 37 e5 3d 51 6c 52 bd f7 f3 1e be df ec 45 bf
       0.11192203 -0.05137283 -0.15522753 -0.7731456
000070 63 c9 93 3a 51 6c 52 bd f7 f3 1e be 7d a7 b1 bf
       0.0011275228 -0.05137283 -0.15522753 -1.3879238
000080 51 6c 52 bd 51 6c 52 bd b7 d9 45 3e b7 d9 45 3e
       -0.05137283 -0.05137283 0.19321333 0.19321333
000090 7d a7 b1 bf df ec 45 bf 51 6c 52 bd 63 c9 93 3a
       -1.3879238 -0.7731456 -0.05137283 0.0011275228
0000a0 f7 f3 1e be 7d a7 b1 bf df ec 45 bf b7 d9 45 3e
       -0.15522753 -1.3879238 -0.7731456 0.19321333
0000b0 b7 d9 45 3e 55 0b 11 bf 7d a7 b1 bf b7 d9 45 3e
       0.19321333 -0.56657916 -1.3879238 0.19321333
0000c0 51 6c 52 bd 7d a7 b1 bf f4 72 8f be 63 c9 93 3a
       -0.05137283 -1.3879238 -0.2801739 0.0011275228
0000d0 51 6c 52 bd 61 37 e5 3d f7 f3 1e be 7d a7 b1 bf
       -0.05137283 0.11192203 -0.15522753 -1.3879238
0000e0 b7 d9 45 3e f7 f3 1e be b7 d9 45 3e b7 d9 45 3e
       0.19321333 -0.15522753 0.19321333 0.19321333
0000f0 f7 f3 1e be 51 6c 52 bd f7 f3 1e be b7 d9 45 3e
       -0.15522753 -0.05137283 -0.15522753 0.19321333
000100 f7 f3 1e be b7 d9 45 3e b7 d9 45 3e b7 d9 45 3e
       -0.15522753 0.19321333 0.19321333 0.19321333
000110 b7 d9 45 3e 7d a7 b1 bf b7 d9 45 3e 63 c9 93 3a
       0.19321333 -1.3879238 0.19321333 0.0011275228
000120 b7 d9 45 3e 7d a7 b1 bf b7 d9 45 3e b7 d9 45 3e
       0.19321333 -1.3879238 0.19321333 0.19321333
000130 7d a7 b1 bf 7d a7 b1 bf 7d a7 b1 bf 7d a7 b1 bf
       -1.3879238 -1.3879238 -1.3879238 -1.3879238
000140 7d a7 b1 bf 7d a7 b1 bf a3 1d d1 be 61 37 e5 3d
       -1.3879238 -1.3879238 -0.40842924 0.11192203
000150 7d a7 b1 bf 51 6c 52 bd 51 6c 52 bd b7 d9 45 3e
       -1.3879238 -0.05137283 -0.05137283 0.19321333
000160 7d a7 b1 bf 51 6c 52 bd 7d a7 b1 bf 7d a7 b1 bf
       -1.3879238 -0.05137283 -1.3879238 -1.3879238
000170 f4 72 8f be 63 c9 93 3a 51 6c 52 bd 7d a7 b1 bf
       -0.2801739 0.0011275228 -0.05137283 -1.3879238
000180 a3 1d d1 be 63 c9 93 3a 55 0b 11 bf b7 d9 45 3e
       -0.40842924 0.0011275228 -0.56657916 0.19321333
000190 a3 1d d1 be b7 d9 45 3e 7d a7 b1 bf 51 6c 52 bd
       -0.40842924 0.19321333 -1.3879238 -0.05137283
0001a0 55 0b 11 bf 51 6c 52 bd e6 9d ab bf 63 c9 93 3a
       -0.56657916 -0.05137283 -1.3407562 0.0011275228
0001b0 55 0b 11 bf 18 6c 74 bf 18 6c 74 bf b7 d9 45 3e
       -0.56657916 -0.9547744 -0.9547744 0.19321333
0001c0 a3 1d d1 be f7 f3 1e be f7 f3 1e be 63 c9 93 3a
       -0.40842924 -0.15522753 -0.15522753 0.0011275228
0001d0 f4 72 8f be 61 37 e5 3d 51 6c 52 bd e6 9d ab bf
       -0.2801739 0.11192203 -0.05137283 -1.3407562
0001e0 7d a7 b1 bf 63 c9 93 3a 55 0b 11 bf 7d a7 b1 bf
       -1.3879238 0.0011275228 -0.56657916 -1.3879238
0001f0 f4 72 8f be 51 6c 52 bd f7 f3 1e be b7 d9 45 3e
       -0.2801739 -0.05137283 -0.15522753 0.19321333
000200 51 6c 52 bd 63 c9 93 3a d1 24 98 bf df ec 45 bf
       -0.05137283 0.0011275228 -1.1886235 -0.7731456
000210 55 0b 11 bf b7 d9 45 3e 55 0b 11 bf 63 c9 93 3a
       -0.56657916 0.19321333 -0.56657916 0.0011275228
000220 d1 24 98 bf 7d a7 b1 bf 7d a7 b1 bf df ec 45 bf
       -1.1886235 -1.3879238 -1.3879238 -0.7731456
000230 63 c9 93 3a e6 9d ab bf 55 0b 11 bf 63 c9 93 3a
       0.0011275228 -1.3407562 -0.56657916 0.0011275228
000240 b7 d9 45 3e 63 c9 93 3a f7 f3 1e be 63 c9 93 3a
       0.19321333 0.0011275228 -0.15522753 0.0011275228
000250 a3 1d d1 be b7 d9 45 3e f7 f3 1e be b7 d9 45 3e
       -0.40842924 0.19321333 -0.15522753 0.19321333
000260 7d a7 b1 bf 51 6c 52 bd b7 d9 45 3e f7 f3 1e be
       -1.3879238 -0.05137283 0.19321333 -0.15522753
000270 f7 f3 1e be 51 6c 52 bd f7 f3 1e be f4 72 8f be
       -0.15522753 -0.05137283 -0.15522753 -0.2801739
000280 f7 f3 1e be 51 6c 52 bd b7 d9 45 3e 61 37 e5 3d
       -0.15522753 -0.05137283 0.19321333 0.11192203
000290 e6 9d ab bf e6 9d ab bf 18 6c 74 bf 61 37 e5 3d
       -1.3407562 -1.3407562 -0.9547744 0.11192203
0002a0 7d a7 b1 bf f4 72 8f be b7 d9 45 3e 7d a7 b1 bf
       -1.3879238 -0.2801739 0.19321333 -1.3879238
0002b0 55 0b 11 bf b7 d9 45 3e b7 d9 45 3e a3 1d d1 be
       -0.56657916 0.19321333 0.19321333 -0.40842924
0002c0 f4 72 8f be b7 d9 45 3e f4 72 8f be 61 37 e5 3d
       -0.2801739 0.19321333 -0.2801739 0.11192203
0002d0 55 0b 11 bf 51 6c 52 bd 63 c9 93 3a b7 d9 45 3e
       -0.56657916 -0.05137283 0.0011275228 0.19321333
0002e0 df ec 45 bf 61 37 e5 3d df ec 45 bf d1 24 98 bf
       -0.7731456 0.11192203 -0.7731456 -1.1886235
0002f0 51 6c 52 bd f4 72 8f be 61 37 e5 3d b7 d9 45 3e
       -0.05137283 -0.2801739 0.11192203 0.19321333
000300 51 6c 52 bd 63 c9 93 3a b7 d9 45 3e 18 6c 74 bf
       -0.05137283 0.0011275228 0.19321333 -0.9547744
000310 18 6c 74 bf b7 d9 45 3e d1 24 98 bf 61 37 e5 3d
       -0.9547744 0.19321333 -1.1886235 0.11192203
000320 7d a7 b1 bf b7 d9 45 3e 7d a7 b1 bf 51 6c 52 bd
       -1.3879238 0.19321333 -1.3879238 -0.05137283
000330 55 0b 11 bf d1 24 98 bf b7 d9 45 3e 63 c9 93 3a
       -0.56657916 -1.1886235 0.19321333 0.0011275228
000340 ba 26 dd be ba 26 dd be 63 c9 93 3a 61 37 e5 3d
       -0.4319361 -0.4319361 0.0011275228 0.11192203
000350 f4 72 8f be 63 c9 93 3a 51 6c 52 bd b7 d9 45 3e
       -0.2801739 0.0011275228 -0.05137283 0.19321333
000360 51 6c 52 bd f7 f3 1e be f4 72 8f be 63 c9 93 3a
       -0.05137283 -0.15522753 -0.2801739 0.0011275228
000370 f4 72 8f be 63 c9 93 3a 51 6c 52 bd 55 0b 11 bf
       -0.2801739 0.0011275228 -0.05137283 -0.56657916
000380 51 6c 52 bd 51 6c 52 bd d1 24 98 bf 61 37 e5 3d
       -0.05137283 -0.05137283 -1.1886235 0.11192203
000390 7d a7 b1 bf 55 0b 11 bf 7d a7 b1 bf 61 37 e5 3d
       -1.3879238 -0.56657916 -1.3879238 0.11192203
0003a0 7d a7 b1 bf b7 d9 45 3e b7 d9 45 3e b7 d9 45 3e
       -1.3879238 0.19321333 0.19321333 0.19321333
0003b0 b7 d9 45 3e 7d a7 b1 bf d1 24 98 bf 61 37 e5 3d
       0.19321333 -1.3879238 -1.1886235 0.11192203
0003c0 b7 d9 45 3e 61 37 e5 3d f7 f3 1e be 63 c9 93 3a
       0.19321333 0.11192203 -0.15522753 0.0011275228
0003d0 b7 d9 45 3e 61 37 e5 3d 51 6c 52 bd 18 6c 74 bf
       0.19321333 0.11192203 -0.05137283 -0.9547744
0003e0 7d a7 b1 bf 63 c9 93 3a b7 d9 45 3e b7 d9 45 3e
       -1.3879238 0.0011275228 0.19321333 0.19321333
0003f0 f7 f3 1e be f7 f3 1e be 51 6c 52 bd 7d a7 b1 bf
       -0.15522753 -0.15522753 -0.05137283 -1.3879238

model/transformer_block/multi_head_self_attention/dense_1/Tensordot/MatMul f4 [32, 32]
000000 ba f4 e8 3e fd 0a a4 3e 3d 16 85 3f 89 d1 39 bf
       0.45499212 0.32039633 1.0397412 -0.7258535
000010 a4 b6 33 c0 9f c8 4a be ee c6 09 c0 bc 80 b8 bc
       -2.8080225 -0.19803093 -2.1527667 -0.022522323
000020 86 eb 3e bf b7 c0 4d c0 db 0c 08 c1 be ee 94 bf
       -0.7457813 -3.2148874 -8.503139 -1.1635358
000030 48 2d f4 bf 57 f3 c7 c0 2d 7b b5 40 a4 26 89 be
       -1.9076319 -6.2484546 5.671286 -0.26787293
000040 bb 8f fc be 4e 09 0e c0 45 19 ca 40 d5 1a 34 bf
       -0.49328408 -2.219318 6.3155847 -0.7035344
000050 1f e5 8d be 1f eb 5c c0 49 0b 56 40 f0 61 04 be
       -0.27713868 -3.4518507 3.3444388 -0.12927985
000060 d5 62 db bf d6 43 22 c0 84 85 62 40 7e 56 f5 3f
       -1.7139536 -2.5353904 3.5393991 1.916702
000070 32 64 2e 3f f4 87 83 bf e0 43 57 bf 5e a3 14 3e
       0.68121636 -1.0275865 -0.84087944 0.14515445
000080 a1 71 c0 be 80 8e 80 3f 3e b9 7b 3f 15 20 63 bf
       -0.37586692 1.0043488 0.9832953 -0.8872083
000090 0c d6 43 3e 58 7a e2 be 20 8b 5a bf a6 76 89 3f
       0.19124621 -0.44233966 -0.8536854 1.0739334
0000a0 97 cf 88 40 af 1d cd 3f 2b e8 ea bf 2f 2d 66 3f
       4.2753406 1.6024684 -1.8352102 0.89912695
0000b0 24 b2 24 3f 6c 93 54 bf b3 f0 c8 40 e9 c8 24 c1
       0.6433432 -0.8303745 6.279382 -10.29905
0000c0 e7 a1 f7 3f 11 12 14 bf 88 d0 0f 41 59 a3 9b 40
       1.9346284 -0.5784007 8.988411 4.86369
0000d0 3e 4f ba bf f5 f7 30 3e d1 70 b5 3e 5f f1 55 40
       -1.4555433 0.17282088 0.35437635 3.3428571
0000e0 76 e8 97 c0 4f 3a 6d 3f c7 02 82 40 53 85 0e 40
       -4.7471266 0.92667097 4.062839 2.2268875
0000f0 64 70 88 c0 42 da c4 bf be dd 9a 3f 40 0a a3 3f
       -4.2637196 -1.5379107 1.209892 1.2737503
000100 09 2b 8f 40 58 9e 57 c0 bc 4a dd bf 41 be 9e bf
       4.4740033 -3.3690395 -1.7288432 -1.2401811
000110 f1 94 16 c0 f2 0a 1d 40 cd a6 fa bf fb 7f 13 c0
       -2.3528407 2.453793 -1.9582154 -2.3046863
000120 14 1f f0 bd 3d f6 8e c0 f7 49 59 c0 f9 b2 e6 3f
       -0.11724678 -4.4675584 -3.3951395 1.8023368
000130 06 5b a7 40 0a c6 9a c0 ec 40 d1 40 e3 f0 21 40
       5.2298613 -4.8366747 6.539175 2.5303276
000140 ec d5 79 bf a1 34 ea 40 03 96 a3 40 8d 36 89 c0
       -0.97592044 7.3189244 5.112062 -4.287909
000150 1c 90 04 be f5 64 2a 3f 47 e4 bb be 03 e5 47 40
       -0.12945598 0.665603 -0.366976 3.1233528
000160 5b ca 16 3f f5 64 0e 3f 6d 69 37 bf b1 5c c1 3f
       0.5890252 0.556228 -0.7164524 1.5106412
000170 32 8b 0e c0 4a d2 0a bf 0d 88 0d 40 cf 01 85 3f
       -2.2272458 -0.54227126 2.2114289 1.0391177
000180 16 56 c1 bf 9f eb 0e 40 5a 67 f5 3e 47 06 5f 3e
       -1.5104396 2.2331312 0.47930413 0.21779738
000190 8a 82 5a 3f 7f 46 2c c0 f3 e5 0d 40 0b bb 1b 40
       0.85355437 -2.6918027 2.21716 2.4332912
0001a0 1b cc 2a 40 54 46 a0 3f d8 b9 63 41 8b 84 34 40
       2.6687076 1.2521462 14.232872 2.8205898
0001b0 31 27 50 40 25 35 e7 40 ef 63 0d c1 a6 0f 8f 3f
       3.252392 7.2252374 -8.836898 1.117665
0001c0 52 70 ad 3f c1 63 d8 40 30 8d 7f 3d df dd 75 40
       1.3549902 6.762177 0.062390506 3.841667
0001d0 0b 8c 01 40 d5 7c b4 3f 1f b7 0b 40 fb 13 20 40
       2.0241725 1.4100596 2.1830518 2.5012195
0001e0 e5 c6 d0 3f f0 2e 7a 40 76 ac a1 3f e6 a0 21 40
       1.6310698 3.9091148 1.2630756 2.5254455
0001f0 b5 db d8 be 7c 73 cf be b6 0b 9b 3f c6 6b 1b 40
       -0.42355123 -0.40517795 1.2112949 2.428453
000200 42 52 6f bc f7 a9 77 be 83 8a a5 be b3 12 b9 be
       -0.014607014 -0.2418593 -0.3233224 -0.3614708
000210 dc 13 75 bf c1 04 9c 3e dd 97 9d bf 27 61 42 3f
       -0.9573343 0.30472377 -1.231197 0.7592949
000220 de 03 1f c0 42 4e f1 3e 1b 9a 87 c0 40 cf 57 40
       -2.484611 0.47130018 -4.2375617 3.3720245
000230 78 c1 1f c0 d5 ab 41 c0 80 0a 3f c0 b1 f5 6d 40
       -2.4961834 -3.0261128 -2.9850159 3.7181208
000240 9b 18 ec bf 51 3f 9e bf 22 84 92 c0 86 94 f5 c0
       -1.8445009 -1.2363073 -4.5786295 -7.6743803
000250 c2 bf 22 c0 f8 43 2f bf 86 4e 9b c0 06 ad fc be
       -2.542954 -0.6846309 -4.8533354 -0.49350756
000260 b2 3c b9 3f 29 fd 37 c0 a9 85 08 c0 c1 ad 20 c0
       1.4471648 -2.8748267 -2.133158 -2.510605
000270 96 3b 7d 40 d0 7f dd bf e2 9d e9 be e6 0b 24 c0
       3.9567618 -1.730463 -0.45628268 -2.5632262
000280 7b cd 98 be fa 7a dd 3f 30 d6 0a 3f 52 3b b8 3f
       -0.2984427 1.7303154 0.54233074 1.4393103
000290 d4 6f 0d bf 54 f3 15 be d6 e1 26 40 ad 53 38 bf
       -0.5524876 -0.14643604 2.607534 -0.7200268
0002a0 c5 28 22 bf 3e 7d 55 c0 02 95 8d 40 ad df 2d c0
       -0.6334346 -3.3357692 4.4244394 -2.716777
0002b0 88 c8 f9 bf 00 69 e9 3e 5b b9 7d be 06 c0 81 c0
       -1.9514322 0.4558792 -0.24777739 -4.0546904
0002c0 f6 81 91 bf 3e 0d ad c0 71 34 e3 bf a1 ac 45 40
       -1.1367786 -5.4078665 -1.7750379 3.0886614
0002d0 1b af cb be 50 d7 77 be 78 33 21 3e 48 a7 46 3e
       -0.39782032 -0.24203229 0.1574229 0.1939975
0002e0 de 9c 2c c0 ea 36 52 3e cb 42 14 41 65 24 02 3f
       -2.6970744 0.2052876 9.266307 0.50836784
0002f0 15 1f d6 40 1e cf b0 3e 6d a0 c5 bf 5b d0 02 bf
       6.691294 0.34533018 -1.5439583 -0.51099175
000300 2c 81 54 40 e4 89 39 c0 ec af 12 40 3d 77 30 c0
       3.320384 -2.8990412 2.2919874 -2.7572777
000310 52 9e 19 be c5 c6 56 bf 9b a3 dd bf 26 5c 78 bd
       -0.150018 -0.8389705 -1.7315553 -0.060634755
000320 8a cf 87 bf af f4 eb 3f 77 bc f4 c0 50 97 52 c0
       -1.0610211 1.8434047 -7.648006 -3.2904854
000330 3d 82 16 3d 58 3e 33 c0 40 8d a6 3f 36 4b 23 c0
       0.0367453 -2.8006802 1.3011856 -2.5514655
000340 72 d4 94 be 60 2e 37 bf 86 79 ae bf 08 7c 10 c0
       -0.29068333 -0.7155514 -1.3630836 -2.2575703
000350 c5 f7 b6 c0 bf b4 2b c0 be 31 22 c0 93 b6 1d c0
       -5.7177453 -2.6829069 -2.534286 -2.4642684
000360 38 29 fb be 1e 69 28 c0 2b 69 7e be f6 59 07 c0
       -0.49054885 -2.6314158 -0.24844806 -2.1148658
000370 43 89 b3 bd 56 27 2b c0 e6 7a f3 be 1b 4c 9e c0
       -0.08766415 -2.6742759 -0.47554702 -4.94679
000380 40 96 b2 c0 6a a3 97 40 3b 59 5b c0 7b b5 8f 40
       -5.580841 4.738698 -3.4273212 4.4909034
000390 f8 27 33 c0 c9 0a 2c 3f 5d fc 0c 40 0a 46 04 c0
       -2.7993145 0.67203957 2.202903 -2.0667748
0003a0 4c 73 b1 bf e7 58 52 c0 c3 d3 5d 40 8e 68 75 40
       -1.3863311 -3.2866762 3.46605 3.8345065
0003b0 d7 58 af be 5c 24 87 40 65 40 97 c0 44 9a 5a c0
       -0.34247467 4.2231884 -4.7266107 -3.4156656
0003c0 65 e3 18 40 1c 7e 34 3f 92 b9 6b c0 77 5b 7f 40
       2.388879 0.7050493 -3.6832013 3.9899576
0003d0 48 42 b0 3e 4b 8c 80 3f c3 56 c6 3d 7e b1 44 c0
       0.3442557 1.0042814 0.09684517 -3.0733333
0003e0 29 06 87 bf 85 47 12 c0 94 fe b1 3f 1c 5f 00 c0
       -1.0548755 -2.2856152 1.3905816 -2.005805
0003f0 31 ba 4b c0 4b a7 3b bf eb bd ad bd 75 3b b4 bf
       -3.1832392 -0.73302144 -0.084834896 -1.4080645

model/transformer_block/multi_head_self_attention/dense_2/Tensordot/MatMul f4 [32, 32]
000000 75 a5 0a bf 18 5d be c0 09 3c 16 c0 d8 a9 51 40
       -0.5415872 -5.948864 -2.3474143 3.2759914
000010 68 a6 d5 40 13 00 1f 3e 4c ff 22 3f e4 3d bb 3f
       6.6765633 0.15527372 0.636708 1.4628263
000020 e2 1b 20 40 a1 ca ff 3f 5b 7f e0 bf f2 5c ec c0
       2.5017018 1.9983712 -1.7538866 -7.386346
000030 75 0d 79 40 d4 e0 bc bf ca 24 b7 be a9 a6 15 3f
       3.8914464 -1.4756112 -0.35770255 0.5845743
000040 1f e9 c5 be 74 0e 35 40 b4 1e 92 c0 39 f6 9a bf
       -0.3865442 2.8290071 -4.566248 -1.2106391
000050 ae f2 e1 be b4 07 20 40 cf fb 3e 3f 18 28 b7 bf
       -0.44130462 2.5004702 0.7460298 -1.4309111
000060 23 fd 86 3f b0 4b f7 be 86 19 2d 40 18 6e 80 bf
       1.0546001 -0.48299932 2.7046828 -1.0033598
000070 09 70 76 40 cd 1d 79 3e 22 17 3c 40 08 57 21 3e
       3.850588 0.24327774 2.938912 0.15755856
000080 45 c3 cd be 6d 85 c8 c0 a0 b4 24 c0 eb b7 f5 3f
       -0.4018804 -6.2662873 -2.5735245 1.9196752
000090 42 34 a8 3f 82 2c 22 c0 a1 02 41 bf 19 78 b0 3f
       1.3140948 -2.5339665 -0.75394636 1.3786651
0000a0 22 e7 ea 40 cc f4 0b 3f 6a da 13 c1 01 92 d0 3f
       7.3407145 0.54670405 -9.240824 1.6294557
0000b0 98 ce d8 3e 62 42 35 c0 bc d3 1b 40 6d 97 7b bf
       0.4234512 -2.8321767 2.4347982 -0.9827793
0000c0 b2 f0 fe 3f 0f 06 61 bf fb f6 e6 3f 6c 1f 46 bf
       1.9917204 -0.8789987 1.8044122 -0.77391696
0000d0 cc 1e ea 3f b4 8f 15 be 48 2e 88 40 98 75 0b bf
       1.8290648 -0.146056 4.2556496 -0.5447631
0000e0 ac 20 eb 3f b2 dc 7c bf 7e de 23 40 f0 37 ca bf
       1.8369346 -0.98774254 2.5604548 -1.5798321
0000f0 5c 4e 40 c0 b0 0c f5 bf 8a 9f 92 3f a9 66 f3 bf
       -3.0047827 -1.9144497 1.1454937 -1.9015704
000100 62 38 a4 c0 93 ad 75 40 51 f0 15 40 7c b6 0a 40
       -5.1318827 3.8387191 2.3427927 2.167388
000110 b4 e9 2d 40 8a a1 6c bf d7 3e 6d 3f 5d cc 90 3f
       2.717389 -0.9243399 0.9267401 1.1312367
000120 5d 9d 3b c0 be d9 db 40 94 c3 57 40 7a 6f c6 bf
       -2.9314797 6.87033 3.3713121 -1.550277
000130 5c 0b d3 3f 3b c1 f7 40 48 47 e0 bf 97 b2 bd bf
       1.6487842 7.7423377 -1.7521753 -1.4820126
000140 a3 ed 2b 40 29 55 11 bf 32 50 cf bf 70 6b 53 40
       2.6863792 -0.5677057 -1.6196349 3.3034325
000150 54 9f f0 bf b2 bc 93 bf 27 a5 a5 40 e3 5c e3 bf
       -1.8798623 -1.154196 5.17641 -1.7762722
000160 76 49 b3 bf 23 b9 d3 bf 25 3b d6 40 be 20 04 c0
       -1.4006793 -1.6540874 6.69472 -2.0644984
000170 b0 62 a7 3f 77 f9 39 bf 78 0d 7a 3f f4 9b 16 c0
       1.3076992 -0.7264628 0.976768 -2.3532686
000180 69 5e 0e 40 15 7f af c0 61 e3 c1 3f d0 ee 0c bf
       2.2245123 -5.484263 1.5147516 -0.550519
000190 11 e0 bd 3f 25 8c 40 40 28 9b 43 3e ad 28 84 40
       1.4834005 3.0085537 0.19102156 4.1299653
0001a0 89 04 94 bf a1 3d 19 3f a7 5e a2 40 64 4a 03 3f
       -1.1563884 0.59859663 5.0740542 0.51285386
0001b0 a6 bf 07 40 a2 a5 b7 40 e0 f4 72 bf b6 d3 4a 3f
       2.1210723 5.738969 -0.949049 0.79229295
0001c0 d6 31 69 40 98 c1 58 40 0a b7 c9 bf 59 fa 89 3f
       3.6436667 3.386816 -1.5758984 1.0779525
0001d0 79 71 57 3f df d9 e7 3e 1c 33 fc bf 20 c9 d2 bc
       0.8415752 0.4528341 -1.9703097 -0.02573067
0001e0 48 17 98 3f 76 c4 4d bd 21 57 ac c0 d3 95 94 3d
       1.1882105 -0.050236188 -5.385636 0.07255139
0001f0 98 9b a6 c0 19 27 ff 3e 73 02 39 3f 6d 88 60 3e
       -5.2064934 0.49834517 0.7226936 0.21927042
000200 2e 25 86 c0 22 c2 c6 40 6c 5a 89 be 03 ad 81 40
       -4.1920385 6.211198 -0.268268 4.0523696
000210 d1 d5 1b bf 9b 15 64 3f cf 22 98 3f 0a ef c8 3e
       -0.6087313 0.8909547 1.1885623 0.39244872
000220 55 0f 82 c0 40 1e cf 3f 33 84 cb bc e5 72 aa bf
       -4.0643716 1.6181107 -0.024843311 -1.3316313
000230 10 ae 32 bf ac 91 ce be 41 c5 de 3f 3f 12 2a c0
       -0.6979685 -0.40345514 1.7403947 -2.6573637
000240 59 e8 ea 3f e4 41 92 3e dc 64 a8 bc 7a 03 6e 3f
       1.8352157 0.28565896 -0.020555906 0.92974055
000250 0c 7d 91 3f 08 93 d3 3f 88 c7 56 bf 64 f2 29 bf
       1.1366286 1.6529245 -0.8389821 -0.66385484
000260 f2 54 ee 3e dd e8 0f bf 06 cc a0 c0 d2 f2 da 3e
       0.46549183 -0.56214696 -5.024905 0.42763382
000270 f0 27 a8 c0 ec a2 18 3f 9e 0d 72 40 af 18 4a bf
       -5.254875 0.596236 3.7820811 -0.78943914
000280 a4 e2 ff bf bb de 2f 40 7a 6b 36 3f 91 6e 79 3f
       -1.999104 2.7479694 0.71257746 0.97434336
000290 f3 41 a3 bf 61 e7 7a 3f 59 de 05 40 9d 2c d1 bf
       -1.2754501 0.98009306 2.091696 -1.634174
0002a0 52 a1 6e c0 25 24 f6 3f 67 a5 e2 c0 44 f6 66 40
       -3.7285962 1.922978 -7.0826907 3.6087809
0002b0 d1 44 c1 3f 8c d1 7b c0 af 07 25 40 19 1c 64 40
       1.5099126 -3.9346647 2.578594 3.564215
0002c0 a4 a6 cf bf 0a bf 48 40 b0 5d 7b c0 0f 68 07 c0
       -1.622273 3.13666 -3.9275932 -2.1157262
0002d0 4d e8 d9 bf ea cd ae 3f 54 f2 05 bf 5c be 72 bf
       -1.7024018 1.365659 -0.5232289 -0.94821715
0002e0 4b 56 2f 40 db 66 81 3f ef b5 44 c0 0c bb af be
       2.739642 1.0109514 -3.0736043 -0.34322393
0002f0 0a 61 4f c0 5a df ee 3f e6 b8 dc 3f fc 36 9a 3e
       -3.2402978 1.8661911 1.7243927 0.30120075
000300 d2 c9 e4 c0 01 70 85 40 d9 c7 cc c0 d8 7e 26 40
       -7.1496363 4.1699224 -6.3993955 2.601492
000310 41 83 0b 40 eb 62 84 bf 13 45 b1 3f 84 81 3b 40
       2.179886 -1.0342687 1.3849205 2.92978
000320 23 55 c3 bf c8 5b 0e c0 4f af ea 40 8b 72 d9 3f
       -1.5260357 -2.224352 7.3339 1.6988081
000330 5c 0a ec 3f be 2e b4 40 62 bd 69 c0 fc b1 b3 3f
       1.8440661 5.630706 -3.652184 1.4038692
000340 12 58 1c 3f 10 91 0d 40 dc 84 f6 c0 2d ae 8b bd
       0.61071885 2.211979 -7.703718 -0.06820331
000350 ff c9 7c bd ac ac 50 3f 07 db a6 40 9f f1 be 3e
       -0.061716076 0.81513476 5.2142367 0.37293717
000360 7a 85 15 c0 d7 1f ac 3d e2 31 8d 40 91 8f e3 3e
       -2.3362718 0.084045105 4.412339 0.4444547
000370 62 93 09 c0 f2 ed 84 bf c5 2f 71 40 2e 9e b2 bc
       -2.1496205 -1.0385115 3.7685406 -0.021803942
000380 d3 30 1b c1 03 cc c2 40 2a 2a 0c c0 c4 e4 6b 3f
       -9.69942 6.087404 -2.1900735 0.92145944
000390 e8 1e 7e c0 a2 e5 ab 3f 7d 9c 36 3f 5a c4 4b c0
       -3.9706364 1.3429453 0.7133253 -3.1838593
0003a0 3d 92 83 bf d5 58 1b c0 d5 17 27 c0 2c 6d ff 3f
       -1.0279003 -2.4272969 -2.6108296 1.9955192
0003b0 ec 8d 6d bf ee 9e 56 bf 2a d0 3a 3f 94 f8 d6 bf
       -0.9279468 -0.8383626 0.72973883 -1.679461
0003c0 c0 b9 9f 3f a2 3b f5 be af af 5a 40 f9 53 7f 3f
       1.2478561 -0.4789706 3.4169729 0.9973751
0003d0 bc af 6e c0 1d 3f 89 bf 0e 69 51 3f d3 73 29 3f
       -3.729476 -1.0722386 0.81800926 0.6619236
0003e0 88 c9 68 bf c6 10 c0 3d d1 ed 58 c0 30 c3 4e 3f
       -0.9093251 0.09378199 -3.3895152 0.8076658
0003f0 d9 f5 fc bf 03 e7 f5 3d bb bc 18 3f 63 2d 5c be
       -1.9762527 0.120069526 0.5966298 -0.21501689

model/transformer_block/multi_head_self_attention/dense/Tensordot/MatMul f4 [32, 32]
000000 50 be 94 bd 38 a4 f7 40 db ce 30 c0 10 10 88 40
       -0.07262862 7.738796 -2.7626255 4.2519608
000010 e0 5d 8a bf 51 4c 66 3f 14 ac 8b c0 e8 10 b9 3e
       -1.0809898 0.899602 -4.3647556 0.3614571
000020 1d 86 34 c0 c7 a9 eb bb 4d 09 bd c0 0c 37 10 c1
       -2.8206856 -0.00719187 -5.9073853 -9.013439
000030 81 3f 2b 40 ee a1 98 c0 63 41 5e 40 a6 24 2a 3f
       2.675751 -4.769767 3.472741 0.6646217
000040 88 66 20 bf 94 a4 92 3f f3 b7 3d 40 22 b7 a2 bf
       -0.6265645 1.1456475 2.9643524 -1.2712138
000050 78 a5 b5 3f 85 1c f6 3e 49 8f 60 40 56 37 f7 be
       1.4191122 0.48068634 3.5087454 -0.48284405
000060 0a 1e 4f 40 43 7f 5a bf 3c 46 87 bf 97 ea 8a be
       3.2362084 -0.85350436 -1.0568309 -0.27132103
000070 d7 3f 76 3e 82 5a 9b bf 8e e3 4b 40 94 19 8d be
       0.2404779 -1.2136996 3.1857638 -0.27558577
000080 0e 98 8b c0 ff 7a bf c0 8b 1b e5 c0 e1 39 69 c0
       -4.3623114 -5.983764 -7.159612 -3.6441576
000090 9d ae d5 3e 0a 0f 1f c0 4c 89 e7 3f 82 32 db c0
       0.41734782 -2.485293 1.8088775 -6.8499155
0000a0 94 49 fc 3e 15 60 8b c0 8e d4 0f c0 33 1b 81 c0
       0.49274886 -4.355479 -2.2473483 -4.03457
0000b0 a4 c5 f5 3f 9a 52 e2 bf a3 ae 39 40 33 85 33 c0
       1.920094 -1.7681458 2.901284 -2.8050048
0000c0 28 1f 4c be 63 8f c1 3f e7 ae 97 3f 38 60 30 40
       -0.1993376 1.5121883 1.1850251 2.7558727
0000d0 8f 91 f4 bf fe 6a bc 3d e9 c8 90 bf 37 67 51 40
       -1.9106921 0.09200095 -1.1311313 3.2719247
0000e0 df c5 f4 bf 59 f5 3a 40 75 39 a0 40 dd 3d 5f 40
       -1.9122885 2.9212248 5.007014 3.4881508
0000f0 14 7a 98 40 67 55 40 40 1c ae 03 c0 8e 72 1c 40
       4.764902 3.0052125 -2.0575018 2.4444919
000100 a8 d8 80 c0 4c 19 12 c1 79 10 37 40 20 74 2d 3f
       -4.0264473 -9.131176 2.8603804 0.6775532
000110 01 15 27 c0 7b f7 33 40 51 db 80 40 88 4b b1 c0
       -2.610657 2.81198 4.026772 -5.54047
000120 60 65 64 3f 26 0b 93 3f 81 b6 04 bf 21 b0 95 40
       0.89217186 1.1487777 -0.5184098 4.67775
000130 0a 4a c2 3f ae a8 de 3e 22 8e 1b c0 9e 96 57 40
       1.5178845 0.43488067 -2.43055 3.368568
000140 6c 7e c9 3e fa 3c 3c 40 03 85 b6 be eb 82 85 bf
       0.39354265 2.9412217 -0.35648355 -1.0430578
000150 43 8e 90 3e 36 af ae bf 1b 47 e4 bf 52 54 2d bf
       0.28233537 -1.364722 -1.78342 -0.6770679
000160 e2 37 9c 3f 53 16 73 bf 1b 7a d8 c0 0c 92 8e bf
       1.2204554 -0.9495594 -6.7649055 -1.113832
000170 bf 0e 93 c0 f7 b0 88 bf 57 36 2c 40 5c af b1 bf
       -4.59555 -1.0679005 2.6908166 -1.388164
000180 b9 ba 6d bf 3e 1d 58 40 a1 d7 81 bf b8 85 47 c0
       -0.9286304 3.3767848 -1.014393 -3.1175365
000190 04 36 28 bf 48 03 f7 bf 2b e6 2a c0 e0 8b 18 40
       -0.6570742 -1.9297876 -2.6702983 2.3835373
0001a0 66 ca c5 c0 21 b4 2c c0 c2 40 93 c0 46 63 91 c0
       -6.180957 -2.6984942 -4.601655 -4.5433683
0001b0 44 c3 6b bf ea f9 bb bf 51 10 da 3e c4 17 1e c0
       -0.92094827 -1.4685643 0.42590573 -2.4702005
0001c0 0d f1 27 3f 40 da 4d c0 69 0f eb bf 5f 48 91 3e
       0.6560219 -3.216446 -1.8364078 0.28375527
0001d0 a0 b0 d6 bf 45 ff 96 c0 5e ca 17 be ec 96 36 c0
       -1.6772652 -4.718661 -0.1482329 -2.8529615
0001e0 61 cd 45 c0 3e fc 4d c0 1f a4 5c 3f 41 5f 10 c0
       -3.0906603 -3.2185206 0.8618793 -2.2558138
0001f0 28 d2 f5 bf de a4 3c c0 69 7f ab c0 75 b2 14 c0
       -1.920476 -2.9475627 -5.359303 -2.3233922
000200 a6 0c dd c0 38 5c 01 c1 9a 29 95 3f ce b0 cf 3f
       -6.907794 -8.085014 1.1653321 1.6225832
000210 43 55 71 40 0f 6f ba 3e 8e 11 cc be 4c ed 55 bf
       3.770829 0.36412856 -0.39857143 -0.8356521
000220 bc e5 bd 40 60 5f 95 3f 7d 56 e2 bf 4e bf 06 c0
       5.9342937 1.1669731 -1.7682644 -2.1054263
000230 a6 4e d8 3f f5 59 da 3e c2 c3 b5 3f 56 64 aa c0
       1.6899002 0.42646757 1.4200366 -5.324748
000240 5e fa 90 40 49 5a db 3e 67 15 20 40 68 f0 8c be
       4.5305624 0.4284232 2.5013063 -0.27527165
000250 13 4b ad 40 8b 74 a5 3f 70 74 14 40 ee 5b 91 be
       5.4154143 1.2926191 2.3196068 -0.2839045
000260 15 1d 3e c0 2d 79 16 bf a0 02 e7 bf 7d 73 05 bf
       -2.970525 -0.5877865 -1.8047676 -0.52129346
000270 67 d5 67 c0 c4 17 63 bf 00 87 62 40 15 f9 c8 be
       -3.6224 -0.8870814 3.5394897 -0.39252535
000280 ff ca 3e bf ba 6c 14 3f f1 88 a8 40 8a 58 79 3f
       -0.745285 0.57978404 5.2667165 0.97400725
000290 89 ce 83 c0 66 7d fb 3e e7 49 73 c0 a6 06 b0 bf
       -4.118962 0.4911911 -3.8013856 -1.3752029
0002a0 7d b1 da be 7b 0b 80 40 38 36 13 41 a5 21 3b c0
       -0.42713538 4.0014014 9.200737 -2.9239285
0002b0 bb 8c 7e 40 82 47 87 40 3a 92 0f c0 87 86 63 40
       3.9773395 4.227479 -2.2433 3.555086
0002c0 f1 98 19 c0 c8 63 15 40 53 a0 37 c0 ed 64 79 3e
       -2.3999598 2.3342152 -2.8691604 0.24354906
0002d0 0b bd c4 3e cb 06 1a 40 66 f5 39 c0 3b ec 3c 3e
       0.38425478 2.4066646 -2.905603 0.1844949
0002e0 20 64 4d 3f d9 45 91 3f 31 93 9a 3f 42 5c f1 3e
       0.80230904 1.1349441 1.2076169 0.471407
0002f0 df 5a 7b 3f 69 95 52 3f 15 7c 73 40 d5 a5 88 3f
       0.98185533 0.8225923 3.8044484 1.0675608
000300 cb 5b 15 c0 d3 35 82 40 cc c4 2d 3f 71 cb 97 bf
       -2.3337276 4.0690703 0.67878413 -1.185896
000310 a3 ef 34 bf ab 46 86 bf 26 80 35 40 16 7a b1 bf
       -0.70678157 -1.0490316 2.8359466 -1.3865383
000320 41 fa 1b 40 62 17 34 40 ee 80 87 40 6e 81 c1 40
       2.4371493 2.8139272 4.2344885 6.0470495
000330 54 e6 cf bf 47 80 0f bf 3f f4 62 40 f7 1b b9 3f
       -1.6242166 -0.5605511 3.5461576 1.4461659
000340 37 71 9e bf 6a 32 a0 3e 53 f3 11 40 5a 83 cb 3f
       -1.23783 0.31288463 2.2804763 1.589946
000350 59 01 bb bf 44 29 9e 3e b7 c4 45 c0 bc e5 b0 40
       -1.4609786 0.30890858 -3.0901315 5.5280437
000360 f6 ef 94 bf cf 16 a3 40 ad ca fc 3f 8a f5 8e 40
       -1.163573 5.0965343 1.9749352 4.467473
000370 ef c4 27 40 60 cd 9e 40 c6 53 9f c0 31 72 a3 40
       2.6213949 4.96257 -4.9789762 5.1076894
000380 05 d5 2a 40 6d 8f 89 3f 18 b8 39 c0 0d 4a db bd
       2.6692517 1.0746895 -2.9018612 -0.107074834
000390 39 be c2 3e aa 9b 38 bf f5 fe a8 3f cd 47 37 40
       0.38035753 -0.72112525 1.3202807 2.8637574
0003a0 96 c7 6b bf 5b 6b a2 3f 09 05 9d 3f c8 f9 fd 3f
       -0.9210142 1.2689012 1.2267162 1.9841852
0003b0 8e ee 10 3f 57 57 ca 40 da 75 53 bf fb 93 44 c0
       0.56614006 6.3231616 -0.826017 -3.071532
0003c0 74 fe 4a 40 ea 7f 84 bd 41 50 99 3f 48 af 31 3f
       3.1717806 -0.0646971 1.1977617 0.6940808
0003d0 4f 2b 68 40 7c 22 89 40 6a f8 07 41 e2 47 3a bf
       3.6276433 4.2854595 8.498148 -0.72765934
0003e0 ab bd 8b bf da a9 4c bf 14 46 bb 40 b0 47 28 bf
       -1.0917257 -0.7994667 5.8523045 -0.65734386
0003f0 fe 6e d1 be 32 30 38 bf d3 74 e2 40 f8 45 83 be
       -0.40904993 -0.7194854 7.076761 -0.2563932
