astronet/tinho/models/plasticc/quantized-model-GR-noZ-28341-1654269564-0.5.1.dev73+g70f85f8-LL0.836.tflite (tflite, 60320 bytes, 21 tensors)

Const f4 [1, 100, 32]
0	0x00000000	0.0
1	0x3f800000	1.0
2	0x00000000	0.0
3	0x3f800000	1.0
4	0x00000000	0.0
5	0x3f800000	1.0
6	0x00000000	0.0
7	0x3f800000	1.0
8	0x00000000	0.0
9	0x3f800000	1.0
10	0x00000000	0.0
11	0x3f800000	1.0
12	0x00000000	0.0
13	0x3f800000	1.0
14	0x00000000	0.0
15	0x3f800000	1.0
16	0x00000000	0.0
17	0x3f800000	1.0
18	0x00000000	0.0
19	0x3f800000	1.0
20	0x00000000	0.0
21	0x3f800000	1.0
22	0x00000000	0.0
23	0x3f800000	1.0
24	0x00000000	0.0
25	0x3f800000	1.0
26	0x00000000	0.0
27	0x3f800000	1.0
28	0x00000000	0.0
29	0x3f800000	1.0
30	0x00000000	0.0
31	0x3f800000	1.0
32	0x3f576aa4	0.84147096
33	0x3f0a5140	0.5403023
34	0x3f087dba	0.53316844
35	0x3f58940e	0.84600914
36	0x3e9f393e	0.3109836
37	0x3f734e6a	0.95041525
38	0x3e35233a	0.17689219
39	0x3f7bf683	0.9842302
40	0x3dcc7576	0.099833414
41	0x3f7eb898	0.9950042
42	0x3d6636b0	0.056204498
43	0x3f7f9868	0.9984193
44	0x3d01815c	0.031617507
45	0x3f7fdf3c	0.99950004
46	0x3c91ab42	0.017781857
47	0x3f7ff5a3	0.99984187
48	0x3c23d657	0.009999833
49	0x3f7ffcb9	0.99995
50	0x3bb8445c	0.0056233834
51	0x3f7ffef7	0.9999842
52	0x3b4f3e20	0.0031622723
53	0x3f7fffac	0.999995
54	0x3ae91520	0.0017782785
55	0x3f7fffe5	0.9999984
56	0x3a83126d	0.0009999998
57	0x3f7ffff8	0.9999995
58	0x3a136a16	0.0005623413
59	0x3f7ffffd	0.9999998
60	0x39a5cb5f	0.00031622776
61	0x3f7fffff	0.99999994
62	0x393a7753	0.00017782794
63	0x3f800000	1.0
64	0x3f68c7b7	0.9092974
65	0xbed51133	-0.41614684
66	0x3f66f20a	0.9021307
67	0x3edce8b2	0.43146282
68	0x3f17541b	0.5911271
69	0x3f4e7bec	0.8065784
70	0x3eb247f6	0.34820527
71	0x3f6ffaa5	0.9374183
72	0x3e4b6ff9	0.19866933
73	0x3f7ae5a5	0.9800666
74	0x3de5d988	0.112231314
75	0x3f7e61f3	0.9936821
76	0x3d8170c8	0.063203394
77	0x3f7f7cf9	0.9980007
78	0x3d11a55c	0.03555809
79	0x3f7fd68e	0.9993676
80	0x3ca3d43e	0.019998666
81	0x3f7ff2e5	0.9998
82	0x3c38439d	0.011246589
83	0x3f7ffbdb	0.99993676
84	0x3bcf3ddd	0.0063245133
85	0x3f7ffeb0	0.99998
86	0x3b691508	0.0035565514
87	0x3f7fff96	0.9999937
88	0x3b031269	0.0019999987
89	0x3f7fffde	0.999998
90	0x3a936a14	0.0011246824
91	0x3f7ffff5	0.99999934
92	0x3a25cb5f	0.0006324555
93	0x3f7ffffd	0.9999998
94	0x39ba7753	0.00035565588
95	0x3f7fffff	0.99999994
96	0x3e1081c3	0.14112
97	0xbf7d7026	-0.9899925
98	0x3f7e45d7	0.9932532
99	0xbded7fa8	-0.11596614
100	0x3f5009c2	0.8126489
101	0x3f152f57	0.5827536
102	0x3f022f6d	0.50853616
103	0x3f5c6d29	0.86104065
104	0x3e974e6d	0.29552022
105	0x3f7490ef	0.9553365
106	0x3e2beed8	0.1679033
107	0x3f7c5d9e	0.9858035
108	0x3dc1ffc1	0.09472609
109	0x3f7ed94f	0.99550337
110	0x3d5a694d	0.05332308
111	0x3f7fa2c3	0.9985773
112	0x3cf5b920	0.029995501
113	0x3f7fe283	0.99955004
114	0x3c8a31c7	0.016869439
115	0x3f7ff6ad	0.9998577
116	0x3c1b6e11	0.009486691
117	0x3f7ffd0d	0.999955
118	0x3baecfa8	0.005334813
119	0x3f7fff11	0.99998575
120	0x3b449b93	0.0029999956
121	0x3f7fffb5	0.9999955
122	0x3add1f1b	0.0016870232
123	0x3f7fffe8	0.99999857
124	0x3a78b10d	0.0009486832
125	0x3f7ffff8	0.9999995
126	0x3a0bd97e	0.0005334838
127	0x3f7ffffe	0.9999999
128	0xbf41bdcf	-0.7568025
129	0xbf275530	-0.6536436
130	0x3f4749ed	0.77847177
131	0xbf20af9d	-0.62767965
132	0x3f741dde	0.95358074
133	0x3e9a2eb1	0.30113748
134	0x3f271fbc	0.652828
135	0x3f41ebed	0.7575062
136	0x3ec761d7	0.38941833
137	0x3f6bcaa7	0.921061
138	0x3e6465c6	0.22304448
139	0x3f798d09	0.9748083
140	0x3e012e88	0.12615407
141	0x3f7df469	0.99201065
142	0x3d918dc8	0.07107121
143	0x3f7f5a47	0.9974713
144	0x3d23cbdb	0.039989334
145	0x3f7fcb94	0.9992001
146	0x3cb840a2	0.022491757
147	0x3f7fef6c	0.99974704
148	0x3c4f3ccd	0.012648773
149	0x3f7ffac2	0.99992
150	0x3be914a7	0.0071130577
151	0x3f7ffe58	0.9999747
152	0x3b831258	0.0039999895
153	0x3f7fff7a	0.999992
154	0x3b136a0e	0.0022493633
155	0x3f7fffd6	0.9999975
156	0x3aa5cb5c	0.0012649107
157	0x3f7ffff3	0.9999992
158	0x3a3a7752	0.0007113117
159	0x3f7ffffc	0.99999976
160	0xbf757c10	-0.9589243
161	0x3e913c2c	0.2836622
162	0x3ea5dad6	0.3239352
163	0xbf723240	-0.94607925
164	0x3f7ffc7f	0.99994653
165	0xbc2972d4	-0.010342319
166	0x3f46caab	0.77652997
167	0x3f214cf1	0.6300803
168	0x3ef57744	0.47942555
169	0x3f60a940	0.87758255
170	0x3e8e11ee	0.27748054
171	0x3f75f27c	0.96073127
172	0x3e213c1e	0.15745589
173	0x3f7cce81	0.987526
174	0x3db5db21	0.08879686
175	0x3f7efd1e	0.99604976
176	0x3d4cb6f5	0.04997917
177	0x3f7fae19	0.99875027
178	0x3ce64dfe	0.028113361
179	0x3f7fe619	0.99960476
180	0x3c818581	0.01581073
181	0x3f7ff7cf	0.999875
182	0x3c11acbb	0.00889128
183	0x3f7ffd69	0.9999605
184	0x3ba3d6de	0.0049999794
185	0x3f7fff2e	0.9999875
186	0x3b38448c	0.002811703
187	0x3f7fffbe	0.99999607
188	0x3acf3e31	0.0015811381
189	0x3f7fffeb	0.99999875
190	0x3a691526	0.0008891396
191	0x3f7ffff9	0.9999996
192	0xbe8f0f8c	-0.2794155
193	0x3f75cdb8	0.96017027
194	0xbe6be574	-0.23036748
195	0xbf791d53	-0.9731037
196	0x3f72784d	0.94714814
197	0xbea43f6f	-0.32079646
198	0x3f603089	0.8757406
199	0x3ef72f34	0.482782
200	0x3f108c69	0.5646425
201	0x3f534932	0.8253356
202	0x3ea97dfd	0.33103934
203	0x3f7190e2	0.943617
204	0x3e41206f	0.18860029
205	0x3f7b67e3	0.98205394
206	0x3dda19c1	0.106494434
207	0x3f7e8b51	0.9943133
208	0x3d759cd1	0.059964005
209	0x3f7f8a12	0.99820054
210	0x3d0a2cbf	0.03373408
211	0x3f7fdab3	0.99943084
212	0x3c9b6c46	0.018972527
213	0x3f7ff434	0.99982
214	0x3c2ecf04	0.010669474
215	0x3f7ffc45	0.9999431
216	0x3bc49b59	0.005999964
217	0x3f7ffed2	0.999982
218	0x3b5d1f06	0.0033740415
219	0x3f7fffa1	0.99999434
220	0x3af8b105	0.0018973654
221	0x3f7fffe2	0.9999982
222	0x3a8bd97d	0.0010669675
223	0x3f7ffff6	0.9999994
224	0x3f283046	0.6569866
225	0x3f40ffbd	0.75390226
226	0xbf36b66e	-0.71372116
227	0xbf334f60	-0.7004299
228	0x3f4ce86f	0.80042166
229	0xbf1974bb	-0.5994374
230	0x3f728444	0.9473307
231	0x3ea3f8b9	0.32025698
232	0x3f24eb73	0.64421767
233	0x3f43ccb3	0.7648422
234	0x3ec460df	0.38355157
235	0x3f6c6bc5	0.92351943
236	0x3e60d350	0.2195561
237	0x3f79c0ea	0.9755999
238	0x3dfe46ba	0.12415834
239	0x3f7e04e9	0.9922624
240	0x3d8f3e32	0.06994285
241	0x3f7f5f81	0.997551
242	0x3d213160	0.03935373
243	0x3f7fcd3b	0.9992253
244	0x3cb552a6	0.022134136
245	0x3f7feff2	0.999755
246	0x3c4bf12a	0.012447635
247	0x3f7ffaec	0.9999225
248	0x3be55fc7	0.006999943
249	0x3f7ffe65	0.9999755
250	0x3b80fcbe	0.003936379
251	0x3f7fff7e	0.99999225
252	0x3b1111ec	0.0022135926
253	0x3f7fffd7	0.99999756
254	0x3aa32866	0.0012447953
255	0x3f7ffff3	0.9999992

model/transformer_block/sequential/dense_5/BiasAdd/ReadVariableOp f4 [32]
0	0xbec6ae18	-0.38804698
1	0x40daf056	6.841838
2	0xc0e81a51	-7.2532125
3	0xbf3fbdaa	-0.7489878
4	0xc06c5e96	-3.693273
5	0xc07f16c0	-3.9857635
6	0x3f634d1f	0.8878955
7	0x3fc06c68	1.5033083
8	0xbf7487e7	-0.9551987
9	0x40289807	2.634279
10	0x401684b1	2.3518488
11	0x3ed47309	0.41494015
12	0x3f8e41a9	1.1113788
13	0xc0536148	-3.3028126
14	0xc03617ac	-2.8451948
15	0x3f76d9c0	0.9642601
16	0x3f61cd5e	0.8820399
17	0x4056ceaa	3.3563638
18	0x3f841f6d	1.032209
19	0x411002df	9.000701
20	0x3fd389f1	1.6526471
21	0x400f530e	2.2394443
22	0xbfcfbc97	-1.6229428
23	0xbe702689	-0.234522
24	0xc057f4f6	-3.3743262
25	0x403ac1da	2.9180818
26	0x40b54132	5.6642084
27	0x408e4949	4.446446
28	0xbff31511	-1.8990804
29	0x40f7b01e	7.7402487
30	0xc0a85a85	-5.2610497
31	0x3f080c9c	0.5314424

model/transformer_block/sequential/dense_4/BiasAdd/ReadVariableOp f4 [128]
0	0xc087c19b	-4.2423835
1	0xc01eb2f5	-2.4796727
2	0xc029b8c2	-2.6519017
3	0xbfcfc87a	-1.6233056
4	0xbff3d05e	-1.9047964
5	0xc037012e	-2.859447
6	0xc0223ac9	-2.534838
7	0xbf26205b	-0.6489312
8	0xc0057ead	-2.0858567
9	0xc0243f86	-2.5663772
10	0xc0517659	-3.2728484
11	0xc0574118	-3.363348
12	0xc02cdb9d	-2.7009041
13	0xc098126f	-4.75225
14	0xbfe518b5	-1.7898165
15	0xc09b3e12	-4.851327
16	0xc0004c22	-2.0046468
17	0xc0320489	-2.7815268
18	0xc01c391a	-2.4409852
19	0xbfc15be9	-1.5106174
20	0xbfa5c5ea	-1.2951024
21	0xc06f8eaa	-3.7430825
22	0xc037bfd9	-2.8710845
23	0xc019c8e9	-2.4028876
24	0xbffa347e	-1.9547269
25	0xc0106dd7	-2.256704
26	0xbf93175a	-1.1491501
27	0xc017f83a	-2.3745255
28	0xbf7dc36d	-0.9912632
29	0xbffe2fdc	-1.9858356
30	0xc004ffc9	-2.078112
31	0xc0444d9d	-3.0672371
32	0xc04b7a67	-3.1793458
33	0xbfbc4ff7	-1.4711903
34	0xc04eb898	-3.2300167
35	0xbf7581ae	-0.95901
36	0xc0012899	-2.018103
37	0xc02db632	-2.7142453
38	0xbee349f8	-0.4439237
39	0xc0570202	-3.3594975
40	0xbfafb727	-1.3727769
41	0xc054974d	-3.3217347
42	0xc06907a1	-3.6410906
43	0xc0656814	-3.5844774
44	0xc006ce25	-2.106332
45	0xc05b884a	-3.4301934
46	0xbfe7ccb0	-1.8109341
47	0xc04d73aa	-3.2101846
48	0xc069e11f	-3.6543653
49	0xc0340beb	-2.8132274
50	0xbff625fa	-1.923034
51	0xbfe4c835	-1.7873598
52	0xc092b182	-4.5841684
53	0xbff50563	-1.9142269
54	0xc04e794f	-3.226154
55	0xbfd41ac7	-1.6570672
56	0xbfca31ea	-1.5796483
57	0xbfb97229	-1.4487964
58	0xbfd8c168	-1.6934023
59	0xc0473438	-3.1125622
60	0xc02ec857	-2.7309778
61	0xbfafa120	-1.3721046
62	0xc02df80c	-2.7182646
63	0xbfd8d41b	-1.693973
64	0xc040ffe9	-3.0156195
65	0xc022ebdf	-2.5456464
66	0xc0115956	-2.2710776
67	0xc0140c39	-2.313246
68	0xc00d63af	-2.2092092
69	0xbfa97a04	-1.3240361
70	0xbf62217f	-0.8833236
71	0xbfcf6ee2	-1.6205714
72	0xc0882151	-4.254067
73	0xc0394d41	-2.8953402
74	0xc037f64b	-2.8744075
75	0x3eab063e	0.334032
76	0xc0622cc1	-3.5339816
77	0xc027453c	-2.6136007
78	0xc0195570	-2.3958397
79	0xbf97a68f	-1.1847705
80	0xbfdee43f	-1.7413405
81	0xc03e7972	-2.9761624
82	0xc01af3ab	-2.4211223
83	0xbf8caa42	-1.0989459
84	0xc02cec06	-2.7019057
85	0xc04654c7	-3.0989244
86	0xc04ad806	-3.169435
87	0xbfc6ece1	-1.554104
88	0xc0260187	-2.5938432
89	0xc04be2b6	-3.1857123
90	0xc014b59a	-2.323584
91	0xc0754afa	-3.8327012
92	0xc0192cca	-2.3933587
93	0xbfd65ecc	-1.674768
94	0xc0398056	-2.898458
95	0xbfbca1d1	-1.4736882
96	0xc032a6d3	-2.7914321
97	0xbfce53c5	-1.6119314
98	0xc0421dc7	-3.0330675
99	0xbf4c7a96	-0.7987455
100	0xc0225cb8	-2.536909
101	0xc0867ac3	-4.2024856
102	0xbff322f3	-1.8995041
103	0xc0244392	-2.5666242
104	0xc0832c36	-4.099147
105	0xbf2f8f8d	-0.68578416
106	0xbfe9af65	-1.8256651
107	0xc051c679	-3.2777388
108	0xbfcf8eee	-1.6215494
109	0xbfa682b8	-1.3008642
110	0xc0068aeb	-2.1022289
111	0xc01a64fe	-2.412414
112	0xbf9dbafc	-1.2322688
113	0xc03b7642	-2.929093
114	0xc00a3912	-2.1597333
115	0xc0329674	-2.790433
116	0xbfe7dfd3	-1.8115181
117	0xbfffffcb	-1.9999937
118	0xc01fca0b	-2.4967067
119	0xc014ae6d	-2.323146
120	0xc0083616	-2.1283011
121	0xbf910d91	-1.1332265
122	0xc05e933d	-3.4777367
123	0xbf94cf49	-1.1625758
124	0xbe83fae6	-0.25777358
125	0xbfec2129	-1.844762
126	0xc00a8747	-2.1645067
127	0xc027aca2	-2.6199117

model/transformer_block/multi_head_self_attention/dense/BiasAdd/ReadVariableOp f4 [32]
0	0x3f1ed11f	0.62037843
1	0x40b6f2f2	5.7171564
2	0xbfb88883	-1.441666
3	0xbff67dd5	-1.9257151
4	0xbfac278d	-1.344957
5	0x3f406d26	0.7516655
6	0x4082ab74	4.0834293
7	0xbf9889c2	-1.191704
8	0x3f006a8e	0.5016259
9	0x3f674ef9	0.9035488
10	0x3fcdd241	1.6079789
11	0x4049959b	3.1497562
12	0xc0652cd8	-3.580862
13	0xbf552a92	-0.8326808
14	0x3f0d215b	0.5512902
15	0xbea2482e	-0.31695694
16	0x3f2858db	0.6576058
17	0xbf911a0f	-1.1336077
18	0xbf7e6d24	-0.99385285
19	0xc05d7762	-3.4604115
20	0x3c481189	0.012211212
21	0xc065262e	-3.5804553
22	0x3f360aa1	0.7110997
23	0x3ff9e34c	1.952249
24	0xbee1e9da	-0.44123727
25	0xbffc8f7a	-1.9731286
26	0x40371a4b	2.8609798
27	0xbe9a0c7c	-0.3008765
28	0xbfcd8328	-1.6055651
29	0xc03afd0f	-2.9216955
30	0x3e48a731	0.19595028
31	0xbfb091a1	-1.3794442

model/transformer_block/multi_head_self_attention/dense_3/BiasAdd/ReadVariableOp f4 [32]
0	0xbca3f13c	-0.02001249
1	0xbf0928c3	-0.5357782
2	0xc00b3d42	-2.1756139
3	0xc09af817	-4.8427844
4	0xc0caddab	-6.339559
5	0x3e42ce5b	0.19024031
6	0x3fdf98e8	1.7468538
7	0xbfe5cdf0	-1.7953472
8	0xbfd9cd74	-1.7015824
9	0x40024253	2.035298
10	0xbf87b8df	-1.0603293
11	0xc05b79f2	-3.429318
12	0xbfc67029	-1.5502979
13	0xc148d7e4	-12.552708
14	0x3f8b36fe	1.0876157
15	0x3fa5495c	1.2913013
16	0x40d6fa15	6.7180276
17	0x408afe68	4.3435555
18	0x406dc63f	3.715225
19	0x40a877ff	5.264648
20	0x3ff5ff91	1.9218618
21	0x3f3530b1	0.7077742
22	0xc0fb12c2	-7.84604
23	0xbf9f89a8	-1.2463884
24	0x3fe28aa3	1.7698559
25	0x40064773	2.098111
26	0x3f8b5d53	1.0887855
27	0x4127e861	10.494233
28	0xc03b84a0	-2.9299698
29	0x40eae6b4	7.340662
30	0x406689a7	3.6021516
31	0x3fae946e	1.3639047

model/transformer_block/multi_head_self_attention/dense_2/BiasAdd/ReadVariableOp f4 [32]
0	0x3f3d5ca3	0.7396948
1	0xbfbef4ec	-1.4918494
2	0xc0348ad4	-2.8209734
3	0x3ec4d023	0.38440046
4	0x3f43ade2	0.764372
5	0x3f56e18a	0.83937895
6	0x3ef967e3	0.48712072
7	0x3f2e1f90	0.6801691
8	0x3f76b119	0.9636398
9	0xbe531136	-0.20612034
10	0x3fc77471	1.558241
11	0xc0960e17	-4.68922
12	0xbe6302c2	-0.22169021
13	0x402f12e5	2.7355282
14	0xc0a4af61	-5.1464086
15	0x4022334a	2.5343804
16	0xbf374d9f	-0.71602815
17	0x3f191e7c	0.5981214
18	0xbec00f1e	-0.37511533
19	0x3fde3e8e	1.736284
20	0x3e300ab5	0.17191584
21	0x3e8b6571	0.2722583
22	0x400043c1	2.0041354
23	0x3f4de011	0.80420023
24	0xc0061c4e	-2.0954776
25	0xbfd302d0	-1.6485233
26	0xc00f4bdb	-2.2390049
27	0x3f02ec53	0.5114185
28	0x40a5d076	5.181697
29	0x3fefca17	1.8733548
30	0xc0838fee	-4.1113195
31	0xbfe6fd2b	-1.8046011

model/transformer_block/multi_head_self_attention/dense_1/BiasAdd/ReadVariableOp f4 [32]
0	0x3e89b229	0.26893738
1	0x3f3dd8af	0.7415876
2	0xbd73e95e	-0.05954873
3	0x3da8b4b3	0.08237591
4	0x3e4fc16d	0.2028863
5	0x3e762afa	0.24039832
6	0x3e1076ac	0.1410777
7	0x3d4e7b95	0.050410826
8	0x3e0819b1	0.1329105
9	0x3dfae901	0.12251473
10	0x3dad3203	0.084568046
11	0x3d04e6f1	0.032446805
12	0xbe1eea12	-0.15518978
13	0xbd5016b1	-0.05080289
14	0xbce02640	-0.027361989
15	0xbc30ef69	-0.010799267
16	0xbedad83d	-0.42743102
17	0x3e81102a	0.25207645
18	0xbde8084c	-0.113297075
19	0x3f4af56d	0.7928074
20	0xbdd2207a	-0.10260101
21	0xbef4a2f5	-0.47780576
22	0x3e22f8af	0.15915178
23	0x398cb57e	0.00026838103
24	0xbea6d555	-0.32584634
25	0x3eb9acce	0.36264652
26	0xbe7a7d33	-0.24461822
27	0x3de25ce4	0.11052874
28	0xbb5d2b8a	-0.0033747875
29	0x3e604a29	0.2190329
30	0xbbadb586	-0.0053011803
31	0x3ddf9285	0.10916618

model/transformer_block/layer_normalization/batchnorm/ReadVariableOp f4 [32]
0	0x3f3d9a60	0.7406368
1	0x3f50467d	0.81357557
2	0xbfdcb9da	-1.7244217
3	0xbf930da0	-1.1488533
4	0xbd048338	-0.032351702
5	0xc00893b1	-2.1340144
6	0x3f5cd401	0.8626099
7	0x3e1e2b1c	0.15446132
8	0x40153b1c	2.3317327
9	0x401d0947	2.4536912
10	0xc0093d89	-2.1443808
11	0xbff719cf	-1.9304751
12	0xbfa31a05	-1.2742316
13	0xbffd0524	-1.9767194
14	0xbeaa6da9	-0.3328679
15	0xbf689016	-0.9084486
16	0xbd31f1e4	-0.043443576
17	0x4054a11f	3.322334
18	0xbee73e0a	-0.4516452
19	0x3ff2e746	1.8976829
20	0x3f3759c1	0.7162133
21	0xbfa64feb	-1.2993139
22	0xbe4365be	-0.1908178
23	0xbf208d3a	-0.62715495
24	0xbff9ca62	-1.9514887
25	0x3f4aac2d	0.7916897
26	0xbfd5ce0e	-1.6703508
27	0x4003310b	2.0498683
28	0x3fbd3e3c	1.4784617
29	0x40596883	3.397004
30	0xc0267d96	-2.6014152
31	0x4024bb89	2.5739462

model/transformer_block/layer_normalization/batchnorm/mul/ReadVariableOp f4 [32]
0	0x40567760	3.351036
1	0x40671eea	3.6112618
2	0x40689f7a	3.6347337
3	0x4055662a	3.3343606
4	0x405df469	3.4680426
5	0x404b1ee7	3.1737611
6	0x407f308a	3.9873376
7	0x40386f68	2.8817997
8	0x40484dd1	3.1297495
9	0x407f7d19	3.9920104
10	0x40727370	3.7882957
11	0x4033e410	2.8107948
12	0x403a76c7	2.9134996
13	0x408ad38d	4.338324
14	0x407d764b	3.960345
15	0x40b7df3f	5.7460017
16	0x40992d9d	4.786818
17	0x4072bd95	3.7928212
18	0x4082ab6c	4.0834255
19	0x403f7105	2.9912732
20	0x408c1990	4.3781204
21	0x4034d37c	2.825408
22	0x408d2f06	4.41199
23	0x40895455	4.2915444
24	0x40848c8e	4.1421576
25	0x40539d14	3.3064623
26	0x406fe9bf	3.7486417
27	0x40022134	2.0332766
28	0x4036ecd3	2.8582046
29	0x40842042	4.1289377
30	0x407b68a7	3.9282625
31	0x402800a2	2.6250386

model/transformer_block/layer_normalization_1/batchnorm/ReadVariableOp f4 [32]
0	0x3c08a207	0.008339412
1	0xba0eb150	-0.0005443292
2	0x3e75fc50	0.24022031
3	0xbea8f67b	-0.3300055
4	0x3f5dae44	0.86594033
5	0x3e482f0f	0.19549201
6	0xbcde1182	-0.027107958
7	0x3c49d85b	0.01231965
8	0x3f0f0145	0.5586131
9	0xbc6b8b11	-0.014376418
10	0x3f76be21	0.96383864
11	0x3d9226ae	0.07136284
12	0xbdb3174c	-0.08744678
13	0x3f8c147b	1.094375
14	0x3d422793	0.047401022
15	0x3d4e5d4b	0.05038194
16	0xbec850f1	-0.39124253
17	0xbefe7cd5	-0.49704614
18	0xbac8cf58	-0.0015320582
19	0xbc36a9e6	-0.011148905
20	0x3c6eb869	0.014570334
21	0x3c0a5306	0.008442646
22	0x3bc2d23c	0.005945472
23	0x3ec86a42	0.39143568
24	0x3dbde98c	0.09273061
25	0x3bba4fd8	0.0056857876
26	0xbec93e93	-0.39305553
27	0x3d4b9abb	0.04970811
28	0x3d0fcb93	0.035106253
29	0xbc3be6ff	-0.011468648
30	0x3c7e7c05	0.015532498
31	0x3d8ba4a7	0.06818514

model/transformer_block/layer_normalization_1/batchnorm/mul/ReadVariableOp f4 [32]
0	0x3d08c2b5	0.033388812
1	0x3c8c5df9	0.017134653
2	0x3fc31e91	1.5243703
3	0x40070aed	2.1100419
4	0x402a567c	2.6615286
5	0x40443c7b	3.0661914
6	0x400c4f61	2.192345
7	0xbc728260	-0.014801592
8	0x40283826	2.628427
9	0x40085d1c	2.130683
10	0x404dc64e	3.2152286
11	0x3ff7fcf2	1.9374068
12	0x3f3f8a25	0.74820167
13	0x4034a9d5	2.8228657
14	0x3f8f20e1	1.1181909
15	0x3fd0a086	1.6298988
16	0x3fc5f282	1.5464633
17	0x401749c1	2.3638766
18	0x3d5c05b6	0.053716384
19	0x3c3b7a41	0.011442722
20	0x3ea998ea	0.33124477
21	0x3da5b1ce	0.08090554
22	0xbc2c05f9	-0.010499471
23	0x4000d29f	2.0128553
24	0x3fa33515	1.2750574
25	0xbc35873d	-0.011079607
26	0x4000d0ee	2.012752
27	0x3f9eef6a	1.2416813
28	0x3dc1f474	0.09470454
29	0x3cbbbc15	0.022916833
30	0x3adedd6c	0.0017003245
31	0x40085edc	2.1307898

model/conv_embedding/conv1d/BiasAdd/ReadVariableOp f4 [32]
0	0xc0e59c69	-7.175343
1	0xc1083c0e	-8.514662
2	0xc114648e	-9.2745495
3	0xbfbabcdc	-1.4588885
4	0xc09748ef	-4.727653
5	0xc0288bea	-2.6335397
6	0xc0f6915c	-7.705244
7	0xc0e1f887	-7.061588
8	0xc0a477fe	-5.1396475
9	0xc0ed4656	-7.414836
10	0xc05d3956	-3.4566245
11	0xc0bc79ee	-5.889884
12	0x3f274afe	0.65348804
13	0xbe06dd76	-0.13170418
14	0xc10d4ee3	-8.831759
15	0x3f5ada85	0.85489684
16	0x3f90c43d	1.1309887
17	0x3fbca606	1.4738166
18	0xc183d042	-16.476688
19	0x4045a4f8	3.088194
20	0xc01c083a	-2.438002
21	0xbe7a414d	-0.24438973
22	0xbfea3f78	-1.8300619
23	0xc0874042	-4.226594
24	0xc01a03ee	-2.4064898
25	0xc0dc5098	-6.884838
26	0xbd89dc12	-0.06731428
27	0xc0e005d8	-7.0007133
28	0x3f44e4ee	0.7691182
29	0xc0e30518	-7.094372
30	0x3f128ecc	0.5724914
31	0xc0a4832c	-5.141012

model/cluster_dense_6/BiasAdd/ReadVariableOp f4 [14]
0	0x3eca0352	0.39455658
1	0xbf657a19	-0.8963943
2	0xc02c6cac	-2.6941328
3	0x3fdb0d18	1.7113371
4	0x3fe1b359	1.7632858
5	0xc032efe5	-2.795892
6	0x4007d407	2.1223161
7	0xbfdfc09a	-1.7480652
8	0xbeded43e	-0.43521303
9	0x400395d2	2.0560193
10	0xbfb15b09	-1.3855907
11	0x3fcf96ee	1.6217935
12	0xc093d7e2	-4.620103
13	0x3f3f506f	0.74732107

model/cluster_dense_6/MatMul f4 [14, 32]
0	0x3a93c963	0.0011275228
1	0xbd526c51	-0.05137283
2	0xbf45ecdf	-0.7731456
3	0xbf110b55	-0.56657916
4	0xbf45ecdf	-0.7731456
5	0xbfb1a77d	-1.3879238
6	0xbf9824d1	-1.1886235
7	0x3a93c963	0.0011275228
8	0xbf85a97f	-1.0442351
9	0xbe1ef3f7	-0.15522753
10	0xbf746c18	-0.9547744
11	0xbedd26ba	-0.4319361
12	0xbe8f72f4	-0.2801739
13	0x3e45d9b7	0.19321333
14	0xbe8f72f4	-0.2801739
15	0xbe8f72f4	-0.2801739
16	0x3e45d9b7	0.19321333
17	0x3a93c963	0.0011275228
18	0xbe1ef3f7	-0.15522753
19	0x3de53761	0.11192203
20	0xbe8f72f4	-0.2801739
21	0x3de53761	0.11192203
22	0xbe1ef3f7	-0.15522753
23	0xbe1ef3f7	-0.15522753
24	0x3de53761	0.11192203
25	0xbd526c51	-0.05137283
26	0xbe1ef3f7	-0.15522753
27	0xbf45ecdf	-0.7731456
28	0x3a93c963	0.0011275228
29	0xbd526c51	-0.05137283
30	0xbe1ef3f7	-0.15522753
31	0xbfb1a77d	-1.3879238
32	0xbd526c51	-0.05137283
33	0xbd526c51	-0.05137283
34	0x3e45d9b7	0.19321333
35	0x3e45d9b7	0.19321333
36	0xbfb1a77d	-1.3879238
37	0xbf45ecdf	-0.7731456
38	0xbd526c51	-0.05137283
39	0x3a93c963	0.0011275228
40	0xbe1ef3f7	-0.15522753
41	0xbfb1a77d	-1.3879238
42	0xbf45ecdf	-0.7731456
43	0x3e45d9b7	0.19321333
44	0x3e45d9b7	0.19321333
45	0xbf110b55	-0.56657916
46	0xbfb1a77d	-1.3879238
47	0x3e45d9b7	0.19321333
48	0xbd526c51	-0.05137283
49	0xbfb1a77d	-1.3879238
50	0xbe8f72f4	-0.2801739
51	0x3a93c963	0.0011275228
52	0xbd526c51	-0.05137283
53	0x3de53761	0.11192203
54	0xbe1ef3f7	-0.15522753
55	0xbfb1a77d	-1.3879238
56	0x3e45d9b7	0.19321333
57	0xbe1ef3f7	-0.15522753
58	0x3e45d9b7	0.19321333
59	0x3e45d9b7	0.19321333
60	0xbe1ef3f7	-0.15522753
61	0xbd526c51	-0.05137283
62	0xbe1ef3f7	-0.15522753
63	0x3e45d9b7	0.19321333
64	0xbe1ef3f7	-0.15522753
65	0x3e45d9b7	0.19321333
66	0x3e45d9b7	0.19321333
67	0x3e45d9b7	0.19321333
68	0x3e45d9b7	0.19321333
69	0xbfb1a77d	-1.3879238
70	0x3e45d9b7	0.19321333
71	0x3a93c963	0.0011275228
72	0x3e45d9b7	0.19321333
73	0xbfb1a77d	-1.3879238
74	0x3e45d9b7	0.19321333
75	0x3e45d9b7	0.19321333
76	0xbfb1a77d	-1.3879238
77	0xbfb1a77d	-1.3879238
78	0xbfb1a77d	-1.3879238
79	0xbfb1a77d	-1.3879238
80	0xbfb1a77d	-1.3879238
81	0xbfb1a77d	-1.3879238
82	0xbed11da3	-0.40842924
83	0x3de53761	0.11192203
84	0xbfb1a77d	-1.3879238
85	0xbd526c51	-0.05137283
86	0xbd526c51	-0.05137283
87	0x3e45d9b7	0.19321333
88	0xbfb1a77d	-1.3879238
89	0xbd526c51	-0.05137283
90	0xbfb1a77d	-1.3879238
91	0xbfb1a77d	-1.3879238
92	0xbe8f72f4	-0.2801739
93	0x3a93c963	0.0011275228
94	0xbd526c51	-0.05137283
95	0xbfb1a77d	-1.3879238
96	0xbed11da3	-0.40842924
97	0x3a93c963	0.0011275228
98	0xbf110b55	-0.56657916
99	0x3e45d9b7	0.19321333
100	0xbed11da3	-0.40842924
101	0x3e45d9b7	0.19321333
102	0xbfb1a77d	-1.3879238
103	0xbd526c51	-0.05137283
104	0xbf110b55	-0.56657916
105	0xbd526c51	-0.05137283
106	0xbfab9de6	-1.3407562
107	0x3a93c963	0.0011275228
108	0xbf110b55	-0.56657916
109	0xbf746c18	-0.9547744
110	0xbf746c18	-0.9547744
111	0x3e45d9b7	0.19321333
112	0xbed11da3	-0.40842924
113	0xbe1ef3f7	-0.15522753
114	0xbe1ef3f7	-0.15522753
115	0x3a93c963	0.0011275228
116	0xbe8f72f4	-0.2801739
117	0x3de53761	0.11192203
118	0xbd526c51	-0.05137283
119	0xbfab9de6	-1.3407562
120	0xbfb1a77d	-1.3879238
121	0x3a93c963	0.0011275228
122	0xbf110b55	-0.56657916
123	0xbfb1a77d	-1.3879238
124	0xbe8f72f4	-0.2801739
125	0xbd526c51	-0.05137283
126	0xbe1ef3f7	-0.15522753
127	0x3e45d9b7	0.19321333
128	0xbd526c51	-0.05137283
129	0x3a93c963	0.0011275228
130	0xbf9824d1	-1.1886235
131	0xbf45ecdf	-0.7731456
132	0xbf110b55	-0.56657916
133	0x3e45d9b7	0.19321333
134	0xbf110b55	-0.56657916
135	0x3a93c963	0.0011275228
136	0xbf9824d1	-1.1886235
137	0xbfb1a77d	-1.3879238
138	0xbfb1a77d	-1.3879238
139	0xbf45ecdf	-0.7731456
140	0x3a93c963	0.0011275228
141	0xbfab9de6	-1.3407562
142	0xbf110b55	-0.56657916
143	0x3a93c963	0.0011275228
144	0x3e45d9b7	0.19321333
145	0x3a93c963	0.0011275228
146	0xbe1ef3f7	-0.15522753
147	0x3a93c963	0.0011275228
148	0xbed11da3	-0.40842924
149	0x3e45d9b7	0.19321333
150	0xbe1ef3f7	-0.15522753
151	0x3e45d9b7	0.19321333
152	0xbfb1a77d	-1.3879238
153	0xbd526c51	-0.05137283
154	0x3e45d9b7	0.19321333
155	0xbe1ef3f7	-0.15522753
156	0xbe1ef3f7	-0.15522753
157	0xbd526c51	-0.05137283
158	0xbe1ef3f7	-0.15522753
159	0xbe8f72f4	-0.2801739
160	0xbe1ef3f7	-0.15522753
161	0xbd526c51	-0.05137283
162	0x3e45d9b7	0.19321333
163	0x3de53761	0.11192203
164	0xbfab9de6	-1.3407562
165	0xbfab9de6	-1.3407562
166	0xbf746c18	-0.9547744
167	0x3de53761	0.11192203
168	0xbfb1a77d	-1.3879238
169	0xbe8f72f4	-0.2801739
170	0x3e45d9b7	0.19321333
171	0xbfb1a77d	-1.3879238
172	0xbf110b55	-0.56657916
173	0x3e45d9b7	0.19321333
174	0x3e45d9b7	0.19321333
175	0xbed11da3	-0.40842924
176	0xbe8f72f4	-0.2801739
177	0x3e45d9b7	0.19321333
178	0xbe8f72f4	-0.2801739
179	0x3de53761	0.11192203
180	0xbf110b55	-0.56657916
181	0xbd526c51	-0.05137283
182	0x3a93c963	0.0011275228
183	0x3e45d9b7	0.19321333
184	0xbf45ecdf	-0.7731456
185	0x3de53761	0.11192203
186	0xbf45ecdf	-0.7731456
187	0xbf9824d1	-1.1886235
188	0xbd526c51	-0.05137283
189	0xbe8f72f4	-0.2801739
190	0x3de53761	0.11192203
191	0x3e45d9b7	0.19321333
192	0xbd526c51	-0.05137283
193	0x3a93c963	0.0011275228
194	0x3e45d9b7	0.19321333
195	0xbf746c18	-0.9547744
196	0xbf746c18	-0.9547744
197	0x3e45d9b7	0.19321333
198	0xbf9824d1	-1.1886235
199	0x3de53761	0.11192203
200	0xbfb1a77d	-1.3879238
201	0x3e45d9b7	0.19321333
202	0xbfb1a77d	-1.3879238
203	0xbd526c51	-0.05137283
204	0xbf110b55	-0.56657916
205	0xbf9824d1	-1.1886235
206	0x3e45d9b7	0.19321333
207	0x3a93c963	0.0011275228
208	0xbedd26ba	-0.4319361
209	0xbedd26ba	-0.4319361
210	0x3a93c963	0.0011275228
211	0x3de53761	0.11192203
212	0xbe8f72f4	-0.2801739
213	0x3a93c963	0.0011275228
214	0xbd526c51	-0.05137283
215	0x3e45d9b7	0.19321333
216	0xbd526c51	-0.05137283
217	0xbe1ef3f7	-0.15522753
218	0xbe8f72f4	-0.2801739
219	0x3a93c963	0.0011275228
220	0xbe8f72f4	-0.2801739
221	0x3a93c963	0.0011275228
222	0xbd526c51	-0.05137283
223	0xbf110b55	-0.56657916
224	0xbd526c51	-0.05137283
225	0xbd526c51	-0.05137283
226	0xbf9824d1	-1.1886235
227	0x3de53761	0.11192203
228	0xbfb1a77d	-1.3879238
229	0xbf110b55	-0.56657916
230	0xbfb1a77d	-1.3879238
231	0x3de53761	0.11192203
232	0xbfb1a77d	-1.3879238
233	0x3e45d9b7	0.19321333
234	0x3e45d9b7	0.19321333
235	0x3e45d9b7	0.19321333
236	0x3e45d9b7	0.19321333
237	0xbfb1a77d	-1.3879238
238	0xbf9824d1	-1.1886235
239	0x3de53761	0.11192203
240	0x3e45d9b7	0.19321333
241	0x3de53761	0.11192203
242	0xbe1ef3f7	-0.15522753
243	0x3a93c963	0.0011275228
244	0x3e45d9b7	0.19321333
245	0x3de53761	0.11192203
246	0xbd526c51	-0.05137283
247	0xbf746c18	-0.9547744
248	0xbfb1a77d	-1.3879238
249	0x3a93c963	0.0011275228
250	0x3e45d9b7	0.19321333
251	0x3e45d9b7	0.19321333
252	0xbe1ef3f7	-0.15522753
253	0xbe1ef3f7	-0.15522753
254	0xbd526c51	-0.05137283
255	0xbfb1a77d	-1.3879238

model/transformer_block/multi_head_self_attention/dense_1/Tensordot/MatMul i1 [32, 32] scale=0.21477056 zero_point=0
0	0x02	0.4295411
1	0x01	0.21477056
2	0x05	1.0738528
3	0xfd	-0.64431167
4	0xf3	-2.7920172
5	0xff	-0.21477056
6	0xf6	-2.1477056
7	0x00	0.0
8	0xfd	-0.64431167
9	0xf1	-3.2215583
10	0xd8	-8.590822
11	0xfb	-1.0738528
12	0xf7	-1.932935
13	0xe3	-6.228346
14	0x1a	5.5840344
15	0xff	-0.21477056
16	0xfe	-0.4295411
17	0xf6	-2.1477056
18	0x1d	6.228346
19	0xfd	-0.64431167
20	0xff	-0.21477056
21	0xf0	-3.436329
22	0x10	3.436329
23	0xff	-0.21477056
24	0xf8	-1.7181644
25	0xf4	-2.5772467
26	0x10	3.436329
27	0x09	1.932935
28	0x03	0.64431167
29	0xfb	-1.0738528
30	0xfc	-0.8590822
31	0x01	0.21477056
32	0xfe	-0.4295411
33	0x05	1.0738528
34	0x05	1.0738528
35	0xfc	-0.8590822
36	0x01	0.21477056
37	0xfe	-0.4295411
38	0xfc	-0.8590822
39	0x05	1.0738528
40	0x14	4.295411
41	0x07	1.5033939
42	0xf7	-1.932935
43	0x04	0.8590822
44	0x03	0.64431167
45	0xfc	-0.8590822
46	0x1d	6.228346
47	0xd0	-10.308987
48	0x09	1.932935
49	0xfd	-0.64431167
50	0x2a	9.020363
51	0x17	4.939723
52	0xf9	-1.5033939
53	0x01	0.21477056
54	0x02	0.4295411
55	0x10	3.436329
56	0xea	-4.724952
57	0x04	0.8590822
58	0x13	4.080641
59	0x0a	2.1477056
60	0xec	-4.295411
61	0xf9	-1.5033939
62	0x06	1.2886233
63	0x06	1.2886233
64	0x15	4.5101814
65	0xf0	-3.436329
66	0xf8	-1.7181644
67	0xfa	-1.2886233
68	0xf5	-2.362476
69	0x0b	2.362476
70	0xf7	-1.932935
71	0xf5	-2.362476
72	0xff	-0.21477056
73	0xeb	-4.5101814
74	0xf0	-3.436329
75	0x08	1.7181644
76	0x18	5.1544933
77	0xe9	-4.939723
78	0x1e	6.4431167
79	0x0c	2.5772467
80	0xfb	-1.0738528
81	0x22	7.302199
82	0x18	5.1544933
83	0xec	-4.295411
84	0xff	-0.21477056
85	0x03	0.64431167
86	0xfe	-0.4295411
87	0x0f	3.2215583
88	0x03	0.64431167
89	0x03	0.64431167
90	0xfd	-0.64431167
91	0x07	1.5033939
92	0xf6	-2.1477056
93	0xfd	-0.64431167
94	0x0a	2.1477056
95	0x05	1.0738528
96	0xf9	-1.5033939
97	0x0a	2.1477056
98	0x02	0.4295411
99	0x01	0.21477056
100	0x04	0.8590822
101	0xf3	-2.7920172
102	0x0a	2.1477056
103	0x0b	2.362476
104	0x0c	2.5772467
105	0x06	1.2886233
106	0x42	14.174856
107	0x0d	2.7920172
108	0x0f	3.2215583
109	0x22	7.302199
110	0xd7	-8.805593
111	0x05	1.0738528
112	0x06	1.2886233
113	0x1f	6.6578875
114	0x00	0.0
115	0x12	3.86587
116	0x09	1.932935
117	0x07	1.5033939
118	0x0a	2.1477056
119	0x0c	2.5772467
120	0x08	1.7181644
121	0x12	3.86587
122	0x06	1.2886233
123	0x0c	2.5772467
124	0xfe	-0.4295411
125	0xfe	-0.4295411
126	0x06	1.2886233
127	0x0b	2.362476
128	0x00	0.0
129	0xff	-0.21477056
130	0xfe	-0.4295411
131	0xfe	-0.4295411
132	0xfc	-0.8590822
133	0x01	0.21477056
134	0xfa	-1.2886233
135	0x04	0.8590822
136	0xf4	-2.5772467
137	0x02	0.4295411
138	0xec	-4.295411
139	0x10	3.436329
140	0xf4	-2.5772467
141	0xf2	-3.0067878
142	0xf2	-3.0067878
143	0x11	3.6510994
144	0xf7	-1.932935
145	0xfa	-1.2886233
146	0xeb	-4.5101814
147	0xdc	-7.73174
148	0xf4	-2.5772467
149	0xfd	-0.64431167
150	0xe9	-4.939723
151	0xfe	-0.4295411
152	0x07	1.5033939
153	0xf3	-2.7920172
154	0xf6	-2.1477056
155	0xf4	-2.5772467
156	0x12	3.86587
157	0xf8	-1.7181644
158	0xfe	-0.4295411
159	0xf4	-2.5772467
160	0xff	-0.21477056
161	0x08	1.7181644
162	0x03	0.64431167
163	0x07	1.5033939
164	0xfd	-0.64431167
165	0xff	-0.21477056
166	0x0c	2.5772467
167	0xfd	-0.64431167
168	0xfd	-0.64431167
169	0xf0	-3.436329
170	0x15	4.5101814
171	0xf3	-2.7920172
172	0xf7	-1.932935
173	0x02	0.4295411
174	0xff	-0.21477056
175	0xed	-4.080641
176	0xfb	-1.0738528
177	0xe7	-5.3692636
178	0xf8	-1.7181644
179	0x0e	3.0067878
180	0xfe	-0.4295411
181	0xff	-0.21477056
182	0x01	0.21477056
183	0x01	0.21477056
184	0xf3	-2.7920172
185	0x01	0.21477056
186	0x2b	9.235134
187	0x02	0.4295411
188	0x1f	6.6578875
189	0x02	0.4295411
190	0xf9	-1.5033939
191	0xfe	-0.4295411
192	0x0f	3.2215583
193	0xf3	-2.7920172
194	0x0b	2.362476
195	0xf3	-2.7920172
196	0xff	-0.21477056
197	0xfc	-0.8590822
198	0xf8	-1.7181644
199	0x00	0.0
200	0xfb	-1.0738528
201	0x09	1.932935
202	0xdc	-7.73174
203	0xf1	-3.2215583
204	0x00	0.0
205	0xf3	-2.7920172
206	0x06	1.2886233
207	0xf4	-2.5772467
208	0xff	-0.21477056
209	0xfd	-0.64431167
210	0xfa	-1.2886233
211	0xf5	-2.362476
212	0xe5	-5.798805
213	0xf4	-2.5772467
214	0xf4	-2.5772467
215	0xf5	-2.362476
216	0xfe	-0.4295411
217	0xf4	-2.5772467
218	0xff	-0.21477056
219	0xf6	-2.1477056
220	0x00	0.0
221	0xf4	-2.5772467
222	0xfe	-0.4295411
223	0xe9	-4.939723
224	0xe6	-5.5840344
225	0x16	4.724952
226	0xf0	-3.436329
227	0x15	4.5101814
228	0xf3	-2.7920172
229	0x03	0.64431167
230	0x0a	2.1477056
231	0xf6	-2.1477056
232	0xfa	-1.2886233
233	0xf1	-3.2215583
234	0x10	3.436329
235	0x12	3.86587
236	0xfe	-0.4295411
237	0x14	4.295411
238	0xea	-4.724952
239	0xf0	-3.436329
240	0x0b	2.362476
241	0x03	0.64431167
242	0xef	-3.6510994
243	0x13	4.080641
244	0x02	0.4295411
245	0x05	1.0738528
246	0x00	0.0
247	0xf2	-3.0067878
248	0xfb	-1.0738528
249	0xf5	-2.362476
250	0x06	1.2886233
251	0xf7	-1.932935
252	0xf1	-3.2215583
253	0xfd	-0.64431167
254	0x00	0.0
255	0xf9	-1.5033939

model/transformer_block/multi_head_self_attention/dense_2/Tensordot/MatMul i1 [32, 32] scale=0.13589722 zero_point=0
0	0xfc	-0.5435889
1	0xd4	-5.979478
2	0xef	-2.3102527
3	0x18	3.2615333
4	0x31	6.6589637
5	0x01	0.13589722
6	0x05	0.6794861
7	0x0b	1.4948695
8	0x12	2.4461498
9	0x0f	2.0384583
10	0xf3	-1.7666638
11	0xca	-7.33845
12	0x1d	3.9410193
13	0xf5	-1.4948695
14	0xfd	-0.40769166
15	0x04	0.5435889
16	0xfd	-0.40769166
17	0x15	2.8538415
18	0xde	-4.6205053
19	0xf7	-1.2230749
20	0xfd	-0.40769166
21	0x12	2.4461498
22	0x05	0.6794861
23	0xf5	-1.4948695
24	0x08	1.0871778
25	0xfc	-0.5435889
26	0x14	2.7179444
27	0xf9	-0.95128053
28	0x1c	3.8051221
29	0x02	0.27179444
30	0x16	2.989739
31	0x01	0.13589722
32	0xfd	-0.40769166
33	0xd2	-6.251272
34	0xed	-2.5820472
35	0x0e	1.9025611
36	0x0a	1.3589722
37	0xed	-2.5820472
38	0xfa	-0.8153833
39	0x0a	1.3589722
40	0x36	7.33845
41	0x04	0.5435889
42	0xbc	-9.241011
43	0x0c	1.6307666
44	0x03	0.40769166
45	0xeb	-2.8538415
46	0x12	2.4461498
47	0xf9	-0.95128053
48	0x0f	2.0384583
49	0xfa	-0.8153833
50	0x0d	1.7666638
51	0xfa	-0.8153833
52	0x0d	1.7666638
53	0xff	-0.13589722
54	0x1f	4.212814
55	0xfc	-0.5435889
56	0x0e	1.9025611
57	0xf9	-0.95128053
58	0x13	2.5820472
59	0xf4	-1.6307666
60	0xea	-2.989739
61	0xf2	-1.9025611
62	0x08	1.0871778
63	0xf2	-1.9025611
64	0xda	-5.1640944
65	0x1c	3.8051221
66	0x11	2.3102527
67	0x10	2.1743555
68	0x14	2.7179444
69	0xf9	-0.95128053
70	0x07	0.95128053
71	0x08	1.0871778
72	0xea	-2.989739
73	0x33	6.930758
74	0x19	3.3974304
75	0xf5	-1.4948695
76	0x0c	1.6307666
77	0x39	7.7461414
78	0xf3	-1.7666638
79	0xf5	-1.4948695
80	0x14	2.7179444
81	0xfc	-0.5435889
82	0xf4	-1.6307666
83	0x18	3.2615333
84	0xf2	-1.9025611
85	0xf8	-1.0871778
86	0x26	5.1640944
87	0xf3	-1.7666638
88	0xf6	-1.3589722
89	0xf4	-1.6307666
90	0x31	6.6589637
91	0xf1	-2.0384583
92	0x0a	1.3589722
93	0xfb	-0.6794861
94	0x07	0.95128053
95	0xef	-2.3102527
96	0x10	2.1743555
97	0xd8	-5.435889
98	0x0b	1.4948695
99	0xfc	-0.5435889
100	0x0b	1.4948695
101	0x16	2.989739
102	0x01	0.13589722
103	0x1e	4.0769167
104	0xf7	-1.2230749
105	0x04	0.5435889
106	0x25	5.0281973
107	0x04	0.5435889
108	0x10	2.1743555
109	0x2a	5.707683
110	0xf9	-0.95128053
111	0x06	0.8153833
112	0x1b	3.669225
113	0x19	3.3974304
114	0xf4	-1.6307666
115	0x08	1.0871778
116	0x06	0.8153833
117	0x03	0.40769166
118	0xf2	-1.9025611
119	0x00	0.0
120	0x09	1.2230749
121	0x00	0.0
122	0xd8	-5.435889
123	0x01	0.13589722
124	0xda	-5.1640944
125	0x04	0.5435889
126	0x05	0.6794861
127	0x02	0.27179444
128	0xe1	-4.212814
129	0x2e	6.251272
130	0xfe	-0.27179444
131	0x1e	4.0769167
132	0xfc	-0.5435889
133	0x07	0.95128053
134	0x09	1.2230749
135	0x03	0.40769166
136	0xe2	-4.0769167
137	0x0c	1.6307666
138	0x00	0.0
139	0xf6	-1.3589722
140	0xfb	-0.6794861
141	0xfd	-0.40769166
142	0x0d	1.7666638
143	0xec	-2.7179444
144	0x0e	1.9025611
145	0x02	0.27179444
146	0x00	0.0
147	0x07	0.95128053
148	0x08	1.0871778
149	0x0c	1.6307666
150	0xfa	-0.8153833
151	0xfb	-0.6794861
152	0x03	0.40769166
153	0xfc	-0.5435889
154	0xdb	-5.0281973
155	0x03	0.40769166
156	0xd9	-5.2999916
157	0x04	0.5435889
158	0x1c	3.8051221
159	0xfa	-0.8153833
160	0xf1	-2.0384583
161	0x14	2.7179444
162	0x05	0.6794861
163	0x07	0.95128053
164	0xf7	-1.2230749
165	0x07	0.95128053
166	0x0f	2.0384583
167	0xf4	-1.6307666
168	0xe5	-3.669225
169	0x0e	1.9025611
170	0xcc	-7.066655
171	0x1b	3.669225
172	0x0b	1.4948695
173	0xe3	-3.9410193
174	0x13	2.5820472
175	0x1a	3.5333276
176	0xf4	-1.6307666
177	0x17	3.125636
178	0xe3	-3.9410193
179	0xf0	-2.1743555
180	0xf3	-1.7666638
181	0x0a	1.3589722
182	0xfc	-0.5435889
183	0xf9	-0.95128053
184	0x14	2.7179444
185	0x07	0.95128053
186	0xe9	-3.125636
187	0xfd	-0.40769166
188	0xe8	-3.2615333
189	0x0e	1.9025611
190	0x0d	1.7666638
191	0x02	0.27179444
192	0xcb	-7.202553
193	0x1f	4.212814
194	0xd1	-6.3871694
195	0x13	2.5820472
196	0x10	2.1743555
197	0xf8	-1.0871778
198	0x0a	1.3589722
199	0x16	2.989739
200	0xf5	-1.4948695
201	0xf0	-2.1743555
202	0x36	7.33845
203	0x0d	1.7666638
204	0x0e	1.9025611
205	0x29	5.571786
206	0xe5	-3.669225
207	0x0a	1.3589722
208	0x04	0.5435889
209	0x10	2.1743555
210	0xc7	-7.7461414
211	0xff	-0.13589722
212	0x00	0.0
213	0x06	0.8153833
214	0x26	5.1640944
215	0x03	0.40769166
216	0xef	-2.3102527
217	0x01	0.13589722
218	0x20	4.348711
219	0x03	0.40769166
220	0xf0	-2.1743555
221	0xf8	-1.0871778
222	0x1c	3.8051221
223	0x00	0.0
224	0xb9	-9.648703
225	0x2d	6.115375
226	0xf0	-2.1743555
227	0x07	0.95128053
228	0xe3	-3.9410193
229	0x0a	1.3589722
230	0x05	0.6794861
231	0xe9	-3.125636
232	0xf8	-1.0871778
233	0xee	-2.4461498
234	0xed	-2.5820472
235	0x0f	2.0384583
236	0xf9	-0.95128053
237	0xfa	-0.8153833
238	0x05	0.6794861
239	0xf4	-1.6307666
240	0x09	1.2230749
241	0xfc	-0.5435889
242	0x19	3.3974304
243	0x07	0.95128053
244	0xe5	-3.669225
245	0xf8	-1.0871778
246	0x06	0.8153833
247	0x05	0.6794861
248	0xf9	-0.95128053
249	0x01	0.13589722
250	0xe7	-3.3974304
251	0x06	0.8153833
252	0xf1	-2.0384583
253	0x01	0.13589722
254	0x04	0.5435889
255	0xfe	-0.27179444

model/transformer_block/multi_head_self_attention/dense/Tensordot/MatMul i1 [32, 32] scale=0.10904271 zero_point=0
0	0xff	-0.10904271
1	0x47	7.7420325
2	0xe7	-2.7260678
3	0x27	4.2526655
4	0xf6	-1.0904272
5	0x08	0.8723417
6	0xd8	-4.3617086
7	0x03	0.32712814
8	0xe6	-2.8351104
9	0x00	0.0
10	0xca	-5.8883066
11	0xad	-9.050545
12	0x19	2.7260678
13	0xd4	-4.797879
14	0x20	3.4893668
15	0x06	0.6542563
16	0xfa	-0.6542563
17	0x0b	1.1994698
18	0x1b	2.9441533
19	0xf4	-1.3085126
20	0x0d	1.4175552
21	0x04	0.43617085
22	0x20	3.4893668
23	0xfc	-0.43617085
24	0x1e	3.2712812
25	0xf8	-0.8723417
26	0xf6	-1.0904272
27	0xfe	-0.21808542
28	0x02	0.21808542
29	0xf5	-1.1994698
30	0x1d	3.1622386
31	0xfd	-0.32712814
32	0xd8	-4.3617086
33	0xc9	-5.9973493
34	0xbe	-7.196819
35	0xdf	-3.5984094
36	0x04	0.43617085
37	0xe9	-2.5079823
38	0x11	1.8537261
39	0xc1	-6.869691
40	0x05	0.5452136
41	0xd8	-4.3617086
42	0xeb	-2.289897
43	0xdb	-4.03458
44	0x12	1.9627688
45	0xf0	-1.7446834
46	0x1b	2.9441533
47	0xe6	-2.8351104
48	0xfe	-0.21808542
49	0x0e	1.526598
50	0x0b	1.1994698
51	0x19	2.7260678
52	0xee	-1.9627688
53	0x01	0.10904271
54	0xf6	-1.0904272
55	0x1e	3.2712812
56	0xee	-1.9627688
57	0x1b	2.9441533
58	0x2e	5.0159645
59	0x20	3.4893668
60	0x2c	4.797879
61	0x1c	3.053196
62	0xed	-2.0718114
63	0x16	2.3989396
64	0xdb	-4.03458
65	0xac	-9.159588
66	0x1a	2.8351104
67	0x06	0.6542563
68	0xe8	-2.6170251
69	0x1a	2.8351104
70	0x25	4.03458
71	0xcd	-5.561178
72	0x08	0.8723417
73	0x0b	1.1994698
74	0xfb	-0.5452136
75	0x2b	4.6888366
76	0x0e	1.526598
77	0x04	0.43617085
78	0xea	-2.3989396
79	0x1f	3.3803241
80	0x04	0.43617085
81	0x1b	2.9441533
82	0xfd	-0.32712814
83	0xf6	-1.0904272
84	0x03	0.32712814
85	0xf3	-1.4175552
86	0xf0	-1.7446834
87	0xfa	-0.6542563
88	0x0b	1.1994698
89	0xf7	-0.9813844
90	0xc2	-6.7606483
91	0xf6	-1.0904272
92	0xd6	-4.579794
93	0xf6	-1.0904272
94	0x19	2.7260678
95	0xf3	-1.4175552
96	0xf7	-0.9813844
97	0x1f	3.3803241
98	0xf7	-0.9813844
99	0xe3	-3.1622386
100	0xfa	-0.6542563
101	0xee	-1.9627688
102	0xe8	-2.6170251
103	0x16	2.3989396
104	0xc7	-6.2154346
105	0xe7	-2.7260678
106	0xd6	-4.579794
107	0xd6	-4.579794
108	0xf8	-0.8723417
109	0xf3	-1.4175552
110	0x04	0.43617085
111	0xe9	-2.5079823
112	0x06	0.6542563
113	0xe3	-3.1622386
114	0xef	-1.8537261
115	0x03	0.32712814
116	0xf1	-1.6356406
117	0xd5	-4.6888366
118	0xff	-0.10904271
119	0xe6	-2.8351104
120	0xe4	-3.053196
121	0xe2	-3.2712812
122	0x08	0.8723417
123	0xeb	-2.289897
124	0xee	-1.9627688
125	0xe5	-2.9441533
126	0xcf	-5.343093
127	0xeb	-2.289897
128	0xc1	-6.869691
129	0xb6	-8.06916
130	0x0b	1.1994698
131	0x0f	1.6356406
132	0x23	3.816495
133	0x03	0.32712814
134	0xfc	-0.43617085
135	0xf8	-0.8723417
136	0x36	5.8883066
137	0x0b	1.1994698
138	0xf0	-1.7446834
139	0xed	-2.0718114
140	0x0f	1.6356406
141	0x04	0.43617085
142	0x0d	1.4175552
143	0xcf	-5.343093
144	0x2a	4.579794
145	0x04	0.43617085
146	0x17	2.5079823
147	0xfd	-0.32712814
148	0x32	5.4521356
149	0x0c	1.3085126
150	0x15	2.289897
151	0xfd	-0.32712814
152	0xe5	-2.9441533
153	0xfb	-0.5452136
154	0xef	-1.8537261
155	0xfb	-0.5452136
156	0xdf	-3.5984094
157	0xf8	-0.8723417
158	0x20	3.4893668
159	0xfc	-0.43617085
160	0xf9	-0.763299
161	0x05	0.5452136
162	0x30	5.2340503
163	0x09	0.9813844
164	0xda	-4.143623
165	0x05	0.5452136
166	0xdd	-3.816495
167	0xf3	-1.4175552
168	0xfc	-0.43617085
169	0x25	4.03458
170	0x54	9.159588
171	0xe5	-2.9441533
172	0x24	3.9255376
173	0x27	4.2526655
174	0xeb	-2.289897
175	0x21	3.5984094
176	0xea	-2.3989396
177	0x15	2.289897
178	0xe6	-2.8351104
179	0x02	0.21808542
180	0x04	0.43617085
181	0x16	2.3989396
182	0xe5	-2.9441533
183	0x02	0.21808542
184	0x07	0.763299
185	0x0a	1.0904272
186	0x0b	1.1994698
187	0x04	0.43617085
188	0x09	0.9813844
189	0x08	0.8723417
190	0x23	3.816495
191	0x0a	1.0904272
192	0xeb	-2.289897
193	0x25	4.03458
194	0x06	0.6542563
195	0xf5	-1.1994698
196	0xfa	-0.6542563
197	0xf6	-1.0904272
198	0x1a	2.8351104
199	0xf3	-1.4175552
200	0x16	2.3989396
201	0x1a	2.8351104
202	0x27	4.2526655
203	0x37	5.9973493
204	0xf1	-1.6356406
205	0xfb	-0.5452136
206	0x21	3.5984094
207	0x0d	1.4175552
208	0xf5	-1.1994698
209	0x03	0.32712814
210	0x15	2.289897
211	0x0f	1.6356406
212	0xf3	-1.4175552
213	0x03	0.32712814
214	0xe4	-3.053196
215	0x33	5.561178
216	0xf5	-1.1994698
217	0x2f	5.1250076
218	0x12	1.9627688
219	0x29	4.4707513
220	0x18	2.6170251
221	0x2e	5.0159645
222	0xd2	-5.0159645
223	0x2f	5.1250076
224	0x18	2.6170251
225	0x0a	1.0904272
226	0xe5	-2.9441533
227	0xff	-0.10904271
228	0x03	0.32712814
229	0xf9	-0.763299
230	0x0c	1.3085126
231	0x1a	2.8351104
232	0xf8	-0.8723417
233	0x0c	1.3085126
234	0x0b	1.1994698
235	0x12	1.9627688
236	0x05	0.5452136
237	0x3a	6.324477
238	0xf8	-0.8723417
239	0xe4	-3.053196
240	0x1d	3.1622386
241	0xff	-0.10904271
242	0x0b	1.1994698
243	0x06	0.6542563
244	0x21	3.5984094
245	0x27	4.2526655
246	0x4e	8.505331
247	0xf9	-0.763299
248	0xf6	-1.0904272
249	0xf9	-0.763299
250	0x36	5.8883066
251	0xfa	-0.6542563
252	0xfc	-0.43617085
253	0xf9	-0.763299
254	0x41	7.087776
255	0xfe	-0.21808542

model/transformer_block/multi_head_self_attention/dense_3/Tensordot/MatMul i1 [32, 32] scale=0.072852835 zero_point=0
0	0x24	2.6227021
1	0x22	2.4769964
2	0x04	0.29141134
3	0xbd	-4.8811398
4	0x31	3.569789
5	0x24	2.6227021
6	0xb0	-5.828227
7	0x0d	0.9470869
8	0xff	-0.072852835
9	0x06	0.437117
10	0xff	-0.072852835
11	0x59	6.4839025
12	0x39	4.1526117
13	0x0e	1.0199397
14	0xe1	-2.2584379
15	0xb3	-5.6096683
16	0x63	7.2124305
17	0xe5	-1.9670266
18	0xcf	-3.569789
19	0x1c	2.0398793
20	0x10	1.1656454
21	0xb4	-5.5368156
22	0x28	2.9141135
23	0xff	-0.072852835
24	0xeb	-1.5299095
25	0x07	0.50996983
26	0xeb	-1.5299095
27	0x11	1.2384982
28	0x0e	1.0199397
29	0xb8	-5.2454042
30	0xfd	-0.2185585
31	0x48	5.2454042
32	0xf6	-0.7285284
33	0xef	-1.2384982
34	0xfc	-0.29141134
35	0xf3	-0.9470869
36	0xfb	-0.3642642
37	0xfe	-0.14570567
38	0x3f	4.589729
39	0x3d	4.444023
40	0xec	-1.4570568
41	0x1a	1.8941737
42	0x04	0.29141134
43	0x20	2.3312907
44	0xff	-0.072852835
45	0x2d	3.2783775
46	0x02	0.14570567
47	0x06	0.437117
48	0xd4	-3.2055247
49	0x75	8.523782
50	0x13	1.3842039
51	0x3a	4.2254643
52	0xab	-6.192491
53	0xab	-6.192491
54	0xff	-0.072852835
55	0xeb	-1.5299095
56	0x0b	0.8013812
57	0xb7	-5.318257
58	0x12	1.3113511
59	0xeb	-1.5299095
60	0xe5	-1.9670266
61	0x14	1.4570568
62	0xe0	-2.3312907
63	0x29	2.9869661
64	0x03	0.2185585
65	0x2a	3.059819
66	0x29	2.9869661
67	0x0c	0.874234
68	0xe3	-2.1127322
69	0xda	-2.7684078
70	0xe4	-2.0398793
71	0x28	2.9141135
72	0x0c	0.874234
73	0x5e	6.8481665
74	0xe8	-1.748468
75	0xde	-2.4769964
76	0xea	-1.6027623
77	0x09	0.65567553
78	0xc8	-4.0797586
79	0xdf	-2.4041436
80	0x32	3.6426418
81	0x1a	1.8941737
82	0xef	-1.2384982
83	0xe9	-1.6756152
84	0xf1	-1.0927925
85	0x07	0.50996983
86	0x16	1.6027623
87	0x14	1.4570568
88	0x13	1.3842039
89	0x13	1.3842039
90	0x02	0.14570567
91	0xec	-1.4570568
92	0xd7	-2.9869661
93	0x7e	9.179458
94	0x29	2.9869661
95	0xf7	-0.65567553
96	0x02	0.14570567
97	0xee	-1.3113511
98	0x08	0.5828227
99	0x19	1.8213209
100	0x4c	5.5368156
101	0xa0	-6.993872
102	0x3b	4.2983174
103	0xfa	-0.437117
104	0x28	2.9141135
105	0x3e	4.5168757
106	0x15	1.5299095
107	0xe3	-2.1127322
108	0xbe	-4.808287
109	0x26	2.7684078
110	0x1d	2.1127322
111	0xd5	-3.1326718
112	0xc7	-4.1526117
113	0xf0	-1.1656454
114	0x06	0.437117
115	0x38	4.0797586
116	0x16	1.6027623
117	0xd2	-3.3512304
118	0xe9	-1.6756152
119	0x1d	2.1127322
120	0x0a	0.7285284
121	0xfb	-0.3642642
122	0x38	4.0797586
123	0xde	-2.4769964
124	0xea	-1.6027623
125	0xb7	-5.318257
126	0x02	0.14570567
127	0x4c	5.5368156
128	0x0c	0.874234
129	0x15	1.5299095
130	0xd7	-2.9869661
131	0x33	3.7154946
132	0xf4	-0.874234
133	0x0f	1.0927925
134	0xd6	-3.059819
135	0x22	2.4769964
136	0xf6	-0.7285284
137	0xfe	-0.14570567
138	0xfa	-0.437117
139	0x27	2.8412607
140	0x08	0.5828227
141	0x1e	2.185585
142	0xfc	-0.29141134
143	0x36	3.9340532
144	0x02	0.14570567
145	0xbb	-5.0268455
146	0xbd	-4.8811398
147	0x19	1.8213209
148	0xd6	-3.059819
149	0x1d	2.1127322
150	0xc4	-4.37117
151	0xcc	-3.7883475
152	0x35	3.8612003
153	0x11	1.2384982
154	0xe7	-1.8213209
155	0xbf	-4.735434
156	0x42	4.808287
157	0xa9	-6.3381968
158	0x10	1.1656454
159	0x0b	0.8013812
160	0x12	1.3113511
161	0x81	-9.25231
162	0xc5	-4.2983174
163	0x19	1.8213209
164	0xe4	-2.0398793
165	0x0a	0.7285284
166	0xe4	-2.0398793
167	0xde	-2.4769964
168	0xf2	-1.0199397
169	0xf2	-1.0199397
170	0x4a	5.39111
171	0xf1	-1.0927925
172	0xdc	-2.6227021
173	0x2a	3.059819
174	0x02	0.14570567
175	0xf6	-0.7285284
176	0xba	-5.0996985
177	0xe2	-2.185585
178	0x03	0.2185585
179	0x1e	2.185585
180	0xce	-3.6426418
181	0x4b	5.4639626
182	0x13	1.3842039
183	0x24	2.6227021
184	0xe4	-2.0398793
185	0xeb	-1.5299095
186	0x19	1.8213209
187	0x88	-8.74234
188	0x26	2.7684078
189	0x04	0.29141134
190	0xdc	-2.6227021
191	0x0d	0.9470869
192	0xc0	-4.6625814
193	0xdc	-2.6227021
194	0xae	-5.9739323
195	0xf9	-0.50996983
196	0x09	0.65567553
197	0xef	-1.2384982
198	0xc8	-4.0797586
199	0xdd	-2.5498493
200	0x05	0.3642642
201	0xff	-0.072852835
202	0xce	-3.6426418
203	0x1f	2.2584379
204	0x06	0.437117
205	0xd0	-3.496936
206	0xe7	-1.8213209
207	0xe8	-1.748468
208	0x09	0.65567553
209	0xf1	-1.0927925
210	0xe6	-1.8941737
211	0xdd	-2.5498493
212	0x06	0.437117
213	0xe2	-2.185585
214	0xc4	-4.37117
215	0xc0	-4.6625814
216	0xd9	-2.8412607
217	0xe6	-1.8941737
218	0x2e	3.3512304
219	0x2b	3.1326718
220	0xa5	-6.629608
221	0xfb	-0.3642642
222	0x20	2.3312907
223	0x3a	4.2254643
224	0xf0	-1.1656454
225	0x15	1.5299095
226	0x13	1.3842039
227	0xd1	-3.4240832
228	0xf5	-0.8013812
229	0x0e	1.0199397
230	0x20	2.3312907
231	0x26	2.7684078
232	0x3e	4.5168757
233	0xfd	-0.2185585
234	0xfe	-0.14570567
235	0x27	2.8412607
236	0x03	0.2185585
237	0x1a	1.8941737
238	0xfb	-0.3642642
239	0x06	0.437117
240	0xef	-1.2384982
241	0x22	2.4769964
242	0xe3	-2.1127322
243	0x1a	1.8941737
244	0xe6	-1.8941737
245	0x31	3.569789
246	0xac	-6.119638
247	0x11	1.2384982
248	0xcd	-3.7154946
249	0x10	1.1656454
250	0x0f	1.0927925
251	0x60	6.993872
252	0x41	4.735434
253	0x11	1.2384982
254	0x0a	0.7285284
255	0xdb	-2.695555

model/transformer_block/sequential/dense_4/Tensordot/MatMul i1 [128, 32] scale=0.116448395 zero_point=0
0	0xf2	-1.6302775
1	0xf2	-1.6302775
2	0x17	2.678313
3	0x1b	3.1441066
4	0x10	1.8631743
5	0x28	4.6579356
6	0xe8	-2.7947614
7	0xe7	-2.9112098
8	0xd1	-5.4730744
9	0xde	-3.9592454
10	0xee	-2.096071
11	0xfa	-0.69869035
12	0x27	4.541487
13	0x05	0.58224195
14	0x0d	1.5138291
15	0x28	4.6579356
16	0xf4	-1.3973807
17	0xf0	-1.8631743
18	0x0b	1.2809323
19	0xec	-2.3289678
20	0xc6	-6.754007
21	0x00	0.0
22	0x19	2.9112098
23	0x01	0.116448395
24	0xff	-0.116448395
25	0x02	0.23289679
26	0x1f	3.6099002
27	0xf7	-1.0480355
28	0xe3	-3.3770034
29	0x14	2.3289678
30	0x24	4.192142
31	0xb5	-8.733629
32	0x12	2.096071
33	0xdb	-4.3085904
34	0x06	0.69869035
35	0x1a	3.0276582
36	0xe8	-2.7947614
37	0x23	4.0756936
38	0x0a	1.1644839
39	0x03	0.34934518
40	0xfb	-0.58224195
41	0xbe	-7.685594
42	0xe9	-2.678313
43	0xe9	-2.678313
44	0xf3	-1.5138291
45	0x0a	1.1644839
46	0x12	2.096071
47	0x1e	3.4934518
48	0x01	0.116448395
49	0xd8	-4.6579356
50	0x18	2.7947614
51	0xfe	-0.23289679
52	0xfd	-0.34934518
53	0x14	2.3289678
54	0x22	3.9592454
55	0x06	0.69869035
56	0x3d	7.103352
57	0xbf	-7.5691457
58	0x3b	6.8704553
59	0xfd	-0.34934518
60	0xfe	-0.23289679
61	0xe2	-3.4934518
62	0xff	-0.116448395
63	0xe1	-3.6099002
64	0x26	4.425039
65	0xf9	-0.81513876
66	0x1b	3.1441066
67	0x1a	3.0276582
68	0x11	1.9796227
69	0xfd	-0.34934518
70	0xfb	-0.58224195
71	0xe3	-3.3770034
72	0x12	2.096071
73	0xff	-0.116448395
74	0x0c	1.3973807
75	0x33	5.938868
76	0x01	0.116448395
77	0x06	0.69869035
78	0xf7	-1.0480355
79	0xe2	-3.4934518
80	0xe0	-3.7263486
81	0xba	-8.151387
82	0xf9	-0.81513876
83	0x0f	1.7467259
84	0x07	0.81513876
85	0xeb	-2.4454162
86	0x39	6.6375585
87	0x48	8.384284
88	0xf0	-1.8631743
89	0xee	-2.096071
90	0xee	-2.096071
91	0xcd	-5.938868
92	0xff	-0.116448395
93	0xf6	-1.1644839
94	0xe3	-3.3770034
95	0xe5	-3.1441066
96	0xd8	-4.6579356
97	0x2e	5.356626
98	0x2c	5.123729
99	0x0d	1.5138291
100	0x0f	1.7467259
101	0xf3	-1.5138291
102	0xc9	-6.4046617
103	0x1a	3.0276582
104	0x16	2.5618646
105	0xe3	-3.3770034
106	0x29	4.774384
107	0x15	2.4454162
108	0x26	4.425039
109	0x33	5.938868
110	0x0e	1.6302775
111	0xea	-2.5618646
112	0xed	-2.2125194
113	0xfd	-0.34934518
114	0xd9	-4.541487
115	0xff	-0.116448395
116	0x14	2.3289678
117	0xf0	-1.8631743
118	0x23	4.0756936
119	0xff	-0.116448395
120	0xf2	-1.6302775
121	0xf6	-1.1644839
122	0xf9	-0.81513876
123	0xba	-8.151387
124	0xe4	-3.260555
125	0xbb	-8.034939
126	0x15	2.4454162
127	0xed	-2.2125194
128	0x1f	3.6099002
129	0xe8	-2.7947614
130	0xe8	-2.7947614
131	0x10	1.8631743
132	0xfa	-0.69869035
133	0xf5	-1.2809323
134	0x05	0.58224195
135	0xf8	-0.93158716
136	0xf6	-1.1644839
137	0x13	2.2125194
138	0x1d	3.3770034
139	0x16	2.5618646
140	0xf3	-1.5138291
141	0x2b	5.007281
142	0x05	0.58224195
143	0xfd	-0.34934518
144	0xbd	-7.8020425
145	0x05	0.58224195
146	0xf7	-1.0480355
147	0xd6	-4.8908324
148	0xfe	-0.23289679
149	0xf9	-0.81513876
150	0x1c	3.260555
151	0x0b	1.2809323
152	0x20	3.7263486
153	0x1c	3.260555
154	0x06	0.69869035
155	0xc5	-6.8704553
156	0xd2	-5.356626
157	0xdd	-4.0756936
158	0x2f	5.4730744
159	0x00	0.0
160	0xf6	-1.1644839
161	0xc1	-7.336249
162	0x31	5.7059712
163	0x20	3.7263486
164	0xcc	-6.0553164
165	0x09	1.0480355
166	0xf2	-1.6302775
167	0x0b	1.2809323
168	0xdd	-4.0756936
169	0xf0	-1.8631743
170	0x08	0.93158716
171	0xf7	-1.0480355
172	0xfd	-0.34934518
173	0x12	2.096071
174	0xe7	-2.9112098
175	0x09	1.0480355
176	0xfc	-0.46579358
177	0x0f	1.7467259
178	0xfd	-0.34934518
179	0xea	-2.5618646
180	0xef	-1.9796227
181	0x1e	3.4934518
182	0x10	1.8631743
183	0x27	4.541487
184	0x2a	4.8908324
185	0xf5	-1.2809323
186	0x41	7.5691457
187	0xec	-2.3289678
188	0x15	2.4454162
189	0xc4	-6.9869037
190	0xde	-3.9592454
191	0xf1	-1.7467259
192	0x02	0.23289679
193	0xb0	-9.315871
194	0x1a	3.0276582
195	0x07	0.81513876
196	0x2a	4.8908324
197	0x31	5.7059712
198	0xe5	-3.1441066
199	0xf5	-1.2809323
200	0xc8	-6.52111
201	0xf3	-1.5138291
202	0xf3	-1.5138291
203	0xf8	-0.93158716
204	0xf7	-1.0480355
205	0x21	3.842797
206	0x1e	3.4934518
207	0x0c	1.3973807
208	0x03	0.34934518
209	0x0c	1.3973807
210	0x0b	1.2809323
211	0xc3	-7.103352
212	0xf6	-1.1644839
213	0xfa	-0.69869035
214	0x05	0.58224195
215	0x3f	7.336249
216	0x08	0.93158716
217	0x11	1.9796227
218	0x05	0.58224195
219	0xf7	-1.0480355
220	0xeb	-2.4454162
221	0xee	-2.096071
222	0x13	2.2125194
223	0xde	-3.9592454
224	0x11	1.9796227
225	0xe5	-3.1441066
226	0xf2	-1.6302775
227	0xfd	-0.34934518
228	0x21	3.842797
229	0x4d	8.966526
230	0xe6	-3.0276582
231	0xff	-0.116448395
232	0xff	-0.116448395
233	0xe4	-3.260555
234	0x00	0.0
235	0x15	2.4454162
236	0x30	5.589523
237	0x3c	6.9869037
238	0x21	3.842797
239	0xf4	-1.3973807
240	0xda	-4.425039
241	0xf6	-1.1644839
242	0xe5	-3.1441066
243	0xec	-2.3289678
244	0xeb	-2.4454162
245	0xf7	-1.0480355
246	0x2d	5.2401776
247	0xf3	-1.5138291
248	0xee	-2.096071
249	0xee	-2.096071
250	0xf0	-1.8631743
251	0xef	-1.9796227
252	0x0e	1.6302775
253	0xe4	-3.260555
254	0x29	4.774384
255	0xf8	-0.93158716
